L4DC_2024/models/autoencoder_Rossler_noise0.pt (torch, 168940 bytes, 19 tensors)

A.weight f4 [7, 7]
00000000: 2180 3c3f c444 ddbc 9c68 74bd 3692 5abd
00000010: 3510 3cbd e46d 67bd 0023 c5bc 8e65 a3bd
00000020: 1aa0 3e3f 68fb babd 3e35 8cbd 2fa8 62bd
00000030: e221 97bd dece abbc d831 98bc 600a fb3c
00000040: ae50 483f 2d88 49bd b299 6abd bab1 3abd
00000050: 8717 17bd fba5 ccbb 98c3 9c3c c125 853c
00000060: 0055 4d3f bfce 01bd 5180 34bc a7e1 28bd
00000070: ac32 873c 0312 223d 3eba 063d 2a06 36bc
00000080: 541f 523f 0160 9f3c 52f4 5bbd f06e 1aba
00000090: 97ac 173d b225 343c fa27 2fbd b6b3 5abd
000000a0: 747e 563f ffd9 6fbd 3fe0 eebc 841a 81bd
000000b0: df86 aabc fcc1 debc ff9f a1bc 965d 493b
000000c0: 0b96 593f
0.7363301 -0.027010329 -0.059670076 -0.053362094 -0.045913894 -0.056501284 -0.02406454 -0.079783544
0.74463046 -0.09129983 -0.06846093 -0.055336174 -0.073795095 -0.020972665 -0.018578455 0.030644596
0.7824811 -0.049202133 -0.05727548 -0.04557965 -0.03688767 -0.0062453724 0.019136235 0.016253354
0.80207825 -0.03169131 -0.011016921 -0.041230824 0.016503654 0.03956796 0.03289246 -0.011109868
0.8207905 0.019454958 -0.0536998 -0.0005891165 0.03702983 0.010995315 -0.042762734 -0.053394042
0.837867 -0.058557507 -0.029159663 -0.063038856 -0.020816265 -0.027192108 -0.019729612 0.0030725948
0.8499457

decoder.0.weight f4 [128, 7]
00000000: be6b 033d cfa4 163e a6ff 823e 6a2a 233e
00000010: ebf6 523e 8405 60be 83a9 81be e547 923e
00000020: 8640 e939 68d4 9cbe ff14 a83e dcd1 413e
00000030: 820f 82be ac01 98be aed8 15be ef54 00bf
00000040: 9af3 02bf 45e2 4a3e b609 5c3e 6fcd 90be
00000050: ea9f b6bd 6fd9 b9be 5c0c 493e 4628 98be
00000060: 20f1 253e a68d b23c 68cc 273e 5e4d acbc
00000070: 05e9 7fbe f3f6 da3e 0f6d 8b3e f9bf 27be
00000080: 2d55 d1bd 9d1e f43c ef2d 413e 4a44 843e
00000090: 2817 a93e 6191 8dbd d863 c73e dd34 333d
000000a0: 411a 92be 3d00 463d 2665 f2bc 7d44 93bd
000000b0: 6074 7dbc 2a99 793e ef9f 97be 04df a9be
000000c0: 28db 923e d21b a3be 789d 7bbd a374 a0be
000000d0: bee9 1fbe c818 d23e d9f5 873e f2c9 60be
000000e0: 9829 813e c6d5 79bc a4ea 1d3e 79b1 3b3e
000000f0: 244f 91be 8001 193e c0bb afbd facd b63e
00000100: ce75 0d3e 0681 f73e 23c5 dc3d c266 cc3e
00000110: 0842 94be d0a1 90be d26e b4be 5e4d c0be
00000120: 46ab 5dbe 3b17 c63e 89cc a0bc 898e f1be
00000130: 9ed5 a5bd 5cf6 f23d 19d6 6fbe b9e0 79bd
00000140: 64da 913e a34b cebe 221c a1bd b886 643e
00000150: fd8a ab3d 62b5 933e e1b6 acbe d9b4 cabe
00000160: 08a2 213e 3e80 5c3e 6111 0f3e 0fb8 5dbd
00000170: 0e01 ecbe 3c70 953e 1fc4 0f3e 7247 8d3e
00000180: c2c0 86be 48e4 12be 84c7 653d 07b0 90be
00000190: a429 80be 8685 083e df7d 8c3d 7cca 713d
000001a0: b2d5 adbd 9d57 aa3e c55f 50be 85be a03e
000001b0: 3844 453e 4bb3 7fbd 66d6 2a3e 4e57 97be
000001c0: fa19 f3bc c4be c6be 1059 123e a6b9 93be
000001d0: 992a 8f3e 6eab 10be 6706 4bbd 6b8d 5dbe
000001e0: e698 36bf 1e66 34bf 08b7 453e 9b53 05be
000001f0: d8a3 06be bc78 1f3d 8c08 e2bd a9d2 7a3e
00000200: c024 8fbd 883b 923d 0e2b f93d 5efb 973d
00000210: 1382 38be 70a2 143e 24bb b5be d9ac b1be
00000220: adc8 673e 4b3c 743e 1ffb 93bc 3ad7 0ebe
00000230: 35d0 843e a4c7 9cbe c3ba b7be 1cf1 8cbd
00000240: f8e8 bf3d d123 5c3e c88a f8bd 1ce7 373e
00000250: ee48 cc3e ecee bbbe 9714 2a3e ce50 a4be
00000260: 8917 87be 357d a23e a705 e73e df6a 103f
00000270: 6e99 a63e a52e 713d b187 d8bd 64ef 743e
00000280: 67e8 743e c31d 64bd a715 b53d e774 27be
00000290: 6fe9 a9be e0b4 3e3e b1b3 61be b75f 663e
000002a0: 6865 b93d c395 fabd 36b9 c0bd e8d5 7abc
000002b0: c62f ba3e 97c2 8bbe 458f 6abe 3142 f2be
000002c0: a478 443f c29b 463e 4015 8cbe b4bd e1be
000002d0: 26b8 813d 322e 253e 78e4 e03e b90e e23d
000002e0: 6da5 8d3b c037 813e dc95 b7be b702 ebbe
000002f0: b45d 813c e1b6 ad3e 7a34 803e 3954 843e
00000300: 83ef 243e 9a95 a7be 55d2 8d3e 3153 43be
00000310: f4ea 52be 8139 633e 4ed1 27bd 34ee bf3e
00000320: e876 453e 7782 133e 044a eabd 0b18 b23e
00000330: 46c8 b23e 106c 923d 6358 eabd f524 b3be
00000340: e8a1 8ebd 00d9 913e f99c 263e 7887 a73c
00000350: bcbc a63e dc4b 633e 7651 aa3d 1e9b 203f
00000360: b634 3ebe 60b2 513d d0fd a2bd 887f 8bbe
00000370: 3fe0 3e3c 9754 5b3e f737 26be fb1e 6abd
00000380: 6588 dcbd 615f 40be 1677 4abd 2bbc a9be
00000390: 7453 2c3e 9491 76be 92ba 5f3e 62ba 0dbe
000003a0: cb47 1dbe 94c2 96be 106e 653e 1639 c43d
000003b0: 6c84 013e 2dd2 1bbe 7d97 ee3e b07f 723e
000003c0: 20b9 713e 4983 7d3d f568 8e3b a44a a43d
000003d0: b354 7abc 17e0 53be bb70 4f3e f89f d2bd
000003e0: e250 72bd ec49 cdbc bd4c 66be 4eca 4d3e
000003f0: af92 c73c d485 853e 2474 2bbe c963 a23d
0.032085173 0.14711307 0.2558567 0.15934148 0.20602004 -0.21877104 -0.2532464 0.28570476
0.00044489297 -0.30630803 0.3282852 0.18927711 -0.25402457 -0.29688776 -0.14633438 -0.501296
-0.51152956 0.19812877 0.2148808 -0.28281733 -0.0891722 -0.362987 0.19633621 -0.29718226
0.16205263 0.021796059 0.16386569 -0.021032985 -0.24991234 0.42766532 0.27231643 -0.16381826
-0.10221324 0.029799754 0.18865179 0.2583335 0.3302548 -0.069124945 0.38943362 0.043751586
-0.28535655 0.04834007 -0.029589247 -0.071907975 -0.0154696405 0.24374834 -0.29614207 -0.3317796
0.28682828 -0.31857163 -0.06142947 -0.31338987 -0.1561651 0.41034532 0.26554754 -0.21952036
0.25227046 -0.015248721 0.1542154 0.18329419 -0.28380692 0.14941978 -0.08580732 0.35704023
0.1381447 0.48340625 0.10779788 0.39922148 -0.28956628 -0.28248453 -0.352408 -0.37559026
-0.21647367 0.38689598 -0.01962878 -0.47179058 -0.08097385 0.118633956 -0.23421516 -0.061005328
0.2848693 -0.4029208 -0.07866694 0.22317016 0.08376119 0.28849322 -0.33733276 -0.395911
0.15784466 0.21533296 0.13971473 -0.05413061 -0.46094555 0.2918719 0.14039658 0.2759357
-0.26318938 -0.14344895 0.056098476 -0.28259298 -0.2503177 0.13332185 0.068599455 0.059030995
-0.08488025 0.3326997 -0.20349033 0.31395355 0.19264305 -0.062426846 0.16683349 -0.29558796
-0.029675473 -0.38817418 0.14291787 -0.28852576 0.27962187 -0.14127895 -0.049566653 -0.21635978
-0.71327055 -0.7046832 0.19308102 -0.13020174 -0.13148439 0.0389335 -0.110367864 0.24494423
-0.069894314 0.07140261 0.12166415 0.07420991 -0.1801837 0.1451509 -0.3549434 -0.34702185
0.22635145 0.23851125 -0.01806408 -0.1394929 0.259401 -0.30621064 -0.35884675 -0.068819255
0.09370607 0.21498038 -0.121358454 0.17959255 0.3989939 -0.3670572 0.16609417 -0.320929
-0.26385143 0.3173615 0.451215 0.5641307 0.32538933 0.058882374 -0.10572756 0.23919445
0.2391678 -0.055692445 0.088420205 -0.16353188 -0.33185908 0.18623686 -0.22041203 0.2249745
0.09052545 -0.12235596 -0.09410326 -0.015309788 0.36364573 -0.27296898 -0.22906215 -0.47316125
0.76746583 0.19395354 -0.27359962 -0.44090044 0.06333952 0.16130903 0.43924308 0.110379644
0.004322699 0.25237846 -0.3585652 -0.4590051 0.015791751 0.33928588 0.25040036 0.25845507
0.16106991 -0.32731324 0.27699533 -0.19074704 -0.2059744 0.22189905 -0.040971093 0.37486422
0.1928364 0.14405237 -0.114398986 0.34783968 0.34918422 0.071495175 -0.1144264 -0.34989133
-0.06964475 0.2848587 0.16270818 0.020450339 0.32565868 0.22196907 0.08316319 0.6273669
-0.18574795 0.051195502 -0.07958567 -0.27245736 0.011650144 0.21418987 -0.16232286 -0.05715845
-0.10768203 -0.18786384 -0.049429975 -0.33151373 0.1682871 -0.24078971 0.21848515 -0.1384063
-0.15359418 -0.29445326 0.22405267 0.09581201 0.12648171 -0.15216894 0.4659995 0.23681521
0.23605776 0.06189278 0.004346008 0.08022049 -0.015278983 -0.20690952 0.20257847 -0.10284418
-0.059159167 -0.025059663 -0.22490211 0.20096704 0.024361936 0.26078665 -0.16743523 0.07929189

decoder.0.bias f4 [128]
00000000: 982f 6a3f 9ad9 1e3f fb50 cfbe 7c21 10bf
00000010: ea8e 43bf 813a d9be a97d 2a3f 82e7 4dbf
00000020: 67a1 01bf d91c debd 1416 9abf 5af3 abbf
00000030: 2886 6d3f fb6b 013e b75a 233f d284 df3e
00000040: 8604 683f a0b5 71bf 1c06 653f e425 103f
00000050: 8ff0 183e b764 31be 5954 133e 7e02 5abf
00000060: e63b 69bf 8581 163f b9e3 cc3e db41 133f
00000070: 6924 f03d cb23 593f 5e02 123f 6836 783f
00000080: 0c7b 69bf e716 8dbe 1044 e4be 74c8 72bf
00000090: b373 80bf cf84 863f 9134 233f 861a c13e
000000a0: 8f03 363e f161 a7bf b239 3f3e 579e 84be
000000b0: dcc0 7f3f 0c2b 493d cc60 403f 959d 043f
000000c0: 36d9 cebe 594a fa3e e2ea 1dbf ccd2 3c3f
000000d0: 96a6 33be e06e 133f 2d72 2d3f db4d fa3d
000000e0: 859f 263f 19e7 54bf 5ced e03f 4c85 4cbf
000000f0: ad49 9f3f 2b00 b4be d38c a1bf 23c2 243f
00000100: f149 2c3f afea 43bf 1750 483f 8ee5 5abf
00000110: 50cf 64bf df54 40bf 1231 4c3f 0d77 77bf
00000120: cd63 67bf 7c08 43bf 4a89 323f 58cd 623f
00000130: 3388 a13e f0a7 0dbf c1a6 5c3f 3797 dbbc
00000140: e89f 6e3d 6b62 e13e 2e46 2a3e c2f4 043f
00000150: f7a5 1ebf 51d6 b8bd 17b3 0abf bb1f a8bf
00000160: 4c6d da3e 46d1 89be 1864 193f 8ca3 aabe
00000170: 8ba6 db3d 1f87 b6be d156 523f 2a8e 41bf
00000180: f099 62bf 5d4d 8f3f 9a64 8b3e c1a1 65bf
00000190: 3c35 5abf d6ab 38bf aa71 6abf 5368 083f
000001a0: 5a8d 533f db21 21bf bdfb 81bf 1996 9f3f
000001b0: a24c 65bf cef7 4bbd b1dc 33bf f41a 2bbe
000001c0: bc58 1c3f 5a9f a53e a212 debe 7cbe 853f
000001d0: d491 5fbf a44b 263d 1a28 703d 1909 e73c
000001e0: 44d6 313e da7b f9be 2936 42bf b483 a1bf
000001f0: 5deb 043f d590 fe3e c07a 47bf 1b9e 2c3f
0.9147887 0.62050784 -0.4049147 -0.56301093 -0.76389945 -0.42427447 0.6659799 -0.8043138
-0.50636905 -0.10845346 -1.2037988 -1.343364 0.9278283 0.12638848 0.63810295 0.4365602
0.906319 -0.9441776 0.8946245 0.56307817 0.14935516 -0.17323576 0.14387645 -0.8516005
-0.9110702 0.5879138 0.4001749 0.5752236 0.11725695 0.8482024 0.5703486 0.9695802
-0.9120338 -0.27556536 -0.44583178 -0.9483712 -1.0035309 1.050928 0.63752085 0.37715548
0.17774795 -1.3076764 0.18674353 -0.25902054 0.99903655 0.04911332 0.751477 0.5180295
-0.40400094 0.48884848 -0.6168653 0.7375915 -0.17544016 0.57591057 0.67752343 0.12221881
0.6508716 -0.8316513 1.7572436 -0.79890895 1.2444359 -0.35156378 -1.2621101 0.6435873
0.67300326 -0.76529974 0.7824721 -0.8550652 -0.89378834 -0.75129503 0.79762375 -0.9666603
-0.9038666 -0.7618482 0.69740736 0.8859458 0.31549224 -0.5533438 0.86191946 -0.026805503
0.058257967 0.440204 0.16628334 0.5193597 -0.6197199 -0.090252526 -0.5417952 -1.3134683
0.42661512 -0.26917475 0.59918356 -0.333279 0.10725125 -0.35649964 0.8216372 -0.7560755
-0.8851614 1.1195484 0.2722519 -0.8969994 -0.8523748 -0.721372 -0.9157969 0.53284186
0.8263756 -0.62942284 -1.015495 1.2467681 -0.8957006 -0.04979687 -0.70258623 -0.167095
0.610729 0.32348138 -0.4337359 1.0448756 -0.8733189 0.04059948 0.058631994 0.02820258
0.17366892 -0.48727304 -0.7586389 -1.2618318 0.51921636 0.49719873 -0.77921677 0.6742875

decoder.2.weight f4 [128, 128]
00000000: 95d6 52bd fe2e 6a3d 4b89 86bd b017 53be
00000010: ca5b 05be bde2 ac3d efe9 693d 5fa5 c6bc
00000020: 335c a63c 5364 803d 30a3 c5bd f4ec f63d
00000030: 4ea6 94bc d00e 023e 7de8 00be 0432 bb3c
00000040: d3ed 263d 3214 acbd 5046 db3a 5f28 b83c
00000050: 66fe b63d 8231 95bb c906 da3c 1c17 bb3d
00000060: 97db 3ebd 5a8f aebd c9b3 c8bd 197d a7bc
00000070: d394 be3d 4ea0 c63d db92 603c 23c7 00be
00000080: 5d1c 4abc ad2b 6bbd 8e7c dbbc abeb 91bd
00000090: 2290 54bd c942 03be 87a2 da3d e501 50bd
000000a0: f4ab 313e 5c5b bc3d 8cc5 bc3d ed50 30bd
000000b0: 5f27 26bd 00fc d73d 1106 afbd 1311 f43c
000000c0: 9c85 5d3b aa96 6a3d 20e4 3fbd e441 bbbb
000000d0: 46fb ff3d ad79 293e ef9b 3abc dcd8 b13d
000000e0: 773a 64bb 3b97 0bbd e2b9 ebbd 0439 8cbd
000000f0: 4185 bbbd 0bd5 6b3c 33ce ac3c 9567 25bd
00000100: 0bd2 1b3d 650b 07be 2f21 25bd da1b 083d
00000110: 57b6 a5bd d114 05bd 92ac 2abe 7e3c dd3d
00000120: dad8 2f3d 63ef 3c3e 8176 ba3d 2de8 78bd
00000130: 6b64 ffbc d7c2 413d d71c dc3c bfa9 043e
00000140: c145 4abd bd77 44be 26ff 9d3d b168 15be
00000150: 8110 5abd 60fa 9339 e937 093d 21ae f73c
00000160: a34b 5dbc 7bcf 97bd e642 103e 8430 c0bd
00000170: 32fc ba3c 80f4 84bd 51a0 07bd e04a edbd
00000180: fced 553d da58 babd 647d 2ebe d815 dd3c
00000190: 7ebf 80bc bba0 803c 544f 1dbd 2c4d 003c
000001a0: 5c6a eb3d 3da9 b23d 9617 babc 6692 c5bc
000001b0: 8453 2d3e 9e9c c5bd 746a d83d bf6d e6bd
000001c0: 1334 913d 594a f23d f753 24be 56f1 e3bd
000001d0: 6825 7dbd 0056 f73d 6a90 b7bd a0df cc3c
000001e0: f861 743c 8631 e83d 64a2 e63d c878 133d
000001f0: 2795 a73d 3bcc 38bd 1e4e e2bd 7e2d 49bb
00000200: 1e73 23bc d247 02bd 9fb1 443d 3bac 953d
00000210: bffc 81bd 7ff2 83bc 464d 103d 7cc9 b83d
00000220: 30d8 d0bd 564f 9b3c 030d a63c cf59 23bd
00000230: cd83 963d 4e7e 6a3d 2808 9d3d 9f0c 35be
00000240: 1836 e53d d117 8fbd df2e a7bd 5f9c 86bb
00000250: f20e c4b8 5b8c d5bc 788a babd 5a2b 283e
00000260: e0ef a23d 7836 01bd 221b 6abd b082 6f3d
00000270: 8839 9d3c 6baa 713b 042a 85bd 213f d43d
00000280: 26fa 523e 0661 2f3e 79a5 3b3d e8ef ecbb
00000290: c82e f8bc 697b 933d adbf 32bd 9139 a03c
000002a0: f441 5b3d 72df 9b3c c14e b5bd 1e1a cb3b
000002b0: 2a91 2dbe 59d7 eebc 366d a4bc 11db a43d
000002c0: 2b0f b3bc 861d df3d 01be 80bd 18c2 1dbd
000002d0: bea8 40bd 3a06 06be 357c 99bd d2f6 3a3d
000002e0: e23c 793c 87df 37bd f61a 0fbd 9056 81bd
000002f0: 9ba4 443e dfa5 5e3c 008c 09bd 4be0 36bb
00000300: d889 ae3d e23c 0c3e e6c4 2b3c e214 88bd
00000310: 1633 c0bd 87e3 0b3d 706d b23d 953c d63d
00000320: b28d 35bc d9b8 bcbc 56fd 86bd d3f1 89bd
00000330: b9f8 a3bb 8265 833d 0064 b33c 359c 2fbd
00000340: 630c a63d 363c 5f3d 1aa4 01bc cff3 a7bd
00000350: e02f 12bd 8d27 78bd e57f b7bd db6f d7bd
00000360: 6306 573c e940 073c 728d febd dd22 c1bd
00000370: fbb4 fbbc 0512 66bd 9a38 55bd 4199 843d
00000380: 057c 493b 2b9d c03d 126e 3d3e 7a58 533d
00000390: 58bd 51bd e4be 80bd c181 c8bd 6651 10bd
000003a0: 231b 54bd 6fbb cbbd 592f 423d f2bd cf3b
000003b0: a416 80bd 0c31 06be 2c03 2db9 9440 febb
000003c0: f14e d13d cadf 093c dbaf 0abe c516 e33c
000003d0: 0e30 b03d 91cd f33c 54ee 8fbd 4c43 78bd
000003e0: 9e2d 773d f043 61bd 0019 56be 386a b63c
000003f0: 8a66 14bd 3b12 2dbc 42bd c23d 2fa2 9b3d
-0.051474173 0.05717372 -0.06569155 -0.20614505 -0.13023296 0.084416844 0.057107862 -0.024248777
0.020307636 0.06269135 -0.09650266 0.12056914 -0.018145707 0.12700963 -0.12588687 0.022850998
0.04075415 -0.084022895 0.0016729329 0.022480188 0.089352414 -0.004553021 0.026614564 0.09135267
-0.046596136 -0.08523436 -0.09799916 -0.020445393 0.0930573 0.096985444 0.013706888 -0.12575965
-0.012335864 -0.0574147 -0.02679279 -0.07125028 -0.05189527 -0.12818445 0.10675531 -0.050783057
0.17350751 0.09197113 0.092173666 -0.043045927 -0.04056489 0.10546112 -0.08546079 0.029793298
0.0033801561 0.05727259 -0.046848416 -0.005714642 0.124990985 0.16550322 -0.0113897165 0.08683941
-0.0034824887 -0.03407977 -0.11510064 -0.06846812 -0.091562755 0.014394055 0.021094417 -0.040381987
0.03804211 -0.1318794 -0.04031485 0.033229686 -0.08091419 -0.032490555 -0.16667393 0.108025536
0.042931415 0.18450694 0.09104634 -0.060768295 -0.031175813 0.047304954 0.02686922 0.12955378
-0.04938293 -0.19186302 0.07714681 -0.14590718 -0.053238396 0.0002822457 0.033500586 0.030234398
-0.013506803 -0.07412621 0.1408802 -0.093842536 0.022825334 -0.06491947 -0.033111874 -0.11586547
0.052228913 -0.09098978 -0.1704002 0.026987955 -0.01571631 0.015701642 -0.03840573 0.007830899
0.11494896 0.08723686 -0.022716325 -0.02411766 0.1692639 -0.09649013 0.10567179 -0.11251401
0.070900105 0.11830587 -0.16047655 -0.111300156 -0.06180325 0.1207695 -0.08963092 0.025008976
0.014915936 0.11337571 0.11261442 0.036003858 0.081827454 -0.045116644 -0.11050056 -0.0030697281
-0.009976177 -0.031806774 0.048020955 0.07308241 -0.063470356 -0.016106842 0.035229944 0.09022805
-0.101974845 0.018958729 0.020269876 -0.03988057 0.07349358 0.05724936 0.07667571 -0.17680596
0.11191958 -0.069869645 -0.08163237 -0.0041079964 -9.348792e-05 -0.026067903 -0.09108442 0.16422787
0.07955909 -0.031546086 -0.057154782 0.058474243 0.019192472 0.0036875259 -0.065021545 0.103636034
0.20603237 0.17126855 0.045812104 -0.0072307475 -0.030295745 0.07201273 -0.043639828 0.0195587
0.053529695 0.019027445 -0.08852912 0.006198182 -0.16949907 -0.02915542 -0.020071607 0.08049596
-0.021857819 0.10894303 -0.0628624 -0.03851518 -0.047035925 -0.13088313 -0.07494394 0.045645542
0.0152122695 -0.044890907 -0.03493782 -0.063153386 0.19203417 0.013589351 -0.03358078 -0.0027904685
0.08522385 0.136951 0.010483956 -0.06644608 -0.09384744 0.034152534 0.0871228 0.10460774
-0.011081146 -0.023037361 -0.06591289 -0.067355774 -0.0050040153 0.064158455 0.02189827 -0.04287358
0.08107831 0.05450078 -0.00791266 -0.082008 -0.03569019 -0.060584594 -0.08959941 -0.105193816
0.013124081 0.008255222 -0.12429322 -0.09430478 -0.030725947 -0.05616953 -0.052055933 0.06474543
0.0030744087 0.094049774 0.1849902 0.05159805 -0.051205963 -0.062864095 -0.097903736 -0.035233878
-0.051783692 -0.099478595 0.047408435 0.006339782 -0.06254318 -0.13104647 -0.00016499747 -0.007759163
0.10220135 0.008415172 -0.13543646 0.027720818 0.08602916 0.029761108 -0.07027879 -0.060611054
0.06034624 -0.05499643 -0.20907974 0.022267446 -0.0362306 -0.0105634285 0.09508754 0.075992934

decoder.2.bias f4 [128]
00000000: 53c6 d83e 37fb 95bd 2c5d a93e 39bd 93bd
00000010: c4d5 35be 8d09 de3e c711 cc3e 1d82 643e
00000020: a885 573e 2bb5 453e 7de3 c3be ac94 683c
00000030: a192 923e 547d 113e 1bf1 9e3e 4813 643e
00000040: 6b93 903e 91fe f03d f992 933e 530b 223f
00000050: 790a c63e 61aa 3dbe 3384 c83e c7b8 bfbe
00000060: 92cc 7e3d 721a a9be df88 883e a2fe 0a3f
00000070: 7e5c 90be 33d4 57bf fc58 f2be 3b13 e1be
00000080: 4222 8f3d 4b56 8dbe dda8 4d3e 5629 f83e
00000090: 17a0 35be 24f5 883e 79f2 253f f9dc 68bd
000000a0: e3f3 5bbf ead0 22be 001d bd3e ee04 45be
000000b0: 580c 1e3f d053 f2be 3b24 37be dcc1 96be
000000c0: 94b7 9bbc 7ca0 113f 9541 50bf 3bad 863e
000000d0: ba0c aebe 2ecb b23e ae80 8abe 1376 e1be
000000e0: 967f afbe 2c1e eebe 97c0 be3e 6801 e4be
000000f0: c1c0 5abe 7251 b23e 6e85 043e 93b8 c7be
00000100: eaf5 183f 5980 6c3e 84a2 16be 90d0 ec3e
00000110: 028b a5bd 3d1d 813d 1d40 b1be fb2b 9ebe
00000120: c846 b93e 9117 28be 0820 453c 7b9e 873e
00000130: cbe8 78bd 559c b8be 4466 0a3f 1fa3 5abf
00000140: b7dc 843d ff0b 74bd 123e 3abe 3fcb a13e
00000150: e404 12bf 77b6 913d 53fb 83bd af65 c23e
00000160: 6e01 983e 1c4f 603e e04d 8cbc 42e8 603e
00000170: 655a 7b3d bca4 f1be e348 5abe 8cf8 0e3f
00000180: 830c 013f d372 b7be 7c16 133f 3c92 b4be
00000190: 4ec3 133e 26cd e3be 38bd 57be b73b e43e
000001a0: 364f b9be 281f 01bf 2479 cbbd 9fb3 3fbf
000001b0: 629d f23e 7a91 2cbe 6762 dcbe fc09 583e
000001c0: 524e 243d d783 2bbc f5dc a93d c8cb 153f
000001d0: a9c8 e43e 9563 443e f19d 93be a73d 8d3e
000001e0: 49a8 ae3e 956c febd 6b8a acbe e041 2c3e
000001f0: 2e50 533e 760a 67be ad56 49bf b7f4 acbe
0.4233881 -0.07323306 0.33078897 -0.07213826 -0.17757326 0.43366662 0.39857313 0.2231526
0.2104708 0.19307391 -0.38259497 0.014195602 0.28627494 0.14207965 0.31043324 0.2227298
0.2823747 0.11767305 0.2882307 0.6329853 0.38679865 -0.18522026 0.3916336 -0.3744566
0.062206812 -0.3302799 0.26666924 0.5429479 -0.28195566 -0.84308165 -0.47333515 -0.43959984
0.06988956 -0.276049 0.20083947 0.48469037 -0.1773685 0.26749527 0.6482311 -0.05685136
-0.85919017 -0.15900007 0.36936188 -0.19240162 0.61737585 -0.4732957 -0.17884915 -0.29444778
-0.019008435 0.56885505 -0.8135007 0.2630404 -0.33994085 0.3492064 -0.270513 -0.44035396
-0.34277028 -0.46507394 0.3725631 -0.44532323 -0.21362592 0.34827763 0.12941524 -0.39008006
0.59750235 0.23095836 -0.14710432 0.4625287 -0.08083154 0.06304405 -0.34619227 -0.3089293
0.36186814 -0.1641524 0.012031563 0.26488099 -0.060768884 -0.36056772 0.54062295 -0.85405153
0.064874105 -0.059581753 -0.1818774 0.31600377 -0.5703871 0.071148805 -0.06444421 0.37968203
0.2968859 0.21905178 -0.017126977 0.219636 0.061365504 -0.47195995 -0.21316867 0.55848
0.50409716 -0.3582979 0.57456183 -0.35267818 0.14429972 -0.44492453 -0.21068275 0.4457681
-0.36193246 -0.50438166 -0.09935215 -0.74883455 0.473857 -0.1685237 -0.43043825 0.21097559
0.040113755 -0.010468445 0.08294097 0.5851407 0.44684342 0.19178613 -0.28831437 0.275861
0.34112766 -0.12423054 -0.33699355 0.16822004 0.20636055 -0.22562584 -0.7864788 -0.33780453

decoder.4.weight f4 [3, 128]
00000000: 9cf7 583d 4837 7cbe 463e 693e a89c 6bbe
00000010: 9755 7c3d 0d16 43be 3b1b 98be 190c 47be
00000020: fa88 383e cf42 173e 86f9 083d fd26 073b
00000030: 2fd5 a2be d6a3 94bd f3af 3ebe 135e 9a3d
00000040: d9bc 123d f42c 6c3e c5a8 21ba f835 9dbd
00000050: fcf6 ab3e 9add 5abe 94f3 413e 69d3 2a3e
00000060: 1e34 c0bd aa4b 4f3e 8be4 5bbe 45af a63c
00000070: e293 9cba 6a70 fcbb 6384 17be eb56 823e
00000080: 060a f9bd 177a 913e ca9e 823e 7d1e 1fbe
00000090: 7604 2f3d 3b56 413b 510d 47be 1f28 463e
000000a0: c15c 04be ecdb a3bd fd98 d3bd f354 1c3e
000000b0: ad99 51be f7fb 2fbd 1106 013e b124 0fbe
000000c0: ee45 673e bcaa 073d cf03 7cbb d87b 9d3e
000000d0: ddff 47bd a283 3e3d 44c4 4b3d f8d0 b3bd
000000e0: 820d a83e 8bc3 d73d 4577 0cbd 1a92 c43d
000000f0: 3492 7a3e a022 40be 0236 0d3e be71 353d
00000100: c86b 69bd dd5d d4bd def4 1ebe 222f c5bd
00000110: 3e89 54be 5f3b b13d f0e6 9dbd 8947 1c3e
00000120: e468 4c3d 8c72 3dbe 4428 ebbd 8ddf a5be
00000130: 826a 8cbe 608a 89bd ee7b d53c a940 1cbd
00000140: 5785 b93d ff52 b8bd cd7c a83d 4cf2 03be
00000150: a9cc 23be b9cf 4b3e f31f fa3d e75c 0cbe
00000160: f239 b1bd a0e0 833e 02e2 87be f87d e03d
00000170: ebc7 7ebe e5e4 45bc 4083 9a3e 80bd 823d
00000180: 47c3 133e 8c21 6f3e dee7 2abe 529f 1abd
00000190: a248 843e 4265 02bd 7d0a 5bbe 32d9 0ebb
000001a0: d644 613e 6f93 2fbe af56 49be fd08 203e
000001b0: 965a 303d 9300 debd 51be 60bc 9d87 253e
000001c0: c3bc 6bbe db92 c73d b4fd 27be 9a53 d1bd
000001d0: 1806 873d b7fd d4bd 1c1b 5ebe 009d 2a3e
000001e0: eb1a b93d 0216 8f3e f029 873d 7442 47bd
000001f0: dfad 9b3e 33f5 df3d 023e bebd a90c 89be
00000200: ac8b 8cbe b16f 8f3c 6951 ac3d 8c78 fd3a
00000210: 0419 ab3d 9c62 8dbd c977 da3b e442 483d
00000220: 00eb 093e 1cea 5e3e 6dea 57be 28eb 463e
00000230: 7c2e e83d 7249 3e3e 7710 633c bc70 efbd
00000240: d0e8 6bbe 3dcd d43d 71c3 143e 1a1d 273e
00000250: 13c4 d53d 8404 d33c d066 23be 2ca7 a6bc
00000260: c766 4dbe 286c 823d 211f f83d cb16 eebd
00000270: 07e2 5bbe db56 453d 6e50 423e aa9a d83b
00000280: 6033 bb3c a65d bfbd d96b a9bd 10f8 43be
00000290: 163e dbbd ba36 5b3e 1460 e8bd 2a76 603c
000002a0: 0502 0a3e c147 48be 2b95 a73d a483 82bd
000002b0: edf2 66be 9752 fe3d dfe8 153e f648 87bd
000002c0: c941 37bd 7e66 74bd ad0f 6a3e 0ab6 63be
000002d0: f4d5 1fbe 202d 37be 914a 68be f0e0 0cbe
000002e0: 5180 563d 521e 993d 34c4 3e3e 1bc1 1dbe
000002f0: 5bf9 feb9 b165 9e3e fe4e 143e c6a3 4abe
00000300: 5e2b c6bd 3c2f 4e3e 8fb9 f33d 0936 363e
00000310: b8a7 d63d d826 683e 2c04 f03d 14e7 37be
00000320: da98 33be 681a 22be 94d4 96be b28a 2abe
00000330: 518b 9ebe 1b72 383e f61c 09be d8f9 473e
00000340: 8aca 1a3e 6385 31be d84d d1bc c74e 813d
00000350: aa12 5bbe c486 93bc b56c 12be 5db4 4dbe
00000360: a8f8 083e 4e02 08bd b962 213e 1cf3 06be
00000370: 993f 55bd c82e a93d a2d3 24bd 1229 6fbd
00000380: 3db7 0fbe 9aac ad3c 1c84 9f3e 1161 343e
00000390: c875 373d d381 8a3e 8c01 c13d c904 20be
000003a0: a847 95bd f22b 4e3e 787b 053e f604 893d
000003b0: 1952 8f3e 265a c9bd 7ad2 4b3e 100a 2cbe
000003c0: ef42 19be d549 6abd 4eef 88be bf41 4cbe
000003d0: 54b8 08be 1ba9 283e bb1b 2bbd 9ef4 383d
000003e0: 73bf 45be a761 7abe 07fc 62be 309d 183e
000003f0: 7d03 1b3d 908e 9ebd 6320 173e 2426 273e
0.052970514 -0.24630463 0.22777662 -0.23008978 0.061605062 -0.1905138 -0.29708275 -0.19438209
0.18021002 0.14771579 0.03344109 0.0020622604 -0.3180327 -0.07257812 -0.18621807 0.075374745
0.03582463 0.23064023 -0.0006166811 -0.07676309 0.33586872 -0.21373597 0.18940574 0.16682209
-0.093849406 0.20243707 -0.21473901 0.020347247 -0.0011945928 -0.0077038305 -0.14796595 0.25456938
-0.12160115 0.2841346 0.2551177 -0.15538974 0.042728864 0.002950086 -0.19438674 0.19351242
-0.12926008 -0.08000931 -0.103319146 0.1526678 -0.20468779 -0.0429649 0.1259997 -0.1397884
0.2258527 0.03312181 -0.0038454419 0.30758548 -0.048827995 0.046512254 0.04974772 -0.08780092
0.32822806 0.10535344 -0.03429343 0.09598179 0.24469835 -0.18763208 0.13790134 0.044297926
-0.056987554 -0.103694655 -0.15523097 -0.096281305 -0.20755479 0.08653902 -0.077100635 0.15261663
0.04990472 -0.18500727 -0.114822894 -0.32397118 -0.2742501 -0.06715846 0.02606007 -0.038147602
0.09058636 -0.09000205 0.08226929 -0.12885398 -0.1599604 0.19903459 0.12213125 -0.13707314
-0.0865363 0.25757313 -0.26539618 0.10961527 -0.2488095 -0.0120784985 0.3017826 0.063838005
0.14429961 0.23352641 -0.16690013 -0.037749596 0.25836664 -0.03183485 -0.2139072 -0.002179694
0.21998915 -0.17146085 -0.19661973 0.15628429 0.04305514 -0.10839953 -0.01371725 0.16165014
-0.23021226 0.09744807 -0.16405374 -0.10221024 0.06592959 -0.10399955 -0.21690029 0.16661453
0.09038337 0.27946478 0.06599796 -0.04864736 0.3040609 0.1093544 -0.09289171 -0.2676747
-0.2745031 0.017509313 0.08413965 0.0019338294 0.08354381 -0.06903574 0.0066671115 0.048891917
0.13468552 0.21768993 -0.2108552 0.19425642 0.11336991 0.18582705 0.013858906 -0.11691424
-0.2303803 0.103907086 0.1452768 0.16319695 0.10437789 0.02575899 -0.15957189 -0.020343386
-0.20058738 0.063682854 0.12115312 -0.11625441 -0.21472941 0.048178535 0.18975994 0.0066102343
0.022851646 -0.09344034 -0.082725234 -0.19137597 -0.10705201 0.21407595 -0.113464504 0.0137000475
0.13477333 -0.19558622 0.081827484 -0.06372765 -0.22553606 0.124180965 0.14639615 -0.06605713
-0.044740472 -0.059668057 0.22857542 -0.22237411 -0.1560896 -0.17888308 -0.22684695 -0.13757682
0.052368466 0.07476486 0.18629533 -0.15405695 -0.0004863244 0.3093696 0.14483258 -0.19789037
-0.096762404 0.20135206 0.11900627 0.1779405 0.104812086 0.22671068 0.11719546 -0.17959243
-0.17538777 -0.15830386 -0.2945906 -0.1665447 -0.30965665 0.18012278 -0.13389954 0.19528902
0.15116325 -0.17336039 -0.025549814 0.06313854 -0.21393839 -0.018008597 -0.14299281 -0.20088334
0.13376105 -0.033205323 0.15760316 -0.13178676 -0.052062605 0.08260876 -0.04024089 -0.058388777
-0.14034744 0.021200467 0.3115548 0.17615153 0.04479006 0.27052173 0.09424123 -0.15626825
-0.07289058 0.20133951 0.13035381 0.06690399 0.27992323 -0.098316476 0.19904509 -0.16800714
-0.1496694 -0.057199318 -0.26745075 -0.19946955 -0.13351566 0.16470759 -0.041774493 0.04515516
-0.19311313 -0.24451314 -0.22166453 0.14903712 0.037845124 -0.077420354 0.14758448 0.16323143

decoder.4.bias f4 [3]
00000000: 9df0 9d3b 31fa e6be cb51 573f
0.004819943 -0.45112756 0.8410918

encoder.0.weight f4 [128, 3]
00000000: 66cc 953e b308 023f 7922 893e fc1a fabe
00000010: b680 8ebc 0c86 70be a7f6 043e 1622 ddbd
00000020: d12e 143e 5c6b d5bd 261d 6bbe a245 80be
00000030: 8726 413e b036 cdbe 742c 1abf 574b ae3e
00000040: 9032 ff3e bdca 2c3d 7d42 9d3e 4171 053e
00000050: 13f6 723e fcc5 e33e b307 3c3d 1ab0 73be
00000060: c3f8 b53e f050 17bf 8468 06bf 0724 0bbe
00000070: f588 003f 657e e4be 1f86 5f3e 9abc 3ebe
00000080: e802 a23e 0edf a73d 0990 70bb fb42 8c3e
00000090: 264c 74bc c318 113e 8bf9 033e 1e37 94be
000000a0: df4f d33e 9cb4 e6be 36c1 eabd 56bd d5be
000000b0: aabe e3bd 12ce 883d 2e75 edbd 7f16 8b3d
000000c0: 6949 673e c3e1 c9be f168 883d 7fbb 3e3d
000000d0: fc7c 3cbe 8e0f dd3e 41f4 67bd a8e5 8fbe
000000e0: 49e3 4dbd 36fb 87be 2dd7 c43e 7033 8fbe
000000f0: 260b ce3e 7e20 08bf 21ae 8b3e cbf8 6dbe
00000100: ee94 f0be 90cf d33e 07b8 a93e 28db d1be
00000110: 20ad c8bd d18e 853e 05a3 ec3e 1f4b 9ebe
00000120: a8eb 9c3e 0fab 17be d756 00bd e143 453d
00000130: e68c 063f 3eb8 a83e 0f24 823e 8ca8 5a3e
00000140: 9325 ccbc c511 893e 195e 8bbd 9748 6dbe
00000150: 3c73 ef3e db30 8d3e 2911 643d 9fa8 8ebe
00000160: 0cd2 bf3e 8eb8 dbbe d9e5 89bb 530d c6be
00000170: 8464 273d b7d4 f63e 28f2 16bf c97c e0be
00000180: 82b0 993e ddda e2be 40be b13e a835 a9be
00000190: 89f7 73be 4f30 2b3f 93e2 e03d 63c7 8abd
000001a0: 25b3 ea3e 35a4 31be dce2 86be 8267 f8be
000001b0: f191 24bd 73fa 303e 5445 8ebe c7a6 dc3e
000001c0: b5cb 243e 5e0c a7be 0911 8cbc 1ed8 563e
000001d0: 5481 083e 5d74 86bd 7800 1fbf 7f49 91be
000001e0: 198a dabc 6cff 1c3b 2ab0 e4be af9f ae3d
000001f0: 488e d3be 2577 283e 00f8 a23e ce78 a03e
00000200: d2b6 4f3d 14ba 74be 43d9 cebe 74aa 3abe
00000210: 124c 1bbe ca9a 823e 20e3 92bc 630a 31be
00000220: 45f3 72be 41c0 893e d62c 60be eec0 e63c
00000230: 60f3 9e3e 2fcf 89bd 2b4d bdbe a3b3 29bd
00000240: 9ceb ad3e c46f 883e 55b8 233e 99be d1bc
00000250: 3ac0 1d3f dd62 503e b288 bd3d fdb7 f23e
00000260: 938c 153e a58f d1bd 9869 d53d 7fec 083f
00000270: 826e 43be 741c d13e de56 8fbd 0caa 3bbe
00000280: 9057 743e ddaa d43e 0d8b d63e 4c1e a9be
00000290: 48e0 b7be 8014 0ebe 9a0c 133f 5e34 253e
000002a0: 8a9b 18bc 21e8 f3bc 5b98 473e 601d e0be
000002b0: d83f 843e ce15 bf3e 2ebe 703e 8e48 15bf
000002c0: 08a3 e23e 02d6 8d3e 9f76 0cbf 5c81 b63d
000002d0: a546 dd3d 82af 74bd 476e cebc 0347 66be
000002e0: 1058 b3bb ec56 e2bd fd4c 033e 0c38 62be
000002f0: ec11 a43e 0859 913d f67f cc3e d538 bfbe
00000300: a945 c63e 0cfe 0abf 0286 12be 2b16 43be
00000310: 5a39 b43e d721 8fbe 4291 a63e df33 1e3f
00000320: 71a6 773d e174 dfbd e38e 5dbd dc48 883e
00000330: 632b 053f 2064 113f 63aa 98bd 93f4 993d
00000340: 3880 fd3e 6c25 24be 1683 0cbd 820f ff3e
00000350: 051d d03e 0ef4 46be a177 08bf 83da 7abd
00000360: 2591 41be d137 e33e 9980 28be d81e a43e
00000370: 2414 c9bd 0606 ae3d e808 e83e 9907 913d
00000380: 46da 003f 47e0 c3be c246 3bbe 05ab 033f
00000390: 7217 993d d116 75be be99 b3be db50 01bf
000003a0: 2cbb cc3c 7f42 503e 517d 38bd 5045 633d
000003b0: 440a 2ebe 997e 98be 5840 2d3e 7063 07be
000003c0: 86dc 89be 7962 2d3e 77ff 9dbc f72c 0b3e
000003d0: 96ba fcbe 10b3 e93e 017e 6abe 28cb 52be
000003e0: b4b0 af3e cf76 5a3e 268c 04be 50c6 853e
000003f0: 795d 38be 62d9 aebd f314 dabd 431f 1a3d
0.29257506 0.50794524 0.26784113 -0.48848712 -0.017395359 -0.23488635 0.12984715 -0.10797517
0.14470984 -0.10420868 -0.22960338 -0.25053126 0.18862353 -0.40080786 -0.6022408 0.34041855
0.49843264 0.042185534 0.3071479 0.13031484 0.23726682 0.44486988 0.04590578 -0.23797646
0.35541353 -0.59107876 -0.5250323 -0.13587962 0.5020898 -0.4462768 0.21828507 -0.18626633
0.31642842 0.08196841 -0.0036706945 0.27394852 -0.014910733 0.14169602 0.12888162 -0.289483
0.41271874 -0.4505967 -0.11462633 -0.41746014 -0.11120351 0.0667993 -0.11594616 0.067914
0.22586598 -0.39430055 0.06660641 0.04656553 -0.18407053 0.4317593 -0.056629423 -0.281049
-0.050265584 -0.26558846 0.38445416 -0.2796893 0.4024288 -0.5317458 0.27281287 -0.23239438
-0.46988624 0.41369295 0.33148214 -0.40987515 -0.09798646 0.26085523 0.46218124 -0.30916688
0.3064854 -0.14811347 -0.031332817 0.048160437 0.52558744 0.32953066 0.25418136 0.21353358
-0.02492026 0.2677137 -0.06805057 -0.23172222 0.46767604 0.27576336 0.055680428 -0.27863023
0.3746494 -0.42914242 -0.004208308 -0.3868204 0.040867344 0.48209164 -0.5896325 -0.43845204
0.30017477 -0.44307604 0.34715462 -0.3304875 -0.23824896 0.6687059 0.109807156 -0.06776311
0.458398 -0.17347796 -0.26344955 -0.4851647 -0.040178243 0.17283039 -0.27787268 0.4309599
0.16093333 -0.32626623 -0.017097967 0.2098088 0.13330585 -0.06565163 -0.6211009 -0.28376386
-0.026677178 0.0023955954 -0.44665653 0.08526551 -0.4131949 0.164517 0.31829834 0.31342167
0.05071146 -0.23899108 -0.40400133 -0.18229085 -0.15165737 0.2550872 -0.017930567 -0.17289118
-0.23725612 0.2690449 -0.21892104 0.028168168 0.31045055 -0.0672897 -0.36972937 -0.04143108
0.33968818 0.2664777 0.15988286 -0.02560358 0.6162144 0.20350213 0.09254588 0.47405997
0.14604406 -0.10232476 0.10420531 0.53485864 -0.19085124 0.4084202 -0.069989905 -0.18326586
0.23861527 0.41536608 0.41902962 -0.33030927 -0.359133 -0.13875008 0.57441103 0.16133258
-0.009314427 -0.029773774 0.19491713 -0.4377241 0.2582996 0.37321323 0.23510048 -0.58313835
0.44265008 0.27702338 -0.548685 0.08911392 0.1080449 -0.05973769 -0.025199069 -0.22488026
-0.0054731444 -0.11051735 0.12822337 -0.22091693 0.32044923 0.070970595 0.39941376 -0.37348047
0.3872502 -0.54293895 -0.14308932 -0.19051425 0.35200006 -0.27955505 0.32532698 0.617979
0.060461465 -0.10910965 -0.054091346 0.26618087 0.5201933 0.56793404 -0.07454374 0.07517352
0.49511886 -0.160299 -0.0343047 0.4981652 0.4064714 -0.19429037 -0.5330754 -0.061243545
-0.18903024 0.44378522 -0.16455306 0.32054782 -0.09818295 0.08497243 0.45319295 0.07081527
0.5033306 -0.38257048 -0.1828871 0.5143283 0.07475175 -0.23934485 -0.35078233 -0.50514
0.024991594 0.20337866 -0.045041386 0.055486023 -0.16996104 -0.29784086 0.16919076 -0.13221526
-0.2692606 0.16932096 -0.019286854 0.13591371 -0.49361104 0.45644426 -0.22899629 -0.2058531
0.343145 0.21334384 -0.12944087 0.26127863 -0.18004407 -0.08537556 -0.10648527 0.03762747

encoder.0.bias f4 [128]
00000000: 39d1 f1be 15cc e13e b611 66be 320d b5bd
00000010: 41a4 a6be 889b a83e e3aa 043f 7f29 d3be
00000020: 17ce d83e 9839 fabe 67b1 7ebd 25ce 00be
00000030: 9d0a 8d3d 35f4 89bd 7ec3 e7be 347f b53e
00000040: 3960 8abe 86ce c6be 50eb a23e 2372 17be
00000050: 7756 a4be dfdd a03e d09d babe eefc 22be
00000060: 2807 823d eedf 25be 626f 9dbd f071 863e
00000070: ef31 cc3e 5d1b dfbe 86b3 d73d 76de dc3e
00000080: de37 0e3e 7fa5 0dbf adf7 d0be 8896 05be
00000090: 0070 c3be 7cb8 d33e fd7c be3c 9e2c c83e
000000a0: e6af d0be 3dfc d73e f332 cc3e 5e51 1d3e
000000b0: 5ca3 f03d 4aad 8d3e be4d 09bf 26fd b8bd
000000c0: c993 cc3d c4b4 31be fcec 673e 5807 39be
000000d0: 5837 87be 60e2 053e 65b9 c33e 957c bd3e
000000e0: 25de bbbd f1d3 3bbe 167b b63e 04cc bebe
000000f0: 8f10 a03e 2d03 55bc 827c b63d 33f8 a53e
00000100: 80c2 a5bd 4564 a2be bdf3 bf3e 0f6c 61be
00000110: 1932 efbe 5bb7 1ebe 8864 8a3e de28 91be
00000120: 03fc 693e 2800 0bbe 3ad5 d03e 4bf0 ccbe
00000130: 3482 633e 730b d63e 5689 903e 075a d8bd
00000140: 8fd5 a53e 87d3 413e b789 adbe 4f0b e3bd
00000150: d84e ff3e 9a41 9abe 0977 94be 7bc6 003f
00000160: ddca b1be 673a b3be d1d8 babe aded f1be
00000170: 072a 89be c55a 4dbe ca51 debd c2fc b93e
00000180: a124 93be 8146 603e 3b74 fd3d 07a4 933e
00000190: c936 9e3e a4e7 dfbd 0d85 793e b017 413e
000001a0: 2a1b 013e 60a3 5cbe ac5e a6bd 045b d53e
000001b0: dbbc 51be e160 983e 40f1 88be c060 edbe
000001c0: f3c6 333d de3f 073f e04c e7bc 5080 7d3e
000001d0: f550 97be 6b5b be3e 226a 08bf c46c a9be
000001e0: 9dcc 8d3e 200d acbe 0bb9 10be 2fb4 323d
000001f0: 2aa0 033f fb0b bfbe d5c3 013f 3006 78bd
-0.47229937 0.44101015 -0.22467694 -0.088404074 -0.3254719 0.3293116 0.5182325 -0.41242597
0.42344734 -0.48872066 -0.062180903 -0.12578638 0.0688679 -0.06736032 -0.45266336 0.3544861
-0.27026537 -0.3882944 0.31820154 -0.14789633 -0.32097217 0.31419274 -0.36448526 -0.15916798
0.06349021 -0.16198704 -0.0768726 0.26258802 0.39881846 -0.43575564 0.10532288 0.43138474
0.13888499 -0.5533065 -0.40813962 -0.13045704 -0.38171387 0.41351688 0.023252958 0.3909654
-0.407592 0.4218463 0.3988262 0.1536307 0.11749908 0.27671272 -0.5363425 -0.09032659
0.09989125 -0.17354113 0.22648996 -0.18069208 -0.2640941 0.13074636 0.38227382 0.3700911
-0.0917323 -0.18342568 0.35640782 -0.37265027 0.31262633 -0.013001245 0.08910467 0.32415923
-0.080937386 -0.31717125 0.37490645 -0.22013877 -0.4671791 -0.15499632 0.27029824 -0.28351492
0.22850041 -0.13574278 0.4078768 -0.4002708 0.22217637 0.4180561 0.2822978 -0.10564046
0.32389495 0.18928348 -0.3389413 -0.11086141 0.4986484 -0.30128175 -0.28997067 0.5030286
-0.34725085 -0.35005495 -0.36493543 -0.47251645 -0.26789877 -0.20054157 -0.10855444 0.3632565
-0.28738883 0.21901895 0.12375685 0.2883608 0.30901173 -0.10932854 0.24367161 0.18856692
0.12608019 -0.21546698 -0.08123526 0.41671002 -0.20482199 0.29761413 -0.2674656 -0.46362877
0.043890905 0.5283183 -0.028234899 0.24755979 -0.29553953 0.3717912 -0.53286946 -0.33090794
0.2769517 -0.33603764 -0.14133088 0.043628868 0.51416266 -0.37313828 0.5068944 -0.060552776

encoder.2.weight f4 [128, 128]
00000000: 090c 463d ff0b 9fbd b4cf a1bb 4fc3 e7bc
00000010: 2f23 573d 3def d23d cd67 3cbd b7d0 1cbd
00000020: 696c aabd 51e1 5d3d 2c4e 273d 96d6 c139
00000030: 968f 0c3d 4e26 48bb cb2a 2e3d 85e4 263d
00000040: 4862 08bd 80d3 c9bd 4065 9abd 7018 6a3d
00000050: 1fa0 67bd 0fd0 843d 780a 833d 0a45 0c3d
00000060: 3e33 3b3d ea16 70bd 89a7 fcbc 28b3 3f3d
00000070: b308 973d e3a8 d1bc 17e3 453c ed2d db3c
00000080: 5326 0e3d c28a 57bd 578d debd 0eb5 11bc
00000090: e48d d1bc d4fa aebc 9a11 253d 0eea a2bd
000000a0: 46fb 8dbc 467e 55bd 8b0c 72bd 531b 9c3b
000000b0: 92a0 a23c 7271 893c 055e afbd a597 e03c
000000c0: 3f68 303d c020 923d 63e9 cd3d fbc0 58bd
000000d0: 36e1 dfbd adab 9b3b 06f6 97bc 9ea0 28bc
000000e0: 4b1c 8a3c 82ca 6a3d 11ad 9abc fc70 4fbd
000000f0: b230 b43d 280d 57bd 3842 acbd 7521 713d
00000100: d66e 92bb cfd1 0d3d e925 a13d 638b 3fbd
00000110: abd0 e73c 4e9e 463d ceb3 873d 37b6 3fbd
00000120: a565 623d ad6b 33bc b94d 6dbd 83cb 8fbd
00000130: 7c05 2e3d 198e b83c 29cf 6ebd 795f 8dbd
00000140: da6a c0bc 7816 b43d b962 55ba aa1b 4b3d
00000150: c486 c23d bcba 8cbd b451 69bc 1704 ce3d
00000160: 0e3e c3bd be01 90bb 5117 7d3d db34 d7bb
00000170: f3c0 60bd f84e abbc b2c8 e4bc 8091 c93d
00000180: 4991 333d 8f94 adbc 931f a5bd 3176 b93d
00000190: 7672 c4bc bf41 863d 10c8 693c 4100 b93b
000001a0: 297a b83c 75b7 553d d3e3 5b3c cf31 e4ba
000001b0: c5c0 8b3d dd6f 1cbb 7171 a83c 12cc 113d
000001c0: 2f35 943c 7fca 9ebd 616a d238 c20e d5bc
000001d0: ebeb fcbd eaa8 56bd c699 943d 7e1a bf3b
000001e0: 9f8b 09bd 913c 6cbd 76c6 b53c b901 563d
000001f0: dddd 34bd 0ea5 9b3d 3e4a de3d 7e97 afbb
00000200: 573b 97bd 0152 9e3d b592 3bbd b4e4 69bd
00000210: 5d10 373d f0bf a53a cfa1 173e abe2 12bd
00000220: 159e eabc 00f7 cfbd 0574 6ebd d8ff a3bd
00000230: c093 b53d ea19 98bd c96c 10be 4fa8 0c3e
00000240: e410 2bbd c23f 03be a3e3 093e b1dc f6ba
00000250: 8f52 acbd 1b1c 58bd 37b8 20bc 6ce5 c0bd
00000260: d6f9 f8bc dd6c 80bd 50c9 cdbd 12ac e43d
00000270: 60a4 643c e2f0 69bd e53c 863d 0985 dcbc
00000280: f95c 233d 6708 04be ac37 14be c201 af3d
00000290: 04d5 8dbd 01bb 85bc ac31 d93c a7d6 873d
000002a0: 2e82 e6bd d266 843d 0ca4 3bbb e8d7 a53d
000002b0: f0a2 b5bc 14e6 c93c 0835 13be a80f 693c
000002c0: 7c24 123d 328e 34bc 9530 f13d 37f6 52bc
000002d0: 7716 dcbd 0d79 7ebd 05cb 0d3d ceec e13c
000002e0: a52d 83bd 21a4 2f3d 1f41 83bd d8b7 d0bb
000002f0: ce12 363d a63c b73b 016e 42bd c0cc ccbc
00000300: 968e a2bd 236d 84bd 72c5 9d3c 8f8e 7dbd
00000310: 2c8c 78bc 965b 0cbd 9eef 73bb 0d24 a5bc
00000320: 810e d33d 0c61 9dbd 239d 4a3d 2674 e4bc
00000330: 854e 33bb ee9c 943c ec2e 173d 68dd be3c
00000340: e772 f43d 7bc3 cbbc f614 cc3c cc30 97bd
00000350: d6b8 f43d 7597 bcbc 5094 a5bc e43d d83d
00000360: d000 43bd ef98 01bd 0395 2ebd c384 b8bc
00000370: 91ed c5ba 0e29 9ebd 489e 52bd 1544 cbba
00000380: ce34 16bd 7ab7 b53c 28ad c93d 0ae9 8fbc
00000390: 3537 253c f22a 98bd 5a7c b23c eacf a1bc
000003a0: 603d 90bd fd89 1abc 506c 13bd 2c69 8d3b
000003b0: 2d45 cfbd 9fcf 2d3d b6f2 983d 7a7a a2bd
000003c0: b990 6ebd 19bc d03d 7cc9 4cbc fb5d 193d
000003d0: 0aa1 adbd 23db babc f60d fcbd 5773 e4bd
000003e0: 90dd c93d e775 9abd 9580 97bd ecfd 223d
000003f0: 0315 41bd b1ac 8ebd 7af0 a4ba c913 4fbb
0.04835132 -0.0776596 -0.00493809 -0.028291373 0.052523788 0.10299537 -0.04599743 -0.038284983
-0.08321459 0.054169957 0.040846035 0.00036971708 0.03431662 -0.003054041 0.04252128 0.040745277
-0.033296853 -0.098547935 -0.07538843 0.05715221 -0.056549188 0.064849965 0.06398481 0.03424553
0.045703165 -0.058615603 -0.030841606 0.046801716 0.07374706 -0.025593227 0.012078068 0.026755298
0.034704518 -0.052622564 -0.10866802 -0.008893264 -0.025580354 -0.021359839 0.04029999 -0.07954799
-0.01733173 -0.052122377 -0.059093993 0.0047639995 0.019851957 0.016777728 -0.08562855 0.02741606
0.043068167 0.07135153 0.100542806 -0.052918416 -0.109316275 0.00475069 -0.01854993 -0.0102922
0.016859194 0.057322033 -0.018881353 -0.05064486 0.087983504 -0.05250278 -0.08411068 0.058869798
-0.004468779 0.034623917 0.07868559 -0.04676379 0.028297743 0.048490815 0.06626092 -0.046804633
0.055272717 -0.010950965 -0.05793545 -0.07021239 0.0424857 0.022528695 -0.058303032 -0.069029756
-0.02348845 0.08793348 -0.0008140016 0.04958693 0.09498361 -0.06871554 -0.014240671 0.10059374
-0.0953332 -0.004394739 0.061789814 -0.00656758 -0.05487151 -0.020911679 -0.02792773 0.09842205
0.043839727 -0.021189002 -0.08062663 0.09055746 -0.02398036 0.06555509 0.01426889 0.005645782
0.022519188 0.05217691 0.013421017 -0.0017409864 0.06823877 -0.0023870387 0.020561906 0.035595007
0.018091766 -0.07753467 0.00010033395 -0.026008014 -0.12349685 -0.052407183 0.072558925 0.0058320155
-0.03358042 -0.057674948 0.02218936 0.052247737 -0.044156898 0.07599841 0.10854004 -0.0053586354
-0.07384365 0.07730485 -0.045794208 -0.057102874 0.04469334 0.0012645703 0.14807819 -0.0358607
-0.028639833 -0.101545334 -0.058216114 -0.08007783 0.08866072 -0.07426818 -0.14103998 0.1373608
-0.041764155 -0.1281729 0.13465743 -0.0018834082 -0.08414184 -0.05276118 -0.009809545 -0.09418759
-0.030392569 -0.06270764 -0.10048163 0.11165632 0.013955206 -0.05711449 0.065545835 -0.026918905
0.039883588 -0.1289383 -0.14474362 0.08545257 -0.06925395 -0.016324522 0.026512943 0.066327386
-0.112552986 0.06464924 -0.0028631715 0.080978215 -0.022172421 0.024645843 -0.14375699 0.014224924
0.035679325 -0.01102023 0.117768444 -0.012876085 -0.10746472 -0.06212716 0.034617443 0.027578738
-0.064051904 0.042881135 -0.06408905 -0.006369572 0.044451527 0.0055919467 -0.04746819 -0.024999976
-0.07937352 -0.06466129 0.019259188 -0.061903533 -0.015170138 -0.03426703 -0.003722168 -0.020158792
0.10305501 -0.07684526 0.049466264 -0.027887415 -0.0027360034 0.018141236 0.036909983 0.023298934
0.119359784 -0.024873486 0.024912339 -0.07382354 0.11949317 -0.02302144 -0.020212322 0.1055868
-0.047608197 -0.03163999 -0.042622577 -0.022524243 -0.0015100708 -0.07722674 -0.05142048 -0.0015507961
-0.036671452 0.022182215 0.0984748 -0.017567176 0.010083963 -0.07430066 0.021787811 -0.019752461
-0.07042956 -0.009432313 -0.035991967 0.004315516 -0.10120616 0.04243433 0.074681684 -0.07933517
-0.058243487 0.10192127 -0.0124992095 0.037443142 -0.084779814 -0.02280957 -0.1230735 -0.11154812
0.09856713 -0.07542019 -0.07397572 0.03979294 -0.04713918 -0.06966532 -0.0012583875 -0.0031597486

encoder.2.bias f4 [128]
00000000: 5ade 23bc d8b4 a53d b096 20bd e5e3 00bd
00000010: 9e03 97bc acf3 a03d 3b2e b4bc c8ef 6e3d
00000020: c224 94bc 9afa 8abd 4aa6 d73d e830 b63c
00000030: e409 3c3d 5fa6 b93b dad3 38bd 6ade 353d
00000040: 6d0e dc3c ea32 7cbd aa34 febb 69d4 d6bd
00000050: b9b7 a93d 6397 92bd fb48 31bd 3a0b c13c
00000060: 18ee 1cbe 91be 6f3d 73d5 89bc 6d8e d33b
00000070: d117 e33b 26b9 0f3d 4329 643c 6471 cb3b
00000080: 284e 20bc 8e60 b63c 7e90 e23d 7302 903d
00000090: 341e 093b 5c13 c1bd 6125 f63d 59e0 90bd
000000a0: 60cd 7bbc 2e23 44bd fa91 58bd 5dad 003d
000000b0: d4d8 a0bd f42e d73c 9bf9 933d 4a8a 50bd
000000c0: e48f 9638 8218 b7bd 2bf8 40bc ed6a 783d
000000d0: 9932 713c 52be 3cbd 1b09 d5bd d66d 433d
000000e0: f703 283d e7f9 d9bd fb1e 28bc 15a0 543d
000000f0: a4bf b6bc e855 f63b dca8 1cbe a7ba 053e
00000100: 8271 87bd e729 febc b139 7fba bec9 453d
00000110: 4a87 3dbd dd0d c4bc df54 4fbc 05bd be3d
00000120: e3a7 e43d 5b2e aa3d 280b 4dbd 3bfa ae3d
00000130: 7c59 28bc 545c 8c3d ddbb a33d 1874 883d
00000140: 59a5 37bd 60da ebbc 9097 cd3c e87d a9bd
00000150: 096b f13b d8da 09bd c905 d53d 619f 3bbd
00000160: 3e85 ad3d 16dd c73c cbd0 2ebd b32c ea3c
00000170: 78fe ab3c 7700 3abd 11c4 283d c86b 54bd
00000180: 0554 9abc 61d3 6d3d b135 17bd 71cd 0cbe
00000190: 014a 5dbc e634 92bd 2769 10bd e1d7 26bc
000001a0: f95d 7d3c af58 26bd 0d57 91bd 7099 0c3d
000001b0: 9e6f a23d 31d6 b4bc ba74 a93d c992 7fbb
000001c0: ce47 3c3c 0fd1 193d 9bbf b73c 0ef1 833c
000001d0: f27d 98bd 3639 8bbd 34ce de3c 32e3 9abc
000001e0: 9693 ad3d 5938 023c ab0d 263d 0154 5c3b
000001f0: f348 a8bc 5d85 9cbd 67b5 493d c68e a43d
-0.010001743 0.08091134 -0.039206207 -0.031467337 -0.018434342 0.07858977 -0.0219947 0.058334142
-0.018083934 -0.0678608 0.10529764 0.022240117 0.04590787 0.005665585 -0.045123912 0.044401564
0.026862347 -0.061571993 -0.007757743 -0.10489733 0.082869954 -0.07157781 -0.04328249 0.023564924
-0.153252 0.058531348 -0.016825413 0.0064561875 0.0069303294 0.03508868 0.013925853 0.0062085856
-0.009784259 0.022262838 0.11062716 0.07031717 0.0020922543 -0.09427521 0.12018848 -0.07074041
-0.015368789 -0.047885112 -0.05287359 0.031415332 -0.07853857 0.026267506 0.07225343 -0.050913133
7.179359e-05 -0.08940221 -0.011777918 0.060648847 0.014721536 -0.04607994 -0.10402127 0.04771217
0.041019406 -0.10643368 -0.010261293 0.05191048 -0.022308178 0.007517565 -0.1529879 0.13059483
-0.06613447 -0.03102584 -0.0009736075 0.0482881 -0.0462716 -0.023932392 -0.012654512 0.09313396
0.11164834 0.08309623 -0.050059468 0.085438214 -0.010275241 0.06853548 0.079948165 0.06662768
-0.044835422 -0.028790653 0.025096685 -0.08275968 0.007367496 -0.03365597 0.10401494 -0.045806292
0.084726796 0.024397414 -0.04267959 0.028585767 0.020995364 -0.0454106 0.04120261 -0.0518606
-0.018838892 0.058062915 -0.03691644 -0.13750245 -0.013506413 -0.07138996 -0.03525653 -0.0101833055
0.015464299 -0.04061192 -0.07096682 0.034326017 0.079314455 -0.02207479 0.08274217 -0.0038997403
0.011491729 0.03755289 0.022430232 0.016106155 -0.07445897 -0.067980215 0.027197935 -0.018907163
0.084754154 0.007948005 0.04054038 0.0033619406 -0.020542597 -0.076426245 0.049245264 0.08035044
