L4DC_2024/models/autoencoder_Rossler_noise1.pt (torch, 168940 bytes, 19 tensors)

A.weight f4 [7, 7]
0	0x3f6059bd	0.8763693
1	0xbd3e140d	-0.04640584
2	0xbd25653e	-0.040379755
3	0xbd42338d	-0.047412444
4	0x3bfee8c5	0.007779213
5	0xbd49d8e8	-0.049279124
6	0xbdcf2ccf	-0.101159684
7	0xbd9411df	-0.07229971
8	0x3f531bfc	0.82464576
9	0xbd4d3284	-0.050097004
10	0xbdcd11a1	-0.10013128
11	0x3d508242	0.050905474
12	0xbd81860c	-0.063243955
13	0xbcf29d3b	-0.029615989
14	0x3c1d34f4	0.009595145
15	0xbcadaf12	-0.021201644
16	0x3f425775	0.759147
17	0xbcb08b9c	-0.021550946
18	0xbcd52a8f	-0.02602127
19	0xbd96e7b8	-0.073684156
20	0xbd0a45e7	-0.03375807
21	0x3d0964aa	0.033543266
22	0xbd32930e	-0.043597274
23	0xbd07435d	-0.033023227
24	0x3f56166c	0.83627963
25	0xbc501f55	-0.012702783
26	0xbd90426e	-0.070439205
27	0xbd178157	-0.036988582
28	0xbd631580	-0.055440426
29	0x3d152c0d	0.036418963
30	0xbd5d9654	-0.054098442
31	0xbdea0bfa	-0.114280656
32	0x3f5ebdcd	0.87008363
33	0xbccc7218	-0.024956748
34	0xbd97308b	-0.07382306
35	0xbca30f74	-0.01990483
36	0xbd95ce60	-0.073147535
37	0xbd736a7a	-0.059427716
38	0xbccf87dd	-0.02533334
39	0xbd8e9606	-0.069622084
40	0x3f5f7468	0.87286997
41	0xbd570d2b	-0.052502792
42	0xbda03c1b	-0.07823964
43	0xbcd2d7c8	-0.025737658
44	0xbcf877fc	-0.03033065
45	0xbc4a2f00	-0.012340307
46	0xbd5f165a	-0.054464675
47	0xbcf8e0da	-0.030380655
48	0x3f6406a6	0.89072645

decoder.0.weight f4 [128, 7]
0	0xbd677559	-0.056508396
1	0x3e958e11	0.2920995
2	0x3e9b83ed	0.3037409
3	0x3e9d92ba	0.30776006
4	0xbdd4063e	-0.10352753
5	0xbea2448e	-0.31692928
6	0xbe6671e2	-0.2250438
7	0x3e6ce868	0.23135531
8	0x3d0a594b	0.033776563
9	0xbe607425	-0.21919306
10	0xbe030db8	-0.12798202
11	0x3e114402	0.14186099
12	0x3eb81d52	0.3595987
13	0xbe2c4915	-0.16824754
14	0xbeb19e22	-0.34690958
15	0xbebaba1a	-0.3647011
16	0x3ce52e4d	0.02797618
17	0x3e61967e	0.22030064
18	0x3e4cebde	0.20011851
19	0x3ea81b87	0.32833502
20	0xbe7a01bf	-0.24414729
21	0x3db76ad1	0.089559205
22	0xbe79df06	-0.24401483
23	0x3e790ad0	0.24320531
24	0x3e35f8fd	0.17770763
25	0xbedc4c70	-0.43027067
26	0xbe6cf8b5	-0.23141749
27	0x3cd50201	0.026001932
28	0xbba5de1c	-0.005061878
29	0xbce5840a	-0.028017063
30	0xbe1d3574	-0.15352422
31	0x3d9aa9b1	0.07551897
32	0x3e216742	0.15762046
33	0x3d4ac80f	0.049507197
34	0xbd39032b	-0.045169037
35	0xbe7b4b8c	-0.24540538
36	0x3e0c74f6	0.13716492
37	0x3e8cf030	0.27527
38	0xbe467726	-0.19381389
39	0xbd92d53c	-0.071695775
40	0xbdf24226	-0.11829023
41	0x3e531b0b	0.20615785
42	0x3e4f81a4	0.20264298
43	0xbefd4633	-0.4946762
44	0xbe832561	-0.25614455
45	0x3dd63fdf	0.10461401
46	0x3ee7d5e6	0.4528038
47	0x3f1e9a31	0.6195403
48	0x3d5cf1d7	0.053941574
49	0xbea90984	-0.33015072
50	0x3eec2878	0.46124625
51	0xbf005549	-0.50130135
52	0xbeddf357	-0.43349716
53	0xbcdd9431	-0.027048202
54	0x3e1a8247	0.1508876
55	0xbe53f46e	-0.20698711
56	0x3d8a9cfd	0.067682244
57	0xbdeaf8fa	-0.1147327
58	0x3e22937f	0.15876578
59	0x3d920dae	0.071315154
60	0x3c44c396	0.012009522
61	0xbdc352bf	-0.09537267
62	0x3d98e72a	0.07465966
63	0xbe175c1c	-0.1478123
64	0xbeacd6f2	-0.3375774
65	0xbd764b54	-0.060130432
66	0x3e97640a	0.2956851
67	0xbe372bca	-0.17887798
68	0xbe766a19	-0.2406391
69	0xbd3086a2	-0.043097146
70	0xbea2cec2	-0.3179837
71	0x3ee1a746	0.44072932
72	0xbe80ff76	-0.251949
73	0xbe75048b	-0.23927514
74	0xbe7e8ad2	-0.24857643
75	0xbcbb825f	-0.022889314
76	0x3c46422b	0.012100737
77	0xbe3b0a43	-0.18265633
78	0x3be721f9	0.0070536104
79	0x3e334ed3	0.17510538
80	0x3e962121	0.2932215
81	0xbc4b155c	-0.012395229
82	0xbd938a54	-0.07204118
83	0xbe7fbc17	-0.24974094
84	0xbc5c92f9	-0.013462775
85	0xbe038cfa	-0.12846747
86	0x3e8cb82f	0.2748427
87	0xbe92b19c	-0.2865113
88	0xbde77ca2	-0.11303069
89	0x3ebabf4c	0.36474073
90	0xbe12c3a3	-0.14332442
91	0x3d25a696	0.04044207
92	0x3eb3c715	0.35112825
93	0xbe84e242	-0.2595387
94	0x3e770212	0.24121884
95	0xbe8a0d78	-0.269634
96	0xbe3c52ef	-0.18391012
97	0xbc2065bb	-0.009789879
98	0xbcd43244	-0.025902875
99	0x3e374ba8	0.17899954
100	0x3ea44faf	0.32092044
101	0x3e07a55d	0.13246675
102	0x3c2269bb	0.009912903
103	0xbea4b318	-0.32167888
104	0x3d829bac	0.06377348
105	0x3e6136ab	0.2199351
106	0x3effa3d0	0.49929667
107	0xbe8b3c99	-0.2719467
108	0xbee0782d	-0.43841687
109	0xbd974111	-0.07385457
110	0x3dcad74a	0.099043444
111	0xbe2cd914	-0.16879684
112	0xbe01896b	-0.12650077
113	0xbe3d41fe	-0.18482205
114	0x3c8bb8d9	0.017055916
115	0x3e8e2b75	0.2776753
116	0xbde2cebb	-0.11074587
117	0x3d4760bb	0.048676234
118	0xbe525551	-0.20540358
119	0xbd096f71	-0.033553544
120	0x3daa8ba6	0.08327417
121	0x3e1ecf81	0.15508844
122	0xbe93ad5c	-0.288432
123	0x3ddcda4c	0.10783824
124	0x3e47bd49	0.195058
125	0xbd986b7e	-0.074423775
126	0x3daecec6	0.08535533
127	0x3ea0c20a	0.3139804
128	0x3e607568	0.21919787
129	0xbe08202e	-0.13293526
130	0x3e1fbe73	0.15599994
131	0xbe197316	-0.14985308
132	0x3dd827db	0.10554477
133	0x3e021798	0.12704313
134	0xbe927ffe	-0.28613275
135	0x3cd9b75a	0.026576687
136	0x3ec4b178	0.38416648
137	0x3e95eb16	0.2928092
138	0x3e13fda0	0.14452219
139	0xbe9c3741	-0.30510905
140	0x3e81bb12	0.25338036
141	0xbebf6e9d	-0.3738908
142	0x3d63f905	0.055657405
143	0x3e0d7636	0.13814625
144	0x3ed2c7e3	0.41168126
145	0x3e5292fd	0.20563884
146	0x3dc2fbce	0.09520684
147	0xbdb29c52	-0.08721222
148	0xbde18114	-0.11010948
149	0x3e62ca79	0.2214755
150	0xbe65e8f9	-0.22452153
151	0xbc8ba053	-0.017044222
152	0xbdba3d51	-0.090937264
153	0x3d2f86ab	0.04285304
154	0xbd9343dc	-0.071906775
155	0x3ee730aa	0.45154315
156	0xbe5a5cc3	-0.21324448
157	0xbe56d55f	-0.20979832
158	0x3e7aa631	0.2447746
159	0xbeeb3d14	-0.45945036
160	0x3c4cb350	0.012493923
161	0x3d919a09	0.07109458
162	0xbd3af99c	-0.045648202
163	0x3cd0b57e	0.025477167
164	0xbd2f8b9f	-0.042857762
165	0x3df25ed8	0.11834496
166	0xbe814fee	-0.25256294
167	0x3e29a4d7	0.16566788
168	0xbe801a7b	-0.25020203
169	0x3dbcd3ef	0.092201106
170	0xbe543b6f	-0.20725797
171	0xbea2c414	-0.3179022
172	0x3eb391b7	0.3507211
173	0xbd1cd2cf	-0.03828698
174	0xbe6957d5	-0.22787412
175	0x3d895034	0.06704751
176	0x3e84ccc0	0.25937462
177	0xbe968eaf	-0.29405734
178	0x3cf64a2a	0.030064661
179	0x3dda64e9	0.10663778
180	0xbe2afba7	-0.1669756
181	0x3e266f19	0.16253318
182	0xbdda3cb9	-0.10656113
183	0x3eab78c4	0.33490574
184	0x3ec5795e	0.38569158
185	0xbe37a621	-0.17934467
186	0x3e473c87	0.19456683
187	0x3c42814d	0.011871648
188	0xbdb110c9	-0.0864578
189	0xbe160b0a	-0.14652649
190	0x3e8456e8	0.25847554
191	0xbe8ba123	-0.27271375
192	0xbe36d140	-0.1785326
193	0x3db6542e	0.08902775
194	0xbebd7297	-0.37001488
195	0x3e384ce9	0.17998089
196	0x3e856aba	0.26057988
197	0xbe3b173c	-0.18270582
198	0xbca731cd	-0.020409489
199	0x3d54e379	0.051974747
200	0x3e3489c3	0.17630677
201	0xbee12f5b	-0.43981442
202	0x3e6a9d93	0.22911672
203	0x3da01d61	0.078181036
204	0xbcf93143	-0.030418998
205	0xbbee6e5a	-0.0072763385
206	0x3d0f2a8e	0.034952693
207	0x3db5e9cc	0.08882484
208	0xbeae44ee	-0.34036964
209	0x3e0b4a5d	0.13602586
210	0xbddd2fc0	-0.10800123
211	0x3d2d8d5c	0.04237114
212	0x3e489776	0.19589028
213	0x3e10be56	0.14135107
214	0xbcae0aed	-0.021245444
215	0xbebd2f3b	-0.36950096
216	0x3e2dd96c	0.16977471
217	0xbe216d50	-0.15764356
218	0x3dda36ff	0.10655021
219	0x3e5fc264	0.21851498
220	0xbe6aeeea	-0.22942701
221	0xbe816932	-0.2527557
222	0x3e04ae87	0.12957202
223	0x3e03ea87	0.12882434
224	0xbe1fdb61	-0.1561103
225	0xbe79b309	-0.24384703
226	0x3e948508	0.29007745
227	0xbe72af31	-0.23699643
228	0x3e1995c5	0.14998539
229	0x3ea30e31	0.31846765
230	0xbde9b856	-0.114121124
231	0xbe53db35	-0.2068909
232	0x3e1457ff	0.14486693
233	0x3ec9a0d0	0.39380503
234	0x3dec1e40	0.11529207
235	0xbb094519	-0.0020945726
236	0xbe901e1b	-0.2814797
237	0xbcd27311	-0.025689634
238	0x3c179e59	0.009254062
239	0x3e6ae047	0.22937118
240	0xbe150d43	-0.1455584
241	0x3dd07198	0.10177916
242	0xbe1abfab	-0.15112178
243	0x3ea1c77e	0.31597513
244	0xbe4d8974	-0.20071965
245	0xbe00db8e	-0.12583753
246	0xbe2c1417	-0.16804539
247	0x3e42e84e	0.1903393
248	0xbbdcf11e	-0.0067426106
249	0x3e9d9fb6	0.30785912
250	0x3d807a16	0.06273286
251	0xbd2c81b6	-0.04211589
252	0x3e8a155e	0.26969427
253	0xbe3498c4	-0.176364
254	0xbed1698e	-0.40900844
255	0xbcfb3ced	-0.0306687

decoder.0.bias f4 [128]
0	0xbf80c8a3	-1.006123
1	0x3fa8648f	1.3155688
2	0x3f8f572f	1.1198481
3	0x3ed9999a	0.425
4	0xbfb55be4	-1.4168668
5	0xbeae3569	-0.34025124
6	0x3d59547e	0.053059094
7	0xbf47bb2b	-0.7801997
8	0xbf462d62	-0.77413
9	0x3f730daa	0.94942725
10	0xbe95151e	-0.29117674
11	0xbfe08929	-1.7541858
12	0xbf8a1c64	-1.0789914
13	0x3ed65d53	0.41868076
14	0x3f137399	0.57598263
15	0x3f3b9175	0.73268825
16	0x3fb43c2c	1.4080863
17	0x3f342157	0.7036337
18	0xbf672d10	-0.90303135
19	0x3eba114f	0.3634133
20	0xbf114605	-0.56747466
21	0x3f7e22ba	0.9927174
22	0x3d99aab8	0.07503265
23	0x3fa0d911	1.2566243
24	0x3ee0dca8	0.43918347
25	0xbf5376af	-0.8260297
26	0x3fc8d64c	1.5690398
27	0xbf455d45	-0.77095443
28	0x3f91cb00	1.1390076
29	0xbf728994	-0.9474118
30	0xbfac7386	-1.3472755
31	0x3e232877	0.15933405
32	0x3f1e7083	0.6189043
33	0xbf553819	-0.83288723
34	0xbf1858a6	-0.59510267
35	0xbf5f7887	-0.87293285
36	0x3fb25c54	1.3934426
37	0xbf6bff71	-0.9218665
38	0xbfd589a1	-1.6682626
39	0x3ea658a5	0.32489505
40	0xbea26239	-0.31715563
41	0x3f610990	0.87905216
42	0x3fc68c75	1.5511614
43	0x3f263cf5	0.64936763
44	0x3fc38b4f	1.5276889
45	0xbf91903f	-1.1372145
46	0xbfbb3881	-1.4626619
47	0xbfbda201	-1.4815065
48	0xbff6fdf5	-1.9296252
49	0xbf6c0242	-0.92190945
50	0x3d9eb6ee	0.07749735
51	0x3f531dad	0.82467157
52	0x3ee75e71	0.4518924
53	0xbfd253bc	-1.6431804
54	0xbef8cc28	-0.4859326
55	0x3f8dc608	1.1076059
56	0x3e98c3a4	0.29836762
57	0xbf05da68	-0.52286386
58	0x3e8e63e7	0.27810594
59	0x398672d2	0.0002564402
60	0x3fcd277f	1.6027678
61	0xbfbdef69	-1.4838687
62	0xbef27d82	-0.4736138
63	0x3f5da122	0.86573994
64	0x3f8a78f1	1.0818158
65	0xbf742161	-0.9536343
66	0xbf7ec447	-0.99518245
67	0xbf82118e	-1.0161607
68	0x3f827424	1.0191693
69	0x3d5d7649	0.054067884
70	0x3f522ed3	0.821027
71	0xbf8d55d9	-1.1041824
72	0xbfc0c990	-1.5061512
73	0x3ce20342	0.027589444
74	0x3f47fffe	0.7812499
75	0x3f0eaeb0	0.557353
76	0xbf897cae	-1.0741174
77	0x3f014e4c	0.50510097
78	0x3f93fb67	1.1561097
79	0xbf036c95	-0.5133756
80	0x3f0ef1f3	0.55837935
81	0xbfa49c08	-1.2860117
82	0x3f8865d1	1.0656072
83	0xbfc3558d	-1.5260483
84	0xbf8a603d	-1.081062
85	0xbf7adada	-0.9799019
86	0x3f1d44c1	0.61433035
87	0x3f0d5cf7	0.5521998
88	0xbe837784	-0.2567712
89	0xbeeb4cb5	-0.4595696
90	0x3f886770	1.0656567
91	0xbf6acc5b	-0.9171807
92	0xbf8093d7	-1.0045117
93	0xbe1f977e	-0.15585133
94	0xbf078426	-0.5293602
95	0x3fc0716c	1.5034614
96	0xbf05a0fb	-0.5219876
97	0x3e034b9d	0.12821813
98	0xbfaf0fd5	-1.3676707
99	0xbfa19cc6	-1.2625968
100	0x3ec1e73e	0.37871736
101	0xbd8a27f0	-0.06745899
102	0xbf7b4eb2	-0.98166955
103	0x3d580826	0.052742146
104	0xbeb28cf6	-0.3487317
105	0x3f05a0a5	0.5219825
106	0x3f68e89b	0.9097993
107	0xbf816588	-1.010911
108	0xbdc64f2d	-0.0968307
109	0xbf2adbdc	-0.6674173
110	0x3faf2dd2	1.3685858
111	0x3ec2c776	0.38042802
112	0xbf94b748	-1.1618433
113	0xbf9cf418	-1.2261992
114	0xbfb54a1a	-1.4163239
115	0xbe542958	-0.20718896
116	0xbeab8b2a	-0.3350461
117	0xbf9cac67	-1.2240113
118	0xbec4f58c	-0.38468587
119	0xbf6aad61	-0.91670805
120	0x3f2af09d	0.66773397
121	0x3fa800cd	1.3125244
122	0xbf1e46d4	-0.61826825
123	0xbf2bb87a	-0.67078364
124	0x3e9d944a	0.30777198
125	0xbf8b6160	-1.0889091
126	0xbf400be1	-0.75018126
127	0x3e98a420	0.29812717

decoder.2.weight f4 [128, 128]
0	0xbd6360cb	-0.05551223
1	0xbdee26b6	-0.11628477
2	0x3d385dcc	0.045011327
3	0x3d7962d2	0.060885258
4	0x3dd9cc37	0.10634654
5	0xbd0d0ce7	-0.034436133
6	0xbda05833	-0.07829323
7	0x3dede40c	0.11615762
8	0xbe497209	-0.19672407
9	0x3e1aea7d	0.15128513
10	0x3cb41a5f	0.021985231
11	0xbc6dfa3a	-0.014524991
12	0x3bd5baad	0.0065224976
13	0x3baffdfe	0.0053708544
14	0xbd9923a0	-0.07477498
15	0xbcc9e3b0	-0.024644703
16	0x3dc34f25	0.0953658
17	0x3e194999	0.14969482
18	0x3bda5823	0.0066633387
19	0xbdbaf228	-0.09128219
20	0xbdde1966	-0.10844688
21	0x3e0718d9	0.13193072
22	0x3e35c342	0.17750266
23	0x3dcc25c0	0.09968138
24	0x3da5f720	0.08103776
25	0xbdc92173	-0.09820833
26	0xbe3accc9	-0.18242182
27	0x3e19600b	0.14978044
28	0xbe0d034f	-0.13770793
29	0xbbb47eea	-0.0055082934
30	0xbd06b210	-0.032884657
31	0xbcbf4887	-0.023350013
32	0xbda43aff	-0.08019065
33	0x3cca5b78	0.024701819
34	0xbd1961ab	-0.03744666
35	0xbdc0b193	-0.094088696
36	0x3b637d76	0.0034712232
37	0x3da526eb	0.08064064
38	0xbd5bf6a0	-0.053701997
39	0xbdc1412d	-0.094362594
40	0x3e07af90	0.13250566
41	0x3ccda212	0.025101695
42	0xbd4ba06b	-0.049713533
43	0x3db619e6	0.088916585
44	0xbddc2e8a	-0.10751064
45	0x3d5fcb73	0.054637384
46	0xbd2c3147	-0.042039182
47	0x3d0f7d25	0.035031457
48	0x3dd56a42	0.10420658
49	0x3dbd148a	0.09232433
50	0xbd8d99c7	-0.06914096
51	0xbdf8a937	-0.1214165
52	0xbd759da6	-0.0599648
53	0x3e012a3c	0.12613767
54	0x3de1b7e2	0.11021401
55	0x3d23b2af	0.039965328
56	0xbd3f0447	-0.04663494
57	0x3c9902d7	0.018678112
58	0x3e484c7a	0.19560423
59	0x3deb457f	0.11487865
60	0x3d8ba7b4	0.06819096
61	0xbbcc0616	-0.0062263114
62	0xbd1e73ca	-0.038684644
63	0xbadcc77f	-0.0016844122
64	0x3a9fb8e2	0.0012185837
65	0x3dc81358	0.097693145
66	0xbd3717a6	-0.044700287
67	0x3e17ed8d	0.14836712
68	0x3cfcdaca	0.030866046
69	0xbd954cbd	-0.07290027
70	0xbd84f65e	-0.06492303
71	0xbcba792c	-0.022762857
72	0xbd7c7074	-0.06163068
73	0xbd3aac39	-0.0455744
74	0x3d900102	0.07031442
75	0x3de4dc24	0.11174801
76	0x3e24fc6b	0.16111915
77	0xbc70110b	-0.014652501
78	0xbdb3e198	-0.08783263
79	0x3b6d52b2	0.003621262
80	0x3d84c8fc	0.06483647
81	0xbdd0b462	-0.10190655
82	0x3dff8c87	0.12477975
83	0x3dcd6c25	0.100303926
84	0xbdd15fd9	-0.102233596
85	0x3d10fc59	0.035396907
86	0xbdde1598	-0.108439624
87	0xbd0b68d1	-0.034035508
88	0xbcbdc265	-0.023163984
89	0x3d2f8a33	0.042856406
90	0xbcaf1143	-0.021370536
91	0x3dd4f44b	0.10398158
92	0xbdad6289	-0.0846606
93	0xbb2bb3ef	-0.0026199778
94	0x3d2f38a6	0.042778634
95	0x3caba889	0.020954387
96	0x3d553b25	0.052058358
97	0xbe08ae6b	-0.13347785
98	0x3b1a205e	0.0023517828
99	0x3cb5b86c	0.022182666
100	0xbcc3b63e	-0.02389061
101	0x3dc15f26	0.09441976
102	0x3e220a8f	0.1582434
103	0x3dae616b	0.08514675
104	0xbcf6b25d	-0.030114347
105	0xbd131e86	-0.03591778
106	0x3d03fedb	0.03222547
107	0xbd321fb4	-0.043487266
108	0xbd5f5788	-0.054526836
109	0xbdb0ac74	-0.08626643
110	0x3d8bdc93	0.068291806
111	0xbd07d64e	-0.03316336
112	0xbce1f810	-0.027584106
113	0xbe23658d	-0.15956707
114	0xbd2a0b3a	-0.041514613
115	0xbaf8761c	-0.0018956098
116	0x3c294cb6	0.010333231
117	0xbd11afa0	-0.03556788
118	0x3e49deeb	0.19713943
119	0xbd944b31	-0.07240904
120	0x3d97f2d5	0.074193634
121	0x3e0c7563	0.13716654
122	0x3cc49f9e	0.024001893
123	0xbaa7cbc6	-0.0012801818
124	0x3c4b72aa	0.012417475
125	0xbd1b3766	-0.03789463
126	0xbd7ddd69	-0.06197873
127	0xbdbad8d8	-0.09123391
128	0x3b959b4a	0.004565631
129	0x3d10051d	0.035161126
130	0x3eb28ba3	0.3487216
131	0x3d855b9a	0.06511612
132	0x3d8c0c25	0.06838254
133	0xbdab5233	-0.08365288
134	0xbc25ee6f	-0.010127648
135	0x3d41c385	0.047305603
136	0xbe03188b	-0.12802331
137	0x3d1ec7ac	0.03876464
138	0x3deda5f1	0.116039164
139	0xbbc828a1	-0.006108359
140	0xbd76bc5e	-0.060238235
141	0xbdd93490	-0.106057286
142	0x3e0ea1d7	0.13928925
143	0x3b39177b	0.0028242755
144	0x3e6b24e3	0.2296329
145	0xbd9f6562	-0.07783009
146	0x3cd2e14a	0.025742192
147	0x3cb32b48	0.021871224
148	0xbd6d8cb7	-0.057995524
149	0x3c9ed898	0.01939039
150	0x3d77b406	0.060474418
151	0xbdcbff13	-0.09960761
152	0x3dc5ae79	0.09652419
153	0xbe684fc5	-0.2268668
154	0x3dc77088	0.097382605
155	0x3d96b883	0.073594116
156	0x3e1025a6	0.14076862
157	0x3d8327f5	0.064041056
158	0xbe347f01	-0.17626573
159	0x3daa80a2	0.08325316
160	0x3e43edef	0.19133733
161	0xbe35667d	-0.17714877
162	0xbd1483a8	-0.03625837
163	0x3e83fa34	0.25776827
164	0x3dbd5be3	0.092460416
165	0xbe273345	-0.16328152
166	0xbc5ff26c	-0.013668638
167	0xbd14325d	-0.036180843
168	0xbd743a91	-0.059626166
169	0x3daf6697	0.08564489
170	0xbe0a841c	-0.13526958
171	0x3e938335	0.2881104
172	0x3db26cfb	0.087121926
173	0x3debd815	0.11515824
174	0x3d2d08fa	0.04224489
175	0xbe6bd844	-0.23031718
176	0x3d465ded	0.04842942
177	0x3dfc2a13	0.123127125
178	0xbcd59212	-0.026070628
179	0x3e29968e	0.16561338
180	0x3cf468ab	0.029835066
181	0xbde16523	-0.110056184
182	0x3cfb924b	0.030709406
183	0x3e2e088b	0.16995446
184	0x3c5e8475	0.013581385
185	0xbe25c9e4	-0.16190296
186	0xbdfe4f3d	-0.12417457
187	0x3dc8943b	0.09793898
188	0x3e355bfc	0.1771087
189	0x3db65775	0.089034
190	0x3c716c6e	0.014735324
191	0x3ddfc1d6	0.10925643
192	0xbe10cc4e	-0.14140436
193	0x3ca4ea85	0.020131359
194	0x3dbc58fc	0.0919666
195	0x3dc90cca	0.098168924
196	0x3db29684	0.08720115
197	0x3be23da4	0.006904321
198	0x3e15ae2c	0.14617223
199	0xbdbcf416	-0.09226243
200	0xbe1f7a3f	-0.15573977
201	0x3ded5a5b	0.115894996
202	0x3e042055	0.12902959
203	0xbcdbd7d6	-0.026836317
204	0xbd163a84	-0.0366769
205	0xbe2d5999	-0.1692871
206	0x3de52059	0.111878105
207	0xbd4f90c2	-0.05067516
208	0xbe21939f	-0.15778969
209	0x3c13f453	0.009030419
210	0x3d93a133	0.07208481
211	0xbdda3d8d	-0.10656271
212	0xbe0d5218	-0.13800848
213	0xbd4666e4	-0.048437968
214	0x3e0c7c82	0.13719371
215	0x3e53abc5	0.20670994
216	0x3cfd082f	0.030887691
217	0x3dd0d171	0.10196198
218	0x3b84491c	0.0040370356
219	0x3d0cace7	0.03434458
220	0x3de49761	0.11161686
221	0xbe03fb6d	-0.1288888
222	0x3d5f0069	0.05444375
223	0xbcae4967	-0.021275235
224	0xbd90ba22	-0.07066752
225	0x3c8d8333	0.017274475
226	0xbeae105a	-0.3399685
227	0xbd195a07	-0.037439372
228	0x3c37c22b	0.011215727
229	0x3e0b68b9	0.13614167
230	0xbe9679e1	-0.2938986
231	0x3e26d2f5	0.16291411
232	0xbddc8688	-0.10767847
233	0x3c0ce548	0.008599587
234	0xbe226784	-0.158598
235	0xbdbb09aa	-0.09132703
236	0xbc9a31db	-0.018822601
237	0x3d415e23	0.047208916
238	0xbcecf42c	-0.028925024
239	0x3c9dfdf3	0.019286131
240	0xbe20b150	-0.1569264
241	0xbcc5db17	-0.024152322
242	0xbe9d57b9	-0.3073099
243	0xbdbe3e97	-0.09289282
244	0x3dda6891	0.10664476
245	0x3c28e628	0.01030878
246	0x3d2104ed	0.03931134
247	0xbe0963cd	-0.13416977
248	0x3e238dae	0.15972015
249	0xbdfc32fe	-0.123144135
250	0x3ca2b648	0.01986231
251	0x3df1d6ca	0.11808546
252	0xbd0a468b	-0.03375868
253	0xbdf9e9b9	-0.12202782
254	0x3dcac626	0.09901075
255	0xbdc68f39	-0.09695286

decoder.2.bias f4 [128]
0	0xbd87624e	-0.06610547
1	0xbee93470	-0.4554782
2	0x3edf59c5	0.43623176
3	0xbf145a50	-0.57950306
4	0xbe84fe44	-0.2597524
5	0xbe82ddb6	-0.25559777
6	0x3e83380d	0.256287
7	0xbf38400e	-0.7197274
8	0xbe4a636c	-0.19764489
9	0x3eee3773	0.4652668
10	0xbe83739e	-0.25674146
11	0xbf3ff19a	-0.7497803
12	0xbeda03e1	-0.42581084
13	0xbed03585	-0.40665832
14	0xbeccf6b7	-0.40031978
15	0x3f3b0454	0.7305348
16	0x3ed1bee0	0.4096594
17	0xbe6fcee3	-0.23418765
18	0x3e95152f	0.29117724
19	0x3f5dcf7a	0.8664471
20	0x3f57dbe4	0.843199
21	0x3f1b722a	0.60721076
22	0xbf2ddae3	-0.6791212
23	0x3ef79376	0.4835469
24	0xbea39086	-0.319462
25	0xbedcc111	-0.43116048
26	0x3f3da6e7	0.740828
27	0xbede078e	-0.4336514
28	0x3eb52bda	0.3538502
29	0xbebc361e	-0.36760038
30	0x3ecabf5e	0.39599127
31	0x3ea1d8c0	0.3161068
32	0xbe9a5503	-0.30142984
33	0xbe2f7ecd	-0.17138214
34	0x3f1664c3	0.587475
35	0x3bb18576	0.005417521
36	0x3f6e539a	0.93096316
37	0xbb9615ff	-0.004580259
38	0x3e9e85fb	0.30961594
39	0xbe71b270	-0.23603225
40	0x3f1d78e9	0.6151262
41	0xbf0a2d20	-0.53975105
42	0xbe3d967e	-0.1851444
43	0xbec4715e	-0.38367742
44	0x3f6c434e	0.922902
45	0x3e7ea582	0.24867824
46	0xbf291acb	-0.6605651
47	0xbe50204e	-0.20324823
48	0x3f1c7a94	0.6112454
49	0xbeb00eee	-0.3438639
50	0x3eb3462d	0.35014477
51	0xbe1d4b3b	-0.1536073
52	0x3eba2ee5	0.36363903
53	0xbdd2cdea	-0.10293181
54	0xbebdfe8a	-0.3710826
55	0x3d8fcd21	0.07021547
56	0x3c005bd1	0.007834391
57	0xbf23ab29	-0.63933045
58	0x3f0d165e	0.55112255
59	0x3e8c0d2c	0.273538
60	0xbf2c32c8	-0.67264986
61	0x3f216ecc	0.6305969
62	0x3dce0dcf	0.100612275
63	0x3f016968	0.5055146
64	0xbe76be62	-0.24096063
65	0xbf633c37	-0.88763756
66	0x3ecd8fb5	0.40148702
67	0x3ebfc75a	0.3745678
68	0x3ee6f298	0.4510696
69	0xbe84520b	-0.25843844
70	0xbf497f3b	-0.78709763
71	0x3dd8b766	0.105818555
72	0xbf164b3b	-0.5870854
73	0xbf0f9b35	-0.560962
74	0x3f3fcc11	0.74920756
75	0xbe0ac9aa	-0.13553491
76	0x3ea15fb1	0.3151832
77	0xbf08a854	-0.5338185
78	0x3f5b5da2	0.8568975
79	0x3f11af92	0.56908524
80	0x3dd26bea	0.10274489
81	0xbf14c7bc	-0.5811727
82	0xbec6750c	-0.38761175
83	0xbec1ea99	-0.37874296
84	0x3e9f6bbf	0.3113689
85	0xbf055856	-0.52087915
86	0xbf41324a	-0.7546736
87	0xbe4faf63	-0.20281748
88	0xbf18df1c	-0.5971544
89	0xbf22cf7d	-0.6359785
90	0x3dec04b6	0.11524336
91	0xbf21f876	-0.63269746
92	0x3e3f696c	0.18692559
93	0x3e1e59ae	0.15463898
94	0xbd8e7c5a	-0.06957312
95	0xbef79571	-0.48356202
96	0xbe8bbedf	-0.2729406
97	0xbef9e780	-0.48809433
98	0xbd81b680	-0.06333637
99	0xbec1dd31	-0.37864068
100	0xbee25ef1	-0.4421306
101	0x3f3c6e71	0.7360602
102	0x3d402e70	0.046919286
103	0x3e92f2ac	0.2870077
104	0x3ebd7ed9	0.3701084
105	0x3ec5f6d0	0.38664865
106	0xbe9c24a1	-0.30496696
107	0xbdf46593	-0.11933436
108	0xbe24c521	-0.16090824
109	0xbdf30baf	-0.11867463
110	0x3f5e4368	0.86821604
111	0x3d9ceea2	0.07662703
112	0x3f2fb5bb	0.68636674
113	0x3f1d96d4	0.6155827
114	0x3f1ac5ee	0.60458267
115	0x3be25947	0.0069076153
116	0xbee6935f	-0.4503431
117	0x3e262913	0.16226606
118	0x3e663235	0.2248009
119	0x3f0a3f49	0.54002815
120	0x3e81fbc9	0.2538741
121	0xbed6f287	-0.4198191
122	0x3c970852	0.018436585
123	0x3ef9e70e	0.48809093
124	0xbe7513a4	-0.23933274
125	0xbd4b4b2c	-0.049632236
126	0xbe947c27	-0.2900097
127	0xbd7df56e	-0.062001638

decoder.4.weight f4 [3, 128]
0	0x3d300dff	0.042982098
1	0x3def2102	0.116762176
2	0x3db17320	0.086645365
3	0xbda54d57	-0.08071392
4	0x3ce93601	0.028468134
5	0x3cb80694	0.022464074
6	0x3e1e7a71	0.15476395
7	0xbd713adc	-0.058894023
8	0xbe1d40e0	-0.15356779
9	0x3ca68ccb	0.020330807
10	0x3d376b8b	0.044780295
11	0x3d37cc3b	0.044872504
12	0xbe716dc8	-0.23577034
13	0x3e243d6e	0.16039059
14	0x3e73792a	0.23776689
15	0xbd4a2bac	-0.049358055
16	0x3e0cfcad	0.13768263
17	0xbd846e51	-0.06466354
18	0x3e0cf842	0.13766578
19	0xbe04413c	-0.1291551
20	0xbe3d1a1a	-0.18466988
21	0xbe3f2181	-0.18665124
22	0x3e75c3ee	0.24000522
23	0x3e763ebb	0.24047367
24	0xbb7a34bf	-0.0038178412
25	0x3e4e902d	0.20172186
26	0xbdfe888e	-0.124283895
27	0x3e080528	0.13283217
28	0x3cb9cddd	0.022681171
29	0x3e051414	0.1299594
30	0x3d836084	0.06414893
31	0xbe456b9e	-0.19279334
32	0x3d2ba63d	0.041906584
33	0x3eb1bd68	0.34714818
34	0xbd19e905	-0.03757574
35	0xbed14f15	-0.40880647
36	0xbec86402	-0.391388
37	0x3d606e93	0.05479295
38	0x3e52ba3b	0.20578854
39	0x3e3a4460	0.18190145
40	0x3d75896a	0.0599455
41	0x3e737676	0.23775658
42	0x3e852b8c	0.26009786
43	0x3e666322	0.22498754
44	0xbe9b1a64	-0.30293572
45	0x3baffbbd	0.0053705857
46	0x3e53f415	0.20698579
47	0x3e705110	0.23468423
48	0x3d2c2179	0.04202411
49	0x3e579ddc	0.21056312
50	0xbec2d4b4	-0.38052905
51	0x3e9c5c4d	0.3053917
52	0xbdbb521d	-0.09146521
53	0xbdcfde32	-0.10149802
54	0x3dcfdebe	0.101499066
55	0xbde5bbf5	-0.112174906
56	0x3dff99b9	0.12480492
57	0xbe59db8e	-0.2127516
58	0xbe2f8b07	-0.17142878
59	0x3d063a43	0.032770406
60	0x3e628583	0.22121243
61	0xbddb9ce3	-0.10723283
62	0xbdaf9efd	-0.085752465
63	0x3d84c63f	0.06483125
64	0x3e35522b	0.17707126
65	0x3d1aeb85	0.037822265
66	0xbe334944	-0.17508417
67	0x3e4c8c93	0.199755
68	0x3d325ff6	0.043548547
69	0x3e02c42b	0.12770145
70	0x3d926045	0.07147268
71	0xbe4f8b63	-0.20268016
72	0x3e1bf2d6	0.15229353
73	0x3cbc421e	0.022980746
74	0xbd900d5d	-0.07033799
75	0x3b03aff2	0.0020093885
76	0x3d9c4c86	0.07631783
77	0xbc98028a	-0.018555898
78	0xbe0c72e4	-0.13715702
79	0x3d585cee	0.052823
80	0x3e447648	0.19185746
81	0x3e1b4ae6	0.1516529
82	0xbdbdf59e	-0.092753634
83	0xbe3bf7fd	-0.18356319
84	0xbe3cec56	-0.1844953
85	0xbe23de8f	-0.16002868
86	0x3e983d2a	0.29734164
87	0xbe4d8284	-0.20069319
88	0x3d844af1	0.064596064
89	0x3e7338c0	0.23752117
90	0x3c771526	0.015080726
91	0x3e4ca1d9	0.19983615
92	0x3d6e9996	0.05825194
93	0x3e2fc3ae	0.1716449
94	0x3e1289f6	0.1431044
95	0x3e37358b	0.17891519
96	0xbebaa75e	-0.36455816
97	0xbd6a41c2	-0.057191618
98	0xbe1c4bd6	-0.15263304
99	0xbe03d2dd	-0.12873407
100	0x3eabca70	0.33552885
101	0x3c866108	0.01640369
102	0xbda9278c	-0.08259496
103	0xbea79182	-0.327282
104	0x3e24c318	0.16090047
105	0xbc8f8376	-0.01751874
106	0xbe1407de	-0.14456126
107	0xbecf5e9f	-0.40501878
108	0x3e38baad	0.18039961
109	0x3d56b54b	0.05241899
110	0xbdc08a4a	-0.094013765
111	0xbe651195	-0.22369988
112	0xbde164b3	-0.11005535
113	0xbe767dc8	-0.24071419
114	0xbe8f92e7	-0.28041765
115	0xbe665127	-0.22491895
116	0xbe29fae2	-0.1659961
117	0x3e805830	0.25067282
118	0x3de58668	0.112072766
119	0x3e2698da	0.16269246
120	0xbe3ff5f6	-0.1874617
121	0xbe374b1c	-0.17899746
122	0x3e7d6cd2	0.24748543
123	0x3e275c4a	0.16343799
124	0xbe2e9be4	-0.17051655
125	0xbe9f995a	-0.31171685
126	0xbe61b374	-0.22041112
127	0xbda2b64d	-0.07944927
128	0xbde3d595	-0.11124722
129	0x3e8b376d	0.27190724
130	0xbe9d05dd	-0.30668536
131	0x3e5994cd	0.21248169
132	0x3ea2f365	0.3182632
133	0x3e24bf8d	0.16088696
134	0x3dd63711	0.10459722
135	0x3e920cde	0.28525442
136	0x3da5028a	0.08057125
137	0xbdbbaf8c	-0.09164342
138	0xbd83e771	-0.06440628
139	0x3ebd728a	0.3700145
140	0x3d04178b	0.032249015
141	0xbe35fd14	-0.17772323
142	0x3db56b0b	0.088583075
143	0xbecbbb55	-0.3979136
144	0x3dd0ec44	0.10201314
145	0xbe6d704a	-0.23187366
146	0xbde19a61	-0.110157736
147	0xbdcfa798	-0.10139388
148	0x3d896088	0.06707865
149	0x3db7fcb6	0.08983748
150	0x3db2c7e3	0.087295316
151	0x3d7f180c	0.062278792
152	0x3e22740e	0.15864584
153	0x3dc85efc	0.09783742
154	0x3dbb45f5	0.091442026
155	0xbe067487	-0.13130389
156	0x3e497283	0.19672589
157	0x3ea1bc10	0.31588793
158	0xbe3ab03e	-0.18231294
159	0xbd4ac376	-0.049502812
160	0xbe23778e	-0.15963575
161	0xbd64a2ef	-0.055819448
162	0xbe5fb562	-0.21846536
163	0xbdece41b	-0.11566945
164	0xbdf7e1b0	-0.12103593
165	0x3e27e848	0.16397202
166	0x3cd711f4	0.026253678
167	0x3e596c56	0.21232733
168	0xbe42804a	-0.18994251
169	0xbe862e3a	-0.26207143
170	0xbd1c6344	-0.038180605
171	0x3dc606e6	0.096692845
172	0xbc996047	-0.018722666
173	0x3e208f57	0.1567968
174	0x3d501022	0.050796635
175	0x3daddbc9	0.08489186
176	0x3de4625b	0.11151572
177	0x3da21e20	0.07915902
178	0x3d34cef6	0.044142686
179	0x3df324b6	0.118722364
180	0x3dc9964f	0.09843122
181	0x3caee386	0.021348726
182	0x3e5781ed	0.21045657
183	0x3df5c7ce	0.12001
184	0xbe3e562e	-0.18587562
185	0xbdebf46e	-0.11521231
186	0xbe685baf	-0.22691225
187	0x3e0f83b7	0.14015089
188	0xbdb715c5	-0.08939699
189	0xbe642bb1	-0.22282292
190	0xbe18db41	-0.14927389
191	0xbe6eeb8d	-0.23332043
192	0xbc8aede6	-0.016959142
193	0xbd6c6d9c	-0.05772172
194	0xbe4a2dd4	-0.19744045
195	0xbca866b2	-0.020556781
196	0x3e4a5b29	0.19761337
197	0x3e00712e	0.12543175
198	0xbdc3bf91	-0.09558023
199	0x3e7efe3e	0.24901673
200	0xbda76cc3	-0.081750415
201	0x3e14b49e	0.14522025
202	0x3dc39e83	0.09551718
203	0xbe323b13	-0.17405348
204	0xbe368ee9	-0.17827953
205	0x3e2e466e	0.17019054
206	0x3e04d074	0.12970144
207	0xbe16eb42	-0.14738181
208	0x3c820ff3	0.015876746
209	0xbdc110b3	-0.09427013
210	0xbdefe598	-0.117137134
211	0x3da0461a	0.07825871
212	0x3e09b8bb	0.13449375
213	0x3e34f2ee	0.17670795
214	0xba8d30b0	-0.0010771956
215	0x3e0bdf0a	0.13659301
216	0xbe0fed3c	-0.14055341
217	0x3c424241	0.0118566165
218	0x3e0732fe	0.13203046
219	0xbd8c34d0	-0.06846011
220	0xbe1ee2b9	-0.15516175
221	0xbb95d9f2	-0.0045731002
222	0x3e467f04	0.1938439
223	0xbd8545da	-0.06507464
224	0xbe3092f8	-0.17243564
225	0x3e21f6a8	0.15816748
226	0x3db9f2d6	0.090795204
227	0x3d91e770	0.07124221
228	0x3c733b2f	0.014845653
229	0xbe5310f8	-0.20611942
230	0xbde0793f	-0.10960626
231	0xbd8d839e	-0.069098696
232	0xbdd9bc55	-0.106316246
233	0xbe3b708b	-0.1830465
234	0x3e12da20	0.1434102
235	0xbd898923	-0.0671561
236	0x3e2bd552	0.16780594
237	0xbd82b6ff	-0.0638256
238	0xbe0ca31c	-0.13734096
239	0xbe1b2b6e	-0.15153286
240	0x3d278fe3	0.040908705
241	0xbce881e9	-0.028382258
242	0xbeba4cb5	-0.36386648
243	0xbd0386d6	-0.03211101
244	0x3ea918f4	0.3302685
245	0x3cc7d99c	0.024395756
246	0xbe0c4105	-0.13696678
247	0x3df520cf	0.11969148
248	0xbddceda6	-0.10787515
249	0xbd314587	-0.043279197
250	0xbbcefc8c	-0.006316727
251	0xbe725b63	-0.23667674
252	0x3d6c1fc3	0.057647478
253	0xbda5d058	-0.08096379
254	0xbcaada3e	-0.02085602
255	0x3dcd33b5	0.10019628

decoder.4.bias f4 [3]
0	0xbe59b7ee	-0.2126157
1	0xbec5f995	-0.38666978
2	0x3f9e6acd	1.2376343

encoder.0.weight f4 [128, 3]
0	0xbe01403a	-0.12622157
1	0x3f0d2525	0.55134803
2	0x3dd020be	0.10162495
3	0x3ef893df	0.48550317
4	0xbead559c	-0.33854377
5	0xbe6e4807	-0.23269664
6	0x3e8abc1e	0.27096647
7	0xbe1ec1be	-0.15503594
8	0xbd8b88a6	-0.06813173
9	0x3e6cf008	0.2313844
10	0xbe9242d9	-0.28566626
11	0x3d882594	0.066477925
12	0x3e46b634	0.19405442
13	0x3ec92a90	0.39290285
14	0x3d807c9d	0.06273768
15	0x3ed51bb7	0.41622707
16	0xbed3488e	-0.41266292
17	0x3d99eca8	0.07515842
18	0x3d71904c	0.058975503
19	0xbde65785	-0.11247162
20	0xbe925d8d	-0.28587
21	0x3e12abe2	0.1432338
22	0xbedf13f3	-0.43569908
23	0x3e196cad	0.14982863
24	0xbec4fcf3	-0.38474235
25	0xbed90f60	-0.42394543
26	0xbe3dd8b0	-0.18539691
27	0x3e45149c	0.19246143
28	0x3f0b1334	0.54326177
29	0x3ec09503	0.37613687
30	0xbc038eb9	-0.008029633
31	0x3d72820a	0.059206046
32	0x3ebc04c3	0.36722383
33	0xbf01343a	-0.50470316
34	0x3e8f6b9b	0.28011784
35	0x3e337c26	0.17527828
36	0x3e39dc87	0.18150531
37	0x3e9433e5	0.28945842
38	0x3f040484	0.5156939
39	0xbe8084ff	-0.25101468
40	0xbd02ff78	-0.031981915
41	0xbe0e1374	-0.13874608
42	0xbe7873d9	-0.24262942
43	0xbe619c71	-0.22032334
44	0xbd970b6f	-0.07375228
45	0x3ac8d736	0.0015322927
46	0xbd19489c	-0.03742276
47	0xbe288818	-0.16458166
48	0x3f044c6b	0.51679105
49	0xbebe7309	-0.3719714
50	0x3ea9ac03	0.33139047
51	0x3c84ffb0	0.016235203
52	0x3e828924	0.25495255
53	0x3e9b15c4	0.30290043
54	0x3e6e624f	0.23279689
55	0x3e76ecd1	0.24113776
56	0xbeb9f901	-0.36322787
57	0x3db2f566	0.08738212
58	0x3e82ffbb	0.25585732
59	0xbe55ec55	-0.20890935
60	0xbdda3602	-0.106548324
61	0xbe1703a2	-0.1474748
62	0x3e8cf579	0.2753103
63	0x3e8b8b45	0.27254692
64	0xbe508703	-0.20364003
65	0xbe88b1a5	-0.26698032
66	0xbe7c91ed	-0.24665041
67	0xbf1172f1	-0.5681601
68	0x3f196c00	0.5993042
69	0x3e21052d	0.1572463
70	0xbe8e2040	-0.2775898
71	0xbe8db2bb	-0.27675423
72	0x3f06a52d	0.5259579
73	0x3e903e01	0.28172305
74	0x3ee5c60f	0.4487767
75	0x3ef4727f	0.47743604
76	0xbe4218ad	-0.18954726
77	0xbe55c180	-0.20874596
78	0x3ec75fc9	0.38940266
79	0x3d39f16b	0.04539625
80	0x3d3801da	0.04492364
81	0x3e8c3baf	0.27389285
82	0xbe08e6d1	-0.133693
83	0x3ef7d200	0.48402405
84	0x3eaff643	0.3436757
85	0xbf04811e	-0.5175952
86	0xbea1829e	-0.31544966
87	0xbc7b4fb4	-0.015338827
88	0xbee66dc7	-0.45005628
89	0x3debfe6f	0.11523139
90	0xbe5143f3	-0.20436077
91	0x3ef362de	0.47536367
92	0xbedc72df	-0.4305639
93	0x3d8176e0	0.06321502
94	0xbc9b52c7	-0.01896037
95	0xbec64e3e	-0.3873157
96	0xbeffca64	-0.499591
97	0xbd5b5843	-0.05355097
98	0xbe965e86	-0.2936899
99	0xbee5a208	-0.44850183
100	0xbdf98e11	-0.121853
101	0x3d794701	0.06085873
102	0x3e24b9d3	0.16086511
103	0xbef08422	-0.4697581
104	0xbf00bf73	-0.5029213
105	0x3e9a7280	0.30165482
106	0xbeb48970	-0.35261106
107	0xbe09af27	-0.13445722
108	0xbebfb2e5	-0.37441173
109	0xbeea039c	-0.4570588
110	0xbd29c970	-0.04145187
111	0xbf2842d5	-0.6572698
112	0x3e189cf0	0.14903617
113	0x3cd1d37f	0.025613545
114	0xbeb50835	-0.35357824
115	0xbeddc26e	-0.433124
116	0xbe232324	-0.15931374
117	0x3dc269bf	0.09492826
118	0x3eafa0dc	0.34302413
119	0x3dcf8381	0.10132504
120	0xbd9aa834	-0.075516135
121	0xbdf9e0a3	-0.12201049
122	0x3ec05752	0.3756662
123	0xbefd4582	-0.49467093
124	0x3ea37cd2	0.31931168
125	0xbe144b81	-0.14481927
126	0xbe98bb85	-0.29830566
127	0xbe884049	-0.26611546
128	0xbed4b2e8	-0.41542745
129	0xbe680aaf	-0.22660325
130	0x3ebe66d3	0.37187824
131	0x3e6abc73	0.2292345
132	0xbe0eebaf	-0.13957094
133	0x3f00d6b8	0.50327635
134	0xbd9b9b7a	-0.07598014
135	0x3e9f71c2	0.31141478
136	0x3ec9e80c	0.3943485
137	0xbec59931	-0.38593438
138	0x3e8588ea	0.2608102
139	0x3d454893	0.048164915
140	0xbe2710df	-0.1631503
141	0xbd79ef71	-0.061019365
142	0x3dac4861	0.08412243
143	0xbf0bc14e	-0.54591835
144	0x3eaed5df	0.34147546
145	0x3e0fe04e	0.14050409
146	0xbd9c1dba	-0.076228574
147	0xbf031af7	-0.5121302
148	0xbebdb00e	-0.37048382
149	0x3eace6f2	0.33769947
150	0x3f0909c4	0.53530526
151	0x3efa23ab	0.48855338
152	0x3f129fb5	0.57274944
153	0x3d414653	0.047186207
154	0x3ea5462e	0.32280105
155	0x3f0e2393	0.5552303
156	0x3e96846f	0.29397914
157	0xbf06e8e5	-0.5269912
158	0x3ed7d992	0.4215818
159	0x3f042c60	0.5163021
160	0xbdcd0435	-0.10010568
161	0xbf0ba0dc	-0.54542327
162	0xbefe2d2b	-0.49643835
163	0x3e44518e	0.19171736
164	0x3eb3dd6a	0.35129863
165	0xbf22c125	-0.63575965
166	0xbe7a5fc7	-0.24450599
167	0x3ed05f0d	0.40697518
168	0xbd6de1ec	-0.058076784
169	0x3f03d3dc	0.51495147
170	0xbd5988f5	-0.053109128
171	0xbeb2fe31	-0.34959558
172	0x3edd913a	0.43274862
173	0x3eebc820	0.4605112
174	0xbea4d75d	-0.3219556
175	0xbe7299bf	-0.23691462
176	0x3d38e22e	0.045137577
177	0xbcb05ac7	-0.021527661
178	0x3ed6d856	0.41961926
179	0xbefcaea0	-0.49351978
180	0x3f126f3f	0.57201
181	0xbe8211d1	-0.25404218
182	0xbc7ac5b3	-0.015305924
183	0x3ef3ea78	0.47639823
184	0xbe890d95	-0.26768175
185	0xbe96cbc8	-0.29452348
186	0xbcb776a5	-0.022395441
187	0xbac1fb36	-0.0014799598
188	0xbd4a352c	-0.049367115
189	0x3ce42bea	0.027852971
190	0x3e700402	0.23439029
191	0x3f01be5f	0.5068111
192	0x3ec408ea	0.3828805
193	0xbe59791e	-0.21237609
194	0xbec26efb	-0.37975296
195	0x3ecfb688	0.40568948
196	0xbe8821b0	-0.26588202
197	0x3ce76718	0.028247401
198	0x3dcefedb	0.101072036
199	0x3ed2c2a8	0.41164136
200	0xbf21e2c2	-0.6323663
201	0xbed0c465	-0.40774837
202	0x3c45fca3	0.012084159
203	0xbdadf683	-0.08494284
204	0x3ed15828	0.4088757
205	0xbe9dd9b2	-0.3083015
206	0x3e4225ed	0.1895978
207	0x3e1f7d35	0.15575106
208	0xbeefe0d3	-0.46851215
209	0x3d9169fb	0.07100292
210	0xbf09b24b	-0.5378768
211	0xbf285514	-0.6575482
212	0xbe60efe6	-0.21966514
213	0xbe282ed5	-0.16424115
214	0xbedb2ea3	-0.42809018
215	0x3e9f7190	0.3114133
216	0x3dca2699	0.09870643
217	0x3efcaf66	0.49352568
218	0xbecaff9b	-0.39648136
219	0x3eed52e2	0.46352297
220	0x3f08390a	0.53212035
221	0xbe8156ee	-0.25261635
222	0x3eac01be	0.3359508
223	0xbee09ca8	-0.4386952
224	0x3ecd588f	0.40106627
225	0xbf2109bc	-0.6290548
226	0xbcbfb759	-0.023402857
227	0xbe577cfc	-0.21043772
228	0x3e92fbaf	0.28707644
229	0xbe8f3788	-0.27972054
230	0x3f1aec2d	0.60516626
231	0xbe701fdc	-0.23449653
232	0x3e3a2ef5	0.18181975
233	0xbe51a266	-0.20472106
234	0xbe8c0e15	-0.27354494
235	0xbf19835c	-0.59966063
236	0xbe87b215	-0.26503053
237	0xbf18f2d7	-0.59745544
238	0x3ec51584	0.38492978
239	0x3e0036ea	0.12520948
240	0xbe429018	-0.1900028
241	0xbe106acc	-0.1410324
242	0x3e456311	0.19276072
243	0xbed86145	-0.4226171
244	0x3ecdae0b	0.40171847
245	0x3eb2c3b6	0.3491494
246	0xbea12dbb	-0.31480202
247	0x3cb1e4d4	0.021715559
248	0x3e4c2ba1	0.19938518
249	0xbea3dda2	-0.3200503
250	0xbe334ac4	-0.1750899
251	0xbee4fe2c	-0.44725168
252	0xbe4fca63	-0.20292048
253	0xbe012003	-0.12609868
254	0xbf553677	-0.8328623
255	0x3e2b3a24	0.16721398

encoder.0.bias f4 [128]
0	0xbe818459	-0.25296286
1	0xbebbcabe	-0.36678118
2	0xbe3c4c1e	-0.18388411
3	0xbdf2ace4	-0.118493825
4	0xbdb30c05	-0.08742527
5	0xbe9472fb	-0.28993973
6	0x3dfc57ac	0.123214096
7	0x3e1155e3	0.1419292
8	0xbd1fe3fb	-0.03903578
9	0xbe92c1ee	-0.28663582
10	0x3e17165d	0.14754625
11	0x3e5e9ef3	0.21740322
12	0xbeeca366	-0.46218413
13	0xbb1a62cc	-0.0023557423
14	0xbd29eac7	-0.041483667
15	0x3e024520	0.12721682
16	0xbeb59b21	-0.35469916
17	0xbd043e8f	-0.032286223
18	0x3e06bfe0	0.13159132
19	0x3e70204c	0.2344982
20	0x3d1f40b3	0.03888006
21	0x3da96455	0.0827109
22	0xbf05ed8a	-0.5231558
23	0xbe81f653	-0.25383243
24	0x3eadae13	0.3392187
25	0x3e1c8b8b	0.15287606
26	0x3e2f4fac	0.17120236
27	0xbdee50b4	-0.11636487
28	0xbf02d53d	-0.51106626
29	0x3e85ca76	0.26131028
30	0xbe575e7c	-0.21032137
31	0xbbcdbe54	-0.0062787924
32	0xbde93fcd	-0.11389122
33	0xbe13fd2d	-0.14452048
34	0xbeecce56	-0.46251172
35	0xbe0f369e	-0.13985679
36	0x3ec57fcc	0.38574064
37	0xbedfb0a6	-0.4368946
38	0xbd92d4fd	-0.071695305
39	0xbd088ed1	-0.033339325
40	0x39c4b231	0.00037516796
41	0xbeafe586	-0.343548
42	0xbe8abe93	-0.27098522
43	0x3dcfad4a	0.10140474
44	0xbd1079be	-0.035272352
45	0xbe5b25ff	-0.21401213
46	0xbec208b2	-0.3789726
47	0x3e08595c	0.13315338
48	0xbd1df0cb	-0.038559716
49	0x3dbfe876	0.0937051
50	0xbeecda13	-0.46260127
51	0xbe968aab	-0.2940267
52	0x3ea9f455	0.33194223
53	0x3ed84ae8	0.4224465
54	0xbe9ddae2	-0.30831057
55	0xbefe5e98	-0.49681544
56	0x3ced7c88	0.028990045
57	0x3ed36431	0.41287377
58	0x3df9fb69	0.12206156
59	0x3e8e0875	0.27740827
60	0x3ec40631	0.38285974
61	0xbed2ea78	-0.4119451
62	0xbcb4e6df	-0.022082744
63	0x3e894b83	0.26815423
64	0xbe49bae9	-0.19700207
65	0xbda4eb06	-0.0805264
66	0x3ef66291	0.48122075
67	0xbde9a196	-0.11407773
68	0x3ddd0462	0.107918516
69	0x3d9f2e2e	0.0777248
70	0xbea36552	-0.3191324
71	0xbdb3f50a	-0.08786972
72	0xbed6b039	-0.41931322
73	0xbe7dba60	-0.24778128
74	0xbdaa7c06	-0.08324437
75	0xbee2471b	-0.44194874
76	0x3e98af1c	0.29821098
77	0xbd98b2bd	-0.074559666
78	0xbe957171	-0.2918811
79	0x3efc6e63	0.49302968
80	0x3dfd87be	0.123794064
81	0x3ecc4aff	0.39900967
82	0x3d595177	0.053056207
83	0x3db7b340	0.08969736
84	0xbee6a0e7	-0.45044634
85	0xbd73c1af	-0.059510883
86	0x3e28af41	0.16473104
87	0x3e74eb72	0.2391794
88	0xbe5b757b	-0.21431534
89	0xbe927d4c	-0.2861122
90	0x3e5bff63	0.21484141
91	0xbe401e6c	-0.18761605
92	0xbe4965a8	-0.19667685
93	0xbd97183b	-0.073776685
94	0xbddfe798	-0.10932845
95	0x3e228aa2	0.15873197
96	0xbd8edf17	-0.06976145
97	0x3b3f4356	0.0029184422
98	0xbdcbb4bc	-0.09946582
99	0x3e333063	0.17498927
100	0xbe84ba9a	-0.25923616
101	0xbe8589e9	-0.2608178
102	0x3ef35c31	0.47531274
103	0x3e9b68a0	0.3035326
104	0x3ebfa695	0.3743178
105	0xbd3da9ad	-0.046304394
106	0x3ec00660	0.37504864
107	0x3dd746c4	0.10511544
108	0x3ee3fa34	0.44526827
109	0x3ee12bd8	0.43978763
110	0x3e12d6a6	0.14339694
111	0x3e920b25	0.28524128
112	0x3d47b085	0.048752327
113	0x3e0f1c76	0.139757
114	0xbeb68b50	-0.35653162
115	0xbd3ba3e4	-0.045810595
116	0xbea9f3d5	-0.33193842
117	0xbd2c4d67	-0.042066004
118	0x3da0766c	0.07835087
119	0xbee29003	-0.44250497
120	0x3e3209e1	0.17386581
121	0x3d6deb69	0.058085833
122	0xbf016efa	-0.5055996
123	0xbc671ced	-0.014106018
124	0x3d0c0e4f	0.034193333
125	0x3ef85680	0.48503494
126	0x3eb55092	0.35413033
127	0xbdb6de29	-0.089290924

encoder.2.weight f4 [128, 128]
0	0xbcffa004	-0.031204231
1	0xbccd01d9	-0.025025295
2	0xbceb7c1f	-0.028745709
3	0xbdb29318	-0.08719462
4	0xbd891214	-0.06692901
5	0x3cda41b2	0.026642654
6	0xbd89d1d3	-0.06729474
7	0xbca9bf4d	-0.020721102
8	0xbbd7b7f7	-0.0065832096
9	0x3d5ff039	0.054672454
10	0x3d1013f9	0.035175297
11	0xbc94c336	-0.01815949
12	0x3d191f3a	0.037383296
13	0x3e299001	0.1655884
14	0x3c929cea	0.017897088
15	0x3d3ef528	0.046620518
16	0xbc4aa8e2	-0.012369366
17	0x3b380b3e	0.0028082873
18	0xbdae47fc	-0.08509824
19	0x3d4d747d	0.05015992
20	0x3d8d4eb2	0.068997756
21	0x3b2bd181	0.0026217403
22	0xbd028646	-0.031866334
23	0x3c89eaa1	0.016835513
24	0x3ceef1f2	0.029168103
25	0xbd1b4f29	-0.03791729
26	0xbca04836	-0.019565683
27	0x3c08b9f4	0.008345116
28	0xbc01fc4f	-0.00793369
29	0x3d8cc9d4	0.06874433
30	0x3d1d755e	0.03844201
31	0xbd903bd8	-0.07042664
32	0x3d6d53ef	0.057941373
33	0x3e015298	0.12629163
34	0xbd828b73	-0.06374254
35	0xbd8beae7	-0.068319134
36	0x3d95f9be	0.07323025
37	0x3c48ee07	0.012263781
38	0x3caab8cc	0.020840071
39	0xbd69ab08	-0.057047874
40	0x3dae626f	0.085148685
41	0xbd1061da	-0.03524957
42	0xbd3c62ad	-0.045992542
43	0x3db0adea	0.086269215
44	0x3c9e9463	0.019357866
45	0x3c1bfb4e	0.009520365
46	0x3d381a0a	0.044946708
47	0x3d384286	0.044985317
48	0xbe18ff4c	-0.14941138
49	0x3de1b333	0.11020508
50	0xbc30a26f	-0.010780915
51	0xbd9450af	-0.07241952
52	0x3c9d69f2	0.019215558
53	0x3ca9b097	0.020714087
54	0x3d5d23a1	0.053989056
55	0x3d0c719e	0.03428804
56	0xbdb78972	-0.089617625
57	0x3d96828d	0.07349119
58	0xbd0225a9	-0.031774197
59	0x39d609f8	0.00040824688
60	0x3c750e00	0.014956951
61	0xbdb031cc	-0.08603248
62	0x3da833ed	0.08213029
63	0xbd3cc144	-0.04608275
64	0x3d03cd14	0.032178
65	0xbdb7cf45	-0.089750804
66	0xbd7f062a	-0.062261738
67	0x3db41f1c	0.08794996
68	0xbd539a0d	-0.051660586
69	0xbcbff5ce	-0.023432638
70	0x3d32212c	0.043488666
71	0xbd33cead	-0.043898273
72	0xbd3be702	-0.045874603
73	0xbc0b4032	-0.008499192
74	0xbcce673a	-0.025195707
75	0x3c3e3d6a	0.011611322
76	0x3d15f799	0.03661308
77	0xbceb5971	-0.028729172
78	0xbc5a83d1	-0.013337092
79	0x3d2cb665	0.042166132
80	0xbd1c890a	-0.038216628
81	0xbd52c612	-0.051458426
82	0x3de6fef5	0.11279098
83	0xbc8e4036	-0.017364603
84	0x3d815db6	0.06316702
85	0xbcc4b199	-0.024010466
86	0x3cde1f19	0.027114438
87	0xbd8d17e1	-0.0688932
88	0x3c62ba49	0.013838359
89	0x3dab74fd	0.08371923
90	0x3c84bb5f	0.016202627
91	0x3bbebb68	0.0058206804
92	0x3c76cc19	0.015063309
93	0xbd9035ff	-0.07041549
94	0xbd15d9e4	-0.03658475
95	0xbcdc764e	-0.02691188
96	0xbdd5d7eb	-0.10441574
97	0xbbc54687	-0.0060203704
98	0xbc8423f6	-0.016130429
99	0xbd0fb883	-0.035088073
100	0x3d346d07	0.04404929
101	0x3ccb8853	0.024845278
102	0x3dc183f8	0.09448999
103	0x3d1dd371	0.038531724
104	0xbce04aef	-0.027379481
105	0xbc97ac19	-0.01851468
106	0x3cfe2ef7	0.031028254
107	0xbd554b3f	-0.052073713
108	0xbdaf2236	-0.08551447
109	0x3d23e09f	0.040009137
110	0x3d8ce358	0.068793
111	0x3d804e2c	0.0626491
112	0xbb528a71	-0.0032125975
113	0x3dd3280b	0.10310372
114	0x3dad2480	0.084542274
115	0x3c5e47d1	0.013566927
116	0x3da7ccb8	0.08193344
117	0x3df48a70	0.11940467
118	0x3cefa31a	0.029252578
119	0x3d8c3e3f	0.0684781
120	0xbd05966a	-0.03261415
121	0xbd221d0f	-0.039578494
122	0x3d51238b	0.051059287
123	0x3d493b7f	0.049129006
124	0x3d21685d	0.03940617
125	0xbdbeb22c	-0.09311327
126	0x3d66da05	0.056360263
127	0xbcaf5e7f	-0.021407364
128	0xbe5735e9	-0.21016659
129	0x3b8e273a	0.0043381723
130	0xbc868c54	-0.016424336
131	0x3e4b1f30	0.19836116
132	0xbda82deb	-0.08211883
133	0x3d29a4c0	0.041416883
134	0x3d9fe576	0.07807438
135	0x3e9ed710	0.31023455
136	0x3dbe7a8a	0.09300716
137	0xbc61bef2	-0.013778435
138	0x3d6cd93f	0.05782437
139	0xbdaa219f	-0.08307194
140	0x3c17f47f	0.009274601
141	0x3c4f52ec	0.012654047
142	0x3d4cc1e4	0.049989596
143	0xbcf829df	-0.030293403
144	0x3dce0abc	0.10060641
145	0x3bc56b9b	0.0060247905
146	0xbe2f7b48	-0.17136872
147	0xbccfa424	-0.025346823
148	0x3da19344	0.07889417
149	0x3d45015c	0.048097
150	0x3cf73693	0.03017739
151	0x3dbf9e4e	0.09356366
152	0xbc9e6c0e	-0.019338634
153	0x3df086e4	0.11744478
154	0xbca1d152	-0.019753132
155	0x3e5926f7	0.2120627
156	0xbd829a4c	-0.06377086
157	0x3e49cc6d	0.19706888
158	0xbeb8f433	-0.3612381
159	0xbdd2500d	-0.10269175
160	0xbe17cc12	-0.1482394
161	0x3da71e90	0.08160126
162	0xbc92cbc9	-0.017919438
163	0x3dd0bb7d	0.101920106
164	0xbbb3b994	-0.005484769
165	0xbd52c69c	-0.05145894
166	0x3e15aa7d	0.14615817
167	0xbe1951ef	-0.14972661
168	0x3e5515b3	0.20809059
169	0xbe6be0fd	-0.23035045
170	0x3d87fc93	0.066399716
171	0xbd7cc728	-0.061713368
172	0xbe4ac502	-0.19801715
173	0xbe386d8b	-0.18010537
174	0xbde02d39	-0.109461255
175	0xbd97c489	-0.07410533
176	0xbddf6dab	-0.109095894
177	0x3e20ee9d	0.15716024
178	0xbd0ef213	-0.03489883
179	0xbcd836fb	-0.026393404
180	0x3e99263c	0.29911983
181	0x3d224202	0.03961373
182	0xbc4e016f	-0.012573584
183	0xbbb1db82	-0.0054277787
184	0xbe389d9a	-0.1802887
185	0x3c94f8c2	0.018185023
186	0xbc52c211	-0.012863652
187	0xbd3ce0e2	-0.046112902
188	0x3df284c8	0.11841732
189	0xbccd490a	-0.025059242
190	0xbd6cf278	-0.057848424
191	0xbb2c1ec6	-0.002626346
192	0xbd8d74e1	-0.069070585
193	0x3d8312f9	0.06400103
194	0x3b8701e4	0.0041200984
195	0xbe241437	-0.16023336
196	0x3dc8c0fb	0.09802433
197	0x3e74dfcd	0.23913498
198	0x3ded4b15	0.115865864
199	0x3e1a49ec	0.15067261
200	0xbe6cbda3	-0.23119216
201	0xbe10b694	-0.14132148
202	0x3df352aa	0.11881001
203	0xbde88e1b	-0.113552295
204	0x3e72cd00	0.23711014
205	0xbe464dbe	-0.19365594
206	0x3cd344e7	0.025789691
207	0xbc270247	-0.010193414
208	0x3de32d97	0.1109268
209	0xbc871733	-0.016490554
210	0xbcdb00ff	-0.026733873
211	0xbdfe7a1c	-0.12425634
212	0xbc3900d2	-0.0112916995
213	0x3de24fc9	0.11050374
214	0xbd9d3d62	-0.076777235
215	0xbd4ff859	-0.050773952
216	0x3dbde015	0.09271256
217	0xbd9a9267	-0.07547455
218	0x3e22be20	0.1589284
219	0x3d37c940	0.04486966
220	0x3e173cf8	0.14769351
221	0x3e000f97	0.12505947
222	0x3d548cdb	0.051892143
223	0xbdcbfdd3	-0.099605225
224	0xbe106ae1	-0.14103271
225	0x3e47b8d0	0.19504094
226	0x3d1a93a8	0.037738472
227	0x3d0ce2c3	0.034395944
228	0xbe4e8bb6	-0.20170483
229	0xbdea2ff2	-0.11434926
230	0x3deccbec	0.115623325
231	0x3d21ac4d	0.03947096
232	0xbdb22484	-0.08698371
233	0x3baeabb8	0.005330529
234	0x3c9cda13	0.019146955
235	0xbd13f3b9	-0.036121104
236	0x3d91b040	0.07113695
237	0x3de2dcc3	0.11077263
238	0x3c63e431	0.013909386
239	0xbd0ff252	-0.035143204
240	0x3e63feaa	0.22265115
241	0x3df200a3	0.11816528
242	0xbe44f46f	-0.19233869
243	0x3dea998a	0.114550665
244	0xbdc3ccfe	-0.095605835
245	0x3dcbbfd1	0.099486955
246	0x3dde6d0b	0.10860642
247	0x3da3a55c	0.07990524
248	0x3dc1585a	0.0944068
249	0xbe1a64cd	-0.15077515
250	0x3c68fbe6	0.0142202135
251	0x3d7006ea	0.058600344
252	0xbe34f373	-0.17670994
253	0x3e8dddee	0.2770838
254	0x3e01a933	0.126622
255	0xbda8d679	-0.082440324

encoder.2.bias f4 [128]
0	0xbd1512f4	-0.03639503
1	0x3d48bb87	0.049006965
2	0xbdb8733b	-0.090063535
3	0x3d35046f	0.04419368
4	0x3ca9efc7	0.020744218
5	0x3d14f682	0.0363679
6	0x3d11054c	0.035405442
7	0xbcfad604	-0.030619629
8	0x3cadf440	0.021234632
9	0x3d94239f	0.07233357
10	0x3d09fb09	0.03368667
11	0xbcc92d6c	-0.024557792
12	0xbdb189a2	-0.086688295
13	0xbd962ff1	-0.07333363
14	0x3d894864	0.067032605
15	0xbd04f44e	-0.03245955
16	0xbd9fb92a	-0.07798989
17	0x3dba9508	0.09110457
18	0x3dce4df8	0.10073465
19	0xbd8f93e0	-0.07010627
20	0xbd818d57	-0.063257866
21	0x3d440f2c	0.04786603
22	0x3d8b82b9	0.06812043
23	0xb9f20b4d	-0.00046166257
24	0xbd81cf80	-0.063384056
25	0xbc6794b5	-0.014134576
26	0xbdb3cb1c	-0.087789744
27	0x3dcf9fc2	0.10137893
28	0xbd145414	-0.036212996
29	0x3de4a980	0.11165142
30	0xbd800aec	-0.06252083
31	0xbc8481e8	-0.016175225
32	0xbd39f3a7	-0.04539838
33	0xbe18259d	-0.14858098
34	0x3cbc6d05	0.023001203
35	0x3d74b766	0.059745215
36	0x3dd3c767	0.10340767
37	0x3c1576bc	0.009122547
38	0x3bd80007	0.0065918
39	0x3c71960a	0.014745245
40	0x3df32ebc	0.11874148
41	0x3e1ccf72	0.15313509
42	0xbdaa081a	-0.083023265
43	0xbd2a19b6	-0.041528426
44	0x3cc49bbf	0.024000047
45	0xbd996179	-0.074892946
46	0x3b950f3e	0.004548936
47	0x3d95b9d0	0.073108315
48	0xbd5a8449	-0.053348813
49	0xbd98d334	-0.07462159
50	0xbdaa5744	-0.08317426
51	0xbe238a8c	-0.1597082
52	0xbb545911	-0.003240172
53	0x3d9849cb	0.0743595
54	0xbdbae3ab	-0.091254555
55	0xbd87fd76	-0.06640141
56	0xbc923800	-0.017848969
57	0xbd9608b6	-0.0732588
58	0x3d799439	0.06093237
59	0x3d18249c	0.03714429
60	0xbdc8fa9e	-0.098134264
61	0x3d1e3b0f	0.03863054
62	0xbccc0e5f	-0.024909196
63	0x3ce693ab	0.028146585
64	0x3d6b4210	0.05743605
65	0x3b4d5d22	0.003133603
66	0xba60f245	-0.0008581023
67	0xbd3be61b	-0.045873743
68	0xbdea5c3b	-0.11443373
69	0x3cb89b4a	0.022534985
70	0xbdb7b2a3	-0.08969619
71	0x3d06abbc	0.032878622
72	0xbd6793f1	-0.056537572
73	0xbd925bc4	-0.07146409
74	0x3dad8830	0.08473241
75	0xbdd556ac	-0.10416922
76	0xbd818e3f	-0.063259594
77	0xbcce354e	-0.025171902
78	0xbe172e8a	-0.14763847
79	0xbda747eb	-0.08168014
80	0xbda9c740	-0.08289957
81	0xbe34e8e2	-0.17666963
82	0xbc9a9a05	-0.01887227
83	0x3d84a36f	0.06476485
84	0x3d0db9cb	0.034601014
85	0x3ddb9a49	0.10722787
86	0xbbbd1ea1	-0.0057714735
87	0xbd41d176	-0.0473189
88	0x3da31082	0.07962133
89	0x3d988808	0.07447821
90	0xbdcd21fc	-0.10016248
91	0x3e12c712	0.14333752
92	0x3d75c691	0.06000382
93	0xbd474995	-0.048654158
94	0xbd1027a2	-0.035194047
95	0x3e11c279	0.14234342
96	0xbd77e639	-0.06052229
97	0xbd4244ba	-0.047428824
98	0x3d449b18	0.04799947
99	0x3da2a113	0.07940879
100	0x3d2e021a	0.042482473
101	0x3da0e26b	0.07855686
102	0x3c84aac6	0.016194712
103	0xbd6fe32e	-0.058566265
104	0x3cfd5baa	0.030927498
105	0xbcdd73e2	-0.027032796
106	0x3d12dd4a	0.03585557
107	0xbce82f30	-0.028342813
108	0x3dc858e2	0.09782578
109	0xbc2be90c	-0.010492574
110	0x3debbbdd	0.115104415
111	0x3d6b0698	0.057379335
112	0xbcebe125	-0.02879388
113	0xbd75b7cf	-0.059989747
114	0xbd1671e3	-0.036729705
115	0x3ddd66f7	0.108106546
116	0xbcde6ca0	-0.027151406
117	0xbd2b33cb	-0.04179744
118	0x3d7b53e3	0.061359297
119	0xbd4eb703	-0.050467502
120	0xbc7cd8da	-0.015432561
121	0x3bf1867a	0.007370767
122	0x3d080f48	0.0332177
123	0xbdaac374	-0.08338061
124	0xbe244c81	-0.16044809
125	0xbbe22e6f	-0.006902508
126	0xbd59df0f	-0.05319124
127	0xbda1f251	-0.07907546
