L4DC_2024/models/decoder_Rossler_noise0.pt (torch, 168940 bytes, 19 tensors)

A.weight f4 [7, 7]
000000 21 80 3c 3f c4 44 dd bc 9c 68 74 bd 36 92 5a bd
       0.7363301 -0.027010329 -0.059670076 -0.053362094
000010 35 10 3c bd e4 6d 67 bd 00 23 c5 bc 8e 65 a3 bd
       -0.045913894 -0.056501284 -0.02406454 -0.079783544
000020 1a a0 3e 3f 68 fb ba bd 3e 35 8c bd 2f a8 62 bd
       0.74463046 -0.09129983 -0.06846093 -0.055336174
000030 e2 21 97 bd de ce ab bc d8 31 98 bc 60 0a fb 3c
       -0.073795095 -0.020972665 -0.018578455 0.030644596
000040 ae 50 48 3f 2d 88 49 bd b2 99 6a bd ba b1 3a bd
       0.7824811 -0.049202133 -0.05727548 -0.04557965
000050 87 17 17 bd fb a5 cc bb 98 c3 9c 3c c1 25 85 3c
       -0.03688767 -0.0062453724 0.019136235 0.016253354
000060 00 55 4d 3f bf ce 01 bd 51 80 34 bc a7 e1 28 bd
       0.80207825 -0.03169131 -0.011016921 -0.041230824
000070 ac 32 87 3c 03 12 22 3d 3e ba 06 3d 2a 06 36 bc
       0.016503654 0.03956796 0.03289246 -0.011109868
000080 54 1f 52 3f 01 60 9f 3c 52 f4 5b bd f0 6e 1a ba
       0.8207905 0.019454958 -0.0536998 -0.0005891165
000090 97 ac 17 3d b2 25 34 3c fa 27 2f bd b6 b3 5a bd
       0.03702983 0.010995315 -0.042762734 -0.053394042
0000a0 74 7e 56 3f ff d9 6f bd 3f e0 ee bc 84 1a 81 bd
       0.837867 -0.058557507 -0.029159663 -0.063038856
0000b0 df 86 aa bc fc c1 de bc ff 9f a1 bc 96 5d 49 3b
       -0.020816265 -0.027192108 -0.019729612 0.0030725948
0000c0 0b 96 59 3f
       0.8499457

decoder.0.weight f4 [128, 7]
000000 a3 29 b9 3c 74 4d 51 3e cd 49 7f 3e 64 a1 1c 3e
       0.022602862 0.20439702 0.24930497 0.1529594
000010 cc b5 50 3e 89 16 63 be b2 eb 84 be b3 9e 90 3e
       0.2038185 -0.22176565 -0.2596107 0.28246078
000020 cc ad 06 bc 67 7e 9e be 6f 63 a7 3e c7 35 3f 3e
       -0.008220147 -0.30955812 0.3269305 0.18672858
000030 b7 d3 83 be db 4d 96 be 32 7f 34 be 8f 68 16 bf
       -0.25747463 -0.29356274 -0.17626646 -0.58753294
000040 00 f7 0b bf 3e b3 2f 3e 61 56 44 3e 46 bb 9b be
       -0.5467377 0.17158219 0.19173576 -0.30416316
000050 e6 3a e7 bd 1c 77 b4 be 81 0e 5a 3e 25 b3 94 be
       -0.11290531 -0.35247123 0.21294595 -0.29042926
000060 73 09 28 3e c5 55 b0 3c 85 bd 2d 3e 01 b0 b2 bc
       0.16409855 0.021525273 0.16966827 -0.02181244
000070 7a ce 83 be e7 e3 cd 3e 23 3e 87 3e 5f 7b 29 be
       -0.25743467 0.40212938 0.26414594 -0.16550969
000080 98 0e d0 bd 11 e4 e8 3c b1 7a 4a 3e 5e 25 01 3e
       -0.101590335 0.028429063 0.19773366 0.1261191
000090 1b 7f ea 3e 3b 1a c8 bd 0e ac b5 3e a7 be 0e 3e
       0.458001 -0.09770628 0.3548283 0.13939916
0000a0 27 f3 85 be f5 89 45 3e 37 c8 f1 bc 66 9d e6 bd
       -0.26162073 0.19290908 -0.029514415 -0.1126049
0000b0 42 29 31 bc a0 a1 78 3e 30 16 99 be df 20 a9 be
       -0.010813059 0.24280405 -0.2989974 -0.3303289
0000c0 bf 6b 8e 3e 08 9b a0 be 07 40 3d bd a8 ae a3 be
       0.2781658 -0.3136828 -0.04620364 -0.3196919
0000d0 ee 25 30 be 03 a2 c8 3e fe 8a 7e 3e c0 0b 6a be
       -0.17201969 0.39186105 0.24857709 -0.22856045
0000e0 74 25 6b 3e ba b9 7e 3d 5b 2f 10 3e 4c 9d 30 3e
       0.22963506 0.06218884 0.14080565 0.17247504
0000f0 f1 1c 90 be d3 95 14 3e 17 43 c6 bd ce 1b 95 3e
       -0.2814708 0.14510278 -0.09680765 0.29122776
000100 58 18 81 3d 90 4b f5 3e da 8c 4f 3e ed 66 da 3e
       0.06303471 0.47909212 0.20268574 0.4265665
000110 7c 6d 82 be 41 d7 86 be 53 6d ca be 4f 36 ca be
       -0.25474155 -0.263361 -0.39536533 -0.3949456
000120 54 07 9c be 11 76 b0 3e 31 1f 50 bd 5d 91 09 bf
       -0.3047434 0.34465078 -0.050810996 -0.5373743
000130 90 90 d3 bd 76 b5 fd 3d 71 44 75 be fb 87 63 bd
       -0.103303075 0.123881266 -0.2395189 -0.055549603
000140 ce 60 94 3e 97 a0 cc be fd c4 97 bd ae d4 5d 3e
       0.28980106 -0.3996627 -0.074106194 0.21663162
000150 d9 80 b4 3d 7b 6e 8b 3e f6 ba aa be 04 4e c4 be
       0.08813638 0.27232727 -0.33345765 -0.3834077
000160 99 81 28 3e 66 71 5e 3e 2c 8a 16 3e d5 0b 66 bc
       0.16455688 0.21722946 0.14701146 -0.014040907
000170 c0 a7 a2 be e5 21 9b 3e 81 86 3d 3e 46 5a ba 3e
       -0.31768608 0.30299297 0.1850834 0.36396998
000180 8f 85 72 be d6 bb de bd e6 54 6c 3d 49 a0 94 be
       -0.23683761 -0.108756706 0.057698153 -0.29028538
000190 a9 09 80 be 3e a3 06 3e 5a b3 84 3d 67 e4 66 3d
       -0.2500737 0.1314821 0.06479521 0.056370165
0001a0 f1 17 b4 bd e1 5b a5 3e e1 27 14 bc e3 43 9f 3e
       -0.08793629 0.3229666 -0.009042711 0.3110648
0001b0 da 29 41 3e b9 14 67 bd 5d 7d 28 3e 28 4c 9b be
       0.18863621 -0.056416247 0.16454072 -0.3033154
0001c0 e3 26 5e bc 52 4e c0 be 29 9f 1e 3e ef 87 90 be
       -0.013559076 -0.37559754 0.15490402 -0.2822871
0001d0 ac b6 95 3e f7 b2 0b be de 7a 15 bd bd fe 82 be
       0.2924093 -0.13642488 -0.03649413 -0.25584975
0001e0 35 8d 18 bf b4 a5 37 bf 32 b3 2f 3e dc 94 c3 bd
       -0.59590465 -0.7173722 0.17158201 -0.09549877
0001f0 e0 17 56 be f8 fc 9b 3c f6 31 e8 bd e6 f2 83 3e
       -0.20907545 0.019041523 -0.11337654 0.25771254
000200 0c 1c 94 bd 60 b7 8f 3d 32 ea fb 3d ae f1 93 3d
       -0.07231912 0.07017398 0.123005286 0.07223831
000210 f7 f7 38 be a2 e1 5e 3e 90 d5 c6 be 01 7a a9 be
       -0.18063341 0.2176576 -0.3883481 -0.33100894
000220 64 46 78 3e 7d e8 5a 3e af 79 05 bd 1d 2b aa bd
       0.24245602 0.2137775 -0.03258675 -0.083090045
000230 ce 84 8b 3e d9 d9 9c be 82 44 b3 be c6 dd 83 bd
       0.2724976 -0.30634955 -0.35013205 -0.06438784
000240 53 d9 ab 3d 36 d2 5b 3e e2 b4 02 be 85 ba 2d 3e
       0.08391061 0.21466908 -0.12764314 0.16965683
000250 20 83 4e 3e 52 de bd be 98 38 29 3e f4 31 a5 be
       0.20167208 -0.3708368 0.16525495 -0.32264674
000260 6d 40 86 be a8 c6 a0 3e 71 76 03 3f 94 5c 05 3f
       -0.26221028 0.31401563 0.513526 0.5209439
000270 6c ad 91 3e 04 7e 1f 3d 25 83 54 be a3 06 13 3e
       0.28452623 0.038938537 -0.20753153 0.14358
000280 dd eb 7b 3e b0 e3 2a bd a7 be 88 3d 2e 97 1f be
       0.24601693 -0.041721046 0.06676989 -0.15585014
000290 fd ac a5 be 56 6b 41 3e fa 32 58 be c9 cd 72 3e
       -0.32358542 0.18888602 -0.21113196 0.23711313
0002a0 89 87 bd 3d 31 12 f3 bd 11 f6 bb bd 93 2b 89 bc
       0.09254367 -0.11868704 -0.09177793 -0.01674441
0002b0 0a 9d b8 3e 8a 54 8b be 5f e1 64 be 78 a5 a0 be
       0.3605731 -0.27212936 -0.22351597 -0.31376243
0002c0 71 e7 7c 3d 86 74 5a 3e 86 97 14 be 57 a8 00 bf
       0.061744157 0.21333513 -0.14510927 -0.50256866
0002d0 1d b7 cc bd df a1 44 3c bd 76 e1 3e 0e 22 f1 3d
       -0.099958636 0.012001484 0.44035903 0.117740735
0002e0 24 e3 b6 3b 1f eb 7a 3e df e1 b5 be 29 51 e0 be
       0.0055812765 0.24503754 -0.35523888 -0.4381192
0002f0 74 ef a5 3b 99 31 a5 3e 29 ba 9b 3e 4c b6 80 3e
       0.0050639454 0.32264403 0.30415466 0.2513908
000300 8c d9 1a 3e fc 13 a6 be 25 f5 8a 3e 09 fc 5c be
       0.1512205 -0.32437122 0.27140155 -0.21580519
000310 6a 09 40 be 76 79 99 3e 0d db 14 bd 07 f7 b7 3e
       -0.18753591 0.2997548 -0.036341716 0.35930654
000320 17 2e 4c 3e c4 d3 0d 3e 6c 84 f7 bd a9 e2 a1 3e
       0.19939457 0.13850313 -0.12085804 0.3161824
000330 c4 f5 a8 3e 61 f5 72 3d 7a 02 00 be e4 9a b7 be
       0.33000004 0.059316043 -0.12500945 -0.3586036
000340 c3 93 96 bd 03 78 88 3e f5 e4 c9 3e 69 89 a2 bc
       -0.07352402 0.26654062 0.39432493 -0.019840913
000350 81 78 de 3e b4 62 98 3e 7a 93 e1 3d 6c 5e 59 3f
       0.43451312 0.29762805 0.11014457 0.849097
000360 63 7b 03 be 59 52 58 3d d1 f5 85 bd d9 c8 89 be
       -0.12840037 0.052812908 -0.065410264 -0.26911047
000370 39 25 98 3b 87 a5 5b 3e f6 a3 28 be e5 c2 7a bd
       0.004643109 0.21449862 -0.16468796 -0.061221022
000380 3f d3 c6 bd 17 66 6f be 6e be 3e bd 5d fb a7 be
       -0.09708261 -0.23378788 -0.046568327 -0.32808962
000390 05 09 29 3e a5 59 72 be f3 9d 68 3e ad 02 01 be
       0.16507347 -0.23667009 0.22716503 -0.12598677
0003a0 b1 6f 22 be a3 a4 94 be f8 0e 6a 3e f8 df c5 3d
       -0.1586292 -0.29031858 0.22857273 0.09661859
0003b0 5c 00 00 3e 85 a6 14 be 84 1f 13 3f 9d e0 70 3e
       0.12500137 -0.14516647 0.57469964 0.23523183
0003c0 53 1a e5 3e 23 ec 0c 3e 7b ea 05 bd 1c 0c c7 3e
       0.44746646 0.13761954 -0.03269432 0.38876426
0003d0 ea 7b 14 3c a4 0f 59 be e0 17 cc 3d 5c d4 e6 bd
       0.009062747 -0.21197373 0.09965491 -0.11270973
0003e0 7c 6f 9c bd 1b d9 58 bd b7 31 73 be 2b 87 3d 3e
       -0.076384515 -0.052941423 -0.23749433 0.18508594
0003f0 4e 90 d9 3c 31 c0 85 3e 3a e7 29 be 24 51 a0 3d
       0.026558068 0.26123193 -0.16592112 0.07827976

decoder.0.bias f4 [128]
000000 dd 56 5c 3f b3 7c 1c 3f 2b 38 c9 be 75 4a 0d bf
       0.8607004 0.61127776 -0.39300665 -0.5519174
000010 35 4f 3f bf 7e 0e d9 be 50 75 27 3f dc 1c 41 bf
       -0.74730235 -0.4239387 0.6541338 -0.7543466
000020 70 90 09 bf d4 9f 6e bd 73 fe 96 bf 1f e4 a0 bf
       -0.5373602 -0.058257893 -1.1796402 -1.2569617
000030 1a 08 69 3f a1 73 27 3e 3c ca 14 3f a3 2e f0 3e
       0.91027987 0.16352703 0.58121085 0.4691058
000040 1e 9d 60 3f 6b 84 68 bf a9 54 53 3f db 2f 0b 3f
       0.8773974 -0.90827054 0.82551056 0.54369897
000050 23 16 09 3e a0 f8 68 be 2f ad 34 3e ce b3 55 bf
       0.1338735 -0.22751093 0.1764419 -0.83477485
000060 6c 68 63 bf 68 08 13 3f ef cb a5 3e ea 62 0f 3f
       -0.8883121 0.574347 0.3238215 0.56010306
000070 10 96 e3 3d 72 6e 4f 3f c0 2f ef 3e 4f f6 6f 3f
       0.111126065 0.810279 0.46716118 0.9373521
000080 1d bd 52 bf d9 e8 87 be eb 2d 6b be 0b 5d 6d bf
       -0.82319814 -0.26544836 -0.22966735 -0.927201
000090 09 21 73 bf 1a 3f 81 3f e0 47 22 3f 25 88 e8 3e
       -0.9497228 1.0097382 0.6339092 0.4541637
0000a0 02 09 31 3e 3d c7 a3 bf 8d 1e 3c 3e 60 72 80 be
       0.17288592 -1.2795178 0.18371029 -0.2508726
0000b0 41 cd 69 3f 78 6b 49 3d 0f 1a 36 3f 45 55 f1 3e
       0.9132882 0.049174756 0.7113351 0.47135368
0000c0 f9 2d e6 be 7f 3a fc 3e 54 54 1d bf bc 05 2b 3f
       -0.4495695 0.4926338 -0.614568 0.66805625
0000d0 44 0b 1b be 7c f8 0d 3f 6d 63 2b 3f a5 3d f7 3d
       -0.15141016 0.5545728 0.66948587 0.12072305
0000e0 56 2d 30 3f f9 50 49 bf ef cb dd 3f f4 bb 45 bf
       0.6881918 -0.7863918 1.732786 -0.7723992
0000f0 15 08 98 3f f1 7d b9 be 3c 0a 9d bf 2e 78 18 3f
       1.1877466 -0.36228898 -1.2268748 0.5955838
000100 3e 25 23 3f 16 9a 3c bf bb 34 43 3f 09 58 54 bf
       0.637287 -0.73672616 0.76252335 -0.8294683
000110 0f d1 67 bf f3 60 33 bf da f1 40 3f e5 ef 70 bf
       -0.90553373 -0.7006981 0.75369036 -0.9411605
000120 01 25 5c bf ec 55 35 bf c4 ec 32 3f 8a ab 58 3f
       -0.85993963 -0.7083423 0.69892526 0.8463675
000130 27 72 11 3f e2 25 07 bf 7e 32 58 3f eb 43 e7 3d
       0.5681481 -0.5279218 0.84452045 0.11292251
000140 29 11 1a 3d b0 2c cb 3e b1 02 22 3e 57 c6 f9 3e
       0.03761402 0.3968253 0.15821339 0.48784134
000150 92 1e 1b bf f4 25 e8 bd b7 bc 00 bf ae 6a a4 bf
       -0.6059352 -0.11335364 -0.50287956 -1.2845056
000160 14 d7 de 3e 84 1d ae be ec a1 14 3f b6 54 96 be
       0.43523467 -0.34006894 0.58059573 -0.29361504
000170 bc 9c b0 3d b8 c7 ad be c5 a6 34 3f e9 3b 2f bf
       0.08623645 -0.33941436 0.7056697 -0.6845079
000180 80 a6 57 bf 08 ee 88 3f 64 1b 7d 3e 29 0b 71 bf
       -0.84238434 1.0697641 0.2471748 -0.94157654
000190 66 40 58 bf ae 14 32 bf 85 65 67 bf ee 8a 02 3f
       -0.84473264 -0.69562805 -0.9038928 0.5099324
0001a0 62 68 54 3f 7b 31 13 bf 11 c5 76 bf e8 6c 9a 3f
       0.82971776 -0.57497376 -0.9639445 1.2064486
0001b0 6b b6 58 bf 09 71 e8 bc f3 8d 27 bf ed 1a 26 be
       -0.8465335 -0.028374212 -0.6545097 -0.16221209
0001c0 c7 6b 10 3f 08 e2 92 3e df 30 d1 be 46 8e 7d 3f
       0.56414455 0.28688073 -0.40857598 0.9904522
0001d0 fb ea 57 bf 0a 16 b2 3d de 61 0e 3c 98 5a 31 3e
       -0.84342927 0.0869561 0.008690326 0.17319715
0001e0 d6 7d 7f 3e aa 6b de be 9d 6e 3b bf f6 08 97 bf
       0.24950346 -0.43441516 -0.7321566 -1.179961
0001f0 b3 7b f8 3e 47 cc 08 3f e7 65 42 bf d8 10 26 3f
       0.48531875 0.534367 -0.7593674 0.6486945

decoder.2.weight f4 [128, 128]
000000 e3 10 33 bd b4 d1 6c 3d 24 3c 9f bd d3 ca 46 be
       -0.043717276 0.057817176 -0.07775143 -0.19413309
000010 8d 4d 0e be d8 aa 8b 3d 95 09 40 3d 57 ef e9 39
       -0.13896771 0.06819695 0.046884138 0.00044619545
000020 07 65 dd 3b b4 7f 46 3d 85 d3 b0 bd dd d7 e3 3d
       0.006756428 0.04846163 -0.08634094 0.11125157
000030 ac e1 54 bc dc a7 f0 3d 96 7d e7 bd 31 19 a8 3c
       -0.0129932575 0.11750767 -0.113032505 0.020519825
000040 e2 e7 1d 3d 3b d8 91 bd 44 ee 9b 3b 97 ed b4 3c
       0.03855122 -0.07121321 0.004758628 0.022085948
000050 a2 20 be 3d ad 6c 6e bc aa 50 8b bb 05 da 99 3d
       0.09283568 -0.0145522775 -0.0042515593 0.07512287
000060 e7 cf 64 bd 02 d9 83 bd a3 79 ae bd f3 b4 48 bd
       -0.055862334 -0.06437875 -0.08519294 -0.04900069
000070 4d fa a0 3d 27 64 9a 3d 37 9e 40 bb 3a cd 06 be
       0.07860241 0.07538634 -0.0029391178 -0.13164225
000080 a9 c2 b2 bc ae 13 47 bd e9 92 34 bd 5f 58 8e bd
       -0.021821337 -0.048602752 -0.044085417 -0.06950449
000090 3b 63 60 bd 8c fb 0b be 59 db 90 3d 77 c1 ea bc
       -0.054782134 -0.13670176 0.07073087 -0.028656704
0000a0 93 43 31 3e 43 8a b6 3d f7 ee 89 3d 00 fd a9 bc
       0.17310934 0.0891309 0.06735032 -0.020750523
0000b0 70 2b ee bc 01 ab c8 3d 2d 83 bb bd 5b 63 ff 3c
       -0.029073447 0.097982414 -0.09155879 0.031175306
0000c0 53 9d e9 bb 53 f2 4b 3d 5d 9d ee bc f4 7d a7 3b
       -0.00712935 0.049791645 -0.029127771 0.0051114503
0000d0 96 49 fc 3d ba f6 1e 3e 25 e6 86 bc 50 51 94 3d
       0.12318723 0.15523806 -0.016467163 0.07242072
0000e0 24 79 79 bc d7 91 c8 bb 24 cf db bd 47 29 80 bd
       -0.015226636 -0.006120901 -0.10732868 -0.06257873
0000f0 0e d3 ad bd 86 e6 0c 3d 0d 25 de 3c 8a ae 24 bd
       -0.08487521 0.03439953 0.027117277 -0.040205516
000100 3b ff 38 3d b3 be 00 be c1 e6 23 bd ca c9 24 3d
       0.04516528 -0.12572746 -0.040014986 0.040231504
000110 33 e9 9c bd 82 77 96 bc d4 d1 20 be 04 b8 c8 3d
       -0.07661667 -0.018367533 -0.15705043 0.09800723
000120 c9 e4 74 3d 9d c8 2f 3e b7 d4 95 3d 87 90 8a bd
       0.0597885 0.17166372 0.07315963 -0.06765848
000130 15 f5 7b bd 20 d7 33 3d 9e 05 b0 3c e8 74 d5 3d
       -0.061513025 0.04390633 0.021487053 0.10422689
000140 e2 16 49 bd 01 0c 43 be 14 98 8a 3d 86 ee 0d be
       -0.04909409 -0.19047548 0.06767288 -0.1386052
000150 0c eb 0a bd 3a 32 52 3c 3a 1c 55 3d 4b ac 06 3d
       -0.033915564 0.012829358 0.052028872 0.032879155
000160 f8 a0 d5 bc 64 3e 66 bd af 55 0f 3e ef cf b6 bd
       -0.026077732 -0.056211844 0.1399753 -0.08926379
000170 57 b6 13 3d 06 53 68 bd 13 f4 54 bd ec 67 d9 bd
       0.036062565 -0.056719802 -0.05199058 -0.10615525
000180 5f f2 65 3d e7 20 b7 bd 0f 82 25 be ce 24 f0 3c
       0.056139346 -0.089418225 -0.16162895 0.029314425
000190 54 9d 13 bc 91 19 d8 3b 53 f8 05 bd 07 02 1c ba
       -0.009009678 0.0065948446 -0.032707524 -0.000595123
0001a0 17 31 d1 3d 8a ef 97 3d 22 7b 01 bd a2 d0 df bc
       0.10214441 0.07418735 -0.03161157 -0.027321164
0001b0 f5 88 27 3e 68 85 aa bd 1f b2 bc 3d bd 34 00 be
       0.16360839 -0.083262265 0.092136614 -0.12520118
0001c0 10 cb 80 3d 96 73 cc 3d e1 b1 2c be e1 63 d3 bd
       0.06288731 0.09982984 -0.1686473 -0.10321785
0001d0 28 b3 63 bd 1a 6d cb 3d 16 f8 89 bd 3f 75 51 3c
       -0.05559078 0.09932919 -0.06736772 0.012784301
0001e0 95 f0 d4 3c 65 42 f3 3d 06 3a e0 3d ae 41 d0 3c
       0.025993625 0.11877898 0.10948567 0.025421944
0001f0 22 0e 5b 3d 8f bd 8d bc 6c 02 a7 bd 34 2d 51 3c
       0.053480275 -0.017302303 -0.08154759 0.012767125
000200 59 28 18 bd 9a 83 3d bd a9 ff 4c 3d 88 aa 29 3d
       -0.037147854 -0.046268083 0.050048504 0.041422397
000210 43 34 ae bd e6 67 ce bc e7 5d c2 3d 9a 5c 1e bc
       -0.08506062 -0.025196027 0.09490567 -0.009665633
000220 65 da b4 bd d1 2f 15 3c 01 a2 aa 3c b7 43 be bb
       -0.08830718 0.009105639 0.020829203 -0.005806412
000230 74 14 81 3d 6c 27 79 3d 88 f3 bb 3d 46 75 11 be
       0.06302729 0.06082861 0.09177309 -0.14204893
000240 5c b6 1c 3e 84 eb 5d bd 15 ef 05 be f0 5e 06 bb
       0.1530394 -0.054179683 -0.13079484 -0.0020503365
000250 02 cd b7 3c 26 35 06 bd ea f9 aa bd 86 08 fd 3d
       0.022436623 -0.03276553 -0.083484486 0.12355141
000260 5c f2 52 3d 8f cd 13 bd 3b 2d 31 bd 34 48 7c 3d
       0.051500663 -0.036084708 -0.043256026 0.061592296
000270 4a f8 ce 3b 87 a4 42 3c 0b 36 87 bd e9 33 05 3e
       0.0063162195 0.011880047 -0.06602105 0.13008083
000280 2c 0c 37 3e 16 ea 2b 3e dc 33 13 3d 44 97 58 bb
       0.17875737 0.16788515 0.03593813 -0.0033049146
000290 8d 82 44 bd 3c a8 e7 3d 90 07 e7 bb fe 5a d3 3c
       -0.047976065 0.11311385 -0.007050462 0.025800224
0002a0 ce 63 52 3d 08 76 2f bd e6 28 7e bd e0 f5 31 3d
       0.051364712 -0.042837173 -0.062050723 0.043447375
0002b0 77 7a 0f be 8f 78 e7 bc c1 5b 13 3a ee b7 31 3d
       -0.1401156 -0.028255729 0.00056212774 0.0433883
0002c0 d1 a4 b8 bc 8a d0 c5 3d 9f 66 c7 bd 6b 67 17 bd
       -0.022539528 0.09658916 -0.0973637 -0.03696386
0002d0 d6 17 bd bc cf f5 22 be 33 b5 16 bc 39 e8 de 3c
       -0.023082655 -0.15914081 -0.009198475 0.027210342
0002e0 80 2c c0 3c 03 da 55 bd 3c 5a 21 bd 57 12 77 bd
       0.02345872 -0.052209865 -0.039392695 -0.060320225
0002f0 cd 50 37 3e 26 e3 8e 3c 07 ed 75 bc ff 24 86 3d
       0.17901917 0.017442297 -0.015010125 0.06550025
000300 4e ac b6 3d 10 60 03 3e f5 52 fa bb 40 18 3c bd
       0.08919583 0.12829614 -0.007639284 -0.045921564
000310 37 31 38 ba 66 8c 1e 3d e2 af 8a 3d 6c b9 b9 3d
       -0.00070263766 0.038708113 0.06771828 0.090685695
000320 ce f4 ec bc 52 8e 47 bd c3 c4 a8 bd a5 94 51 bd
       -0.028925326 -0.04871971 -0.08240654 -0.05116715
000330 e1 1c 31 bd ce 4d 87 3d 48 66 e0 bc b7 de 3a bd
       -0.04324043 0.06606637 -0.027392522 -0.045622554
000340 dc 39 98 3d 47 e9 16 3d 5a f1 06 bd c1 a4 94 bd
       0.07432911 0.036843564 -0.032945015 -0.07257987
000350 1a f0 09 bd 81 2a 80 bd cd 54 ac bd d6 6e ed bd
       -0.033676244 -0.06258107 -0.08414612 -0.11593406
000360 5c 87 22 3b e5 08 69 3c 63 fe e0 bd d7 79 21 be
       0.0024799919 0.014223312 -0.109860204 -0.15769134
000370 bb 98 57 bd 45 37 8b bc d4 e5 83 bd 71 98 86 3d
       -0.05263589 -0.016994128 -0.064403206 0.06572045
000380 77 5b aa bc 0c e0 77 3d 4f 77 2e 3e 82 96 37 3d
       -0.020795567 0.060516402 0.170377 0.04482127
000390 0d 29 1a bd da fd 3b bd 82 59 4f bd c9 cd 8b bd
       -0.037636805 -0.04589639 -0.05062247 -0.0682636
0003a0 95 ea 6c bd 5a 4b 02 be ab 20 19 3d f8 f9 5f bc
       -0.057840902 -0.12724057 0.03738467 -0.013670437
0003b0 97 02 0c bd f9 0c d8 bd ba c6 4d bc e6 0d 6a 3c
       -0.034182157 -0.10549349 -0.012559587 0.01428554
0003c0 09 4c c7 3d ce bd 8c 3b 67 07 f7 bd 3d eb 30 bb
       0.097312994 0.0042950874 -0.12061959 -0.0026995682
0003d0 86 1b 98 3d ef 66 e8 3c 7f 3f 86 bd e6 0e 93 bd
       0.07427125 0.028369395 -0.0655508 -0.07180576
0003e0 cc 8e 80 3d b6 80 ca bd 3c 38 49 be f9 fa a8 3c
       0.06277236 -0.09887831 -0.19650358 0.020627486
0003f0 ca d9 9d bc 8d 90 34 bb 86 60 02 3e 3b e7 9a 3d
       -0.019268889 -0.002755198 0.12732133 0.07563635

decoder.2.bias f4 [128]
000000 7e b4 d8 3e fe 90 90 bd 49 cd a8 3e 80 fd a9 bd
       0.42325205 -0.07058905 0.3296912 -0.083003044
000010 c3 97 29 be 05 c3 d2 3e 79 2b be 3e c2 fe 54 3e
       -0.16561799 0.41164413 0.37142542 0.20800307
000020 a6 01 4a 3e 23 76 49 3e 2a 73 b8 be 46 ea 4d 3c
       0.19727191 0.19673972 -0.36025363 0.012568062
000030 0b 1c 83 3e ab 86 d5 3d ec 8f 97 3e 09 87 66 3e
       0.25607333 0.104260765 0.2960199 0.2251245
000040 3d 48 91 3e c8 1e ea 3d 82 cb 99 3e 0f 7b 1b 3f
       0.28375426 0.11431652 0.30038077 0.6073465
000050 e6 90 bf 3e e5 9b 42 be d2 05 bc 3e 6c 45 ac be
       0.37415236 -0.19004782 0.3672319 -0.33646715
000060 6d 0f 6b 3d 35 28 95 be 0d bb 78 3e b8 39 fb 3e
       0.057387758 -0.29132238 0.24290104 0.49067473
000070 35 96 92 be 51 9e 58 bf b6 76 da be 5e d4 e3 be
       -0.28630224 -0.8461657 -0.42668694 -0.4449796
000080 9b 4a 8a 3d ae b5 8a be 3d a2 3d 3e 15 d4 f7 3e
       0.06752511 -0.27091736 0.1851892 0.48403993
000090 aa 25 28 be 52 f3 86 3e b0 98 1a 3f b7 dd b4 bd
       -0.16420618 0.26357514 0.6038923 -0.08831351
0000a0 19 c6 3f bf 50 a4 1a be 6e 7b b9 3e 14 3d 5d be
       -0.7491165 -0.15101743 0.36226982 -0.2160533
0000b0 f4 65 18 3f b6 0f e5 be 21 e0 3b be b8 5c 89 be
       0.5953057 -0.4473855 -0.18347217 -0.2682855
0000c0 69 01 ac ba 1c 94 0f 3f 78 ef 3e bf ea 47 82 3e
       -0.0013122979 0.5608537 -0.7458415 0.2544549
0000d0 c1 8d a0 be 0b 7d b2 3e 0a 43 84 be 7c bf df be
       -0.3135815 0.34861025 -0.25832397 -0.43700778
0000e0 f0 7d ac be 75 cd e9 be d8 ef c2 3e 2f 4e d6 be
       -0.33689833 -0.45664564 0.3807361 -0.41856524
0000f0 3e 15 62 be de fa ad 3e e8 5b df 3d df 6d c3 be
       -0.22078416 0.3398046 0.109062016 -0.38169762
000100 06 3e 20 3f fd db 83 3e d1 9a 0f be 64 eb e0 3e
       0.6259464 0.25753775 -0.14023902 0.4392959
000110 2a c4 86 bd b0 21 93 3d b0 e1 b0 be 80 44 9b be
       -0.06580384 0.0718416 -0.34547186 -0.303257
000120 4a b1 b8 3e 9b 06 0d be 53 c2 0c 3c bf 5f 7d 3e
       0.3607276 -0.13772051 0.008591252 0.24743555
000130 5d d9 8f bd 93 cc b6 be 87 26 0b 3f 85 a3 4d bf
       -0.07023881 -0.35702953 0.54355663 -0.80327636
000140 e2 35 95 3d bd df 61 bd 62 35 3b be 3f d0 9a 3e
       0.07285668 -0.055145014 -0.18282083 0.30237004
000150 dc 52 fe be f6 a6 84 3d 00 2c 86 bc ba 15 b8 3e
       -0.49672592 0.06477158 -0.016378403 0.35954076
000160 16 71 92 3e d9 07 54 3e c9 2b 9b bc 81 f5 6a 3e
       0.28601903 0.20706119 -0.018941777 0.22945215
000170 d3 ca 4b 3d 0d 87 e4 be 34 51 22 be 26 99 04 3f
       0.049753975 -0.44634286 -0.15851289 0.51796186
000180 f5 ea f0 3e 75 3f bf be bc d4 0c 3f 57 79 af be
       0.47054258 -0.373531 0.55012107 -0.34272262
000190 29 1c fb 3d 15 03 e0 be b5 ac 4f be 9c d9 df 3e
       0.122612305 -0.4375235 -0.20280726 0.4372071
0001a0 c1 4f af be aa e6 e3 be fd 91 cb bd f6 02 38 bf
       -0.34240535 -0.4451192 -0.099399544 -0.7187952
0001b0 59 26 dc 3e f1 0c 27 be 1d 63 db be 4e 2b 63 3e
       0.42998007 -0.1631353 -0.42849055 0.22184488
0001c0 3c 05 12 3d 22 dc b2 3c be 98 a9 3d 44 a2 0c 3f
       0.035649523 0.021833483 0.082810864 0.549351
0001d0 e6 26 e2 3e 6c 81 3d 3e 95 4a 95 be 23 80 8a 3e
       0.44170302 0.18506402 -0.29158464 0.27050886
0001e0 f9 2b a8 3e 22 0c ba bd ec 82 ac be 2e c4 24 3e
       0.32846048 -0.090843454 -0.33693635 0.16090462
0001f0 bc 2d 46 3e fd 83 61 be 91 48 32 bf 45 38 a5 be
       0.19353384 -0.22023006 -0.6964198 -0.32269493

decoder.4.weight f4 [3, 128]
000000 73 36 46 3d 1f 1e 7a be 66 ef 62 3e d1 81 61 be
       0.04839177 -0.24425553 0.22161636 -0.22022177
000010 6e 47 87 3d 3b 3c 45 be 4f 90 99 be bb 11 48 be
       0.06605421 -0.19261257 -0.2999291 -0.19538014
000020 b8 77 28 3e 36 86 32 3e fe 74 29 3d ec 89 59 3a
       0.16451919 0.1743401 0.041371338 0.0008298445
000030 61 5a a1 be 70 08 95 bd 95 4c 38 be 0d c6 93 3d
       -0.31514266 -0.07277 -0.17997964 0.072155096
000040 8b 98 2b 3d c4 77 61 3e e8 41 9f 3b d9 f7 98 bd
       0.041893523 0.22018343 0.0048601516 -0.07469148
000050 b1 04 b5 3e 66 c1 53 be 0c 2f 52 3e b8 de 1b 3e
       0.35355142 -0.20679244 0.2052576 0.15221679
000060 93 be a9 bd ca 5e 4c 3e c9 16 5e be 61 43 af 3d
       -0.08288302 0.19958034 -0.2168838 0.085577734
000070 58 6a db b9 e1 bc 84 b9 33 09 2e be 80 16 76 3e
       -0.00041850167 -0.00025317728 -0.16995697 0.2403202
000080 12 8a d8 bd df bf 97 3e 88 06 80 3e 66 61 16 be
       -0.1057321 0.29638574 0.25004983 -0.14685592
000090 77 8d 86 3d 1b 68 d9 bb c2 b5 44 be db 9d 33 3e
       0.06569951 -0.006634725 -0.1920996 0.17540686
0000a0 a1 2a 17 be 6e b3 93 bd 73 8c c3 bd 93 2f 0f 3e
       -0.14762355 -0.07211958 -0.09548273 0.13982992
0000b0 07 3d 4e be 67 ca 47 bd 5b d1 00 3e 7c a8 0d be
       -0.20140468 -0.04877701 0.12579863 -0.13833803
0000c0 d7 7f 53 3e 1e 34 ac 3c 9e 1e 8d bc 25 3b 92 3e
       0.20654236 0.021020945 -0.017226513 0.2856075
0000d0 3f f0 19 bd 83 ce 4b 3d ad d3 51 3d bc 6a ca bd
       -0.037582632 0.04975749 0.05122726 -0.09883639
0000e0 bc c0 a3 3e 87 05 eb 3d 2a 51 06 bd 7b 85 c6 3d
       0.31982982 0.11475664 -0.032792248 0.09693428
0000f0 ab b9 8b 3e 72 d8 4f be ea 28 00 3e 7e 18 46 3d
       0.2729009 -0.20297411 0.12515607 0.0483632
000100 2e 3a 8a bd 99 00 c9 bd 4c cf 26 be 9f ec bd bd
       -0.06749378 -0.09814567 -0.16290015 -0.092736475
000110 99 a1 4b be 67 54 83 3d 30 1a 9a bd 8d 7c 1b 3e
       -0.19885863 0.06412583 -0.07524526 0.15184231
000120 91 50 4a 3d 3f 66 29 be f9 9b d1 bd b8 32 a2 be
       0.04939324 -0.1654291 -0.102348275 -0.3167932
000130 79 6d 89 be cc 0f 90 bd aa 07 e1 3c 60 91 24 bd
       -0.26841334 -0.07034263 0.027469475 -0.040177703
000140 1c f4 99 3d 27 b1 a1 bd 9a b9 db 3d 0e c6 eb bd
       0.07517263 -0.07895117 0.1072876 -0.11512385
000150 34 ce 32 be 7d 16 33 3e ab 60 06 3e 5a d9 16 be
       -0.17461473 0.17489047 0.13122813 -0.1473135
000160 30 f0 b3 bd fc ac 7a 3e d1 50 82 be fa b1 da 3d
       -0.087860465 0.24480051 -0.25452283 0.106784776
000170 98 1f 75 be 16 01 25 bc b5 2f 98 3e 39 bb 8e 3d
       -0.23937833 -0.01007106 0.29723898 0.06969304
000180 a4 f0 2a 3e e9 f1 55 3e 3e 26 29 be dc 19 2b bd
       0.1669336 0.20893063 -0.16518494 -0.04177271
000190 a4 55 7a 3e 66 7b 0c 3d c2 40 62 be 51 e1 c8 ba
       0.24446732 0.03429737 -0.22095016 -0.0015325939
0001a0 f6 81 62 3e 01 9d 48 be 4c 1d 4b be e1 ea 17 3e
       0.22119889 -0.19591142 -0.19835395 0.14835693
0001b0 aa e5 3b 3d ab a2 dc bd a9 29 51 bc 37 40 26 3e
       0.04587332 -0.10773214 -0.01276628 0.16235434
0001c0 2b f1 63 be a4 55 d8 3d 3e a5 0a be 57 cc c1 bd
       -0.22259967 0.1056321 -0.13539597 -0.09462803
0001d0 e2 70 91 3d 3c c9 e2 bd 95 e9 5f be c6 b3 2b 3e
       0.07101609 -0.11073539 -0.21866448 0.16767797
0001e0 01 a2 ca 3d 73 d1 98 3e aa b5 8d 3d d8 ef 3e bd
       0.09894181 0.29847297 0.06919415 -0.04661545
0001f0 93 80 97 3e cd 34 e5 3d 41 16 ea bd 43 f1 85 be
       0.29590282 0.111917116 -0.11430026 -0.2616063
000200 fc 68 8f be af a1 aa 3c 35 89 95 3d 88 ef b0 3a
       -0.28009784 0.02082905 0.07301561 0.001349912
000210 46 88 a6 3d 3d da 67 bd 1b ed b9 3b 19 cd 2a 3d
       0.08131461 -0.056604613 0.005674017 0.041699503
000220 26 4a f7 3d 7a bb 5c 3e d5 96 59 be 01 21 3f 3e
       0.120746896 0.21555892 -0.21248944 0.18664934
000230 67 b7 dc 3d 1c 80 3c 3e b9 df 29 3c 13 98 e6 bd
       0.10777169 0.18408245 0.010368281 -0.112594746
000240 ef d2 6f be f1 3c b7 3d 7c 05 0a 3e cf 3c 3b 3e
       -0.23420309 0.089471705 0.13478655 0.18284915
000250 50 8c d8 3d 25 24 de 3c 66 12 16 be e3 7b ae bc
       0.105736375 0.027116844 -0.14655456 -0.021299308
000260 00 db 48 be 22 cf 95 3d 45 da f4 3d 09 24 d9 bd
       -0.19614792 0.07314898 0.11955694 -0.10602576
000270 77 a3 53 be f2 8f 16 3d 09 bf 3d 3e 8b c5 bc 3b
       -0.20667826 0.03675837 0.18529905 0.0057608536
000280 58 3c 0d 3b 75 6c 9e bd 81 7f c3 bd 9b 0a 3f be
       0.002155086 -0.0773553 -0.09545804 -0.1865639
000290 13 08 f4 bd 44 db 53 3e 5b 91 d4 bd 1b f6 79 3c
       -0.119156025 0.20689112 -0.10379287 0.01525643
0002a0 39 c4 03 3e 0f 31 41 be 9c b0 81 3d 1d 46 89 bd
       0.12867822 -0.1886637 0.06332514 -0.06702826
0002b0 32 54 6d be ef 76 f6 3d d0 64 0d 3e c7 ce 75 bd
       -0.23176649 0.120344035 0.13807988 -0.06001165
0002c0 2a 03 2d bd 60 1b 71 bd 5d ff 62 3e 7c 84 53 be
       -0.042239346 -0.058863997 0.22167726 -0.20656008
0002d0 08 7f 1a be 4c 8f 2f be 33 a9 57 be 60 77 ec bd
       -0.15087521 -0.17144507 -0.21060638 -0.115462065
0002e0 ce 23 4c 3d 6e 2a 97 3d 0b 55 34 3e a5 58 22 be
       0.049838834 0.0738114 0.17610566 -0.15854128
0002f0 8f a0 e2 bb f1 5a 94 3e 63 63 08 3e 71 0b 44 be
       -0.0069161127 0.28975633 0.13319163 -0.1914499
000300 40 43 d2 bd 0a 2d 4d 3e 89 56 df 3d 21 a1 4b 3e
       -0.10266733 0.20036712 0.10905177 0.19885685
000310 3c 2b d7 3d 2c 21 5f 3e 3a 7e d0 3d 9a 66 33 be
       0.10506293 0.21789998 0.10180326 -0.17519608
000320 e2 6b 2a be 66 9c 18 be a4 c2 9b be 49 cf 21 be
       -0.16642717 -0.14903411 -0.30421937 -0.1580173
000330 c8 b6 95 be b5 73 33 3e 59 77 00 be 1c 12 40 3e
       -0.29241014 0.17524607 -0.12545528 0.18756908
000340 9c 57 0e 3e c1 e8 24 be 2d 9c 1f bd 51 70 6f 3d
       0.13900608 -0.16104414 -0.0389673 0.058456723
000350 80 da 61 be 36 44 7f bc 4d 11 09 be b0 90 44 be
       -0.22056007 -0.015580228 -0.13385506 -0.19195819
000360 44 2b 03 3e ee 16 36 bd 29 06 32 3e de 4e 00 be
       0.12809473 -0.04445546 0.17385162 -0.12530085
000370 74 24 1f bd 67 9d b1 3d 93 05 27 bd 78 59 52 bd
       -0.038853124 0.086726 -0.0407768 -0.051354855
000380 d0 12 14 be 8e b3 bc 3c 12 92 9e 3e 54 b6 2f 3e
       -0.14460301 0.023034837 0.30970818 0.17159396
000390 8e 19 03 3d cf 56 8a 3e 18 75 c9 3d ba c8 15 be
       0.032006793 0.27019355 0.09836787 -0.14627352
0003a0 42 66 92 bd fb f3 47 3e db 25 14 3e f0 5e 74 3d
       -0.071484104 0.19526665 0.14467566 0.059660852
0003b0 0d 39 91 3e 07 81 b9 bd 14 24 45 3e 68 8c 28 be
       0.2836384 -0.09057813 0.19252044 -0.1645981
0003c0 b3 06 15 be 0e 9e 55 bd 53 a6 85 be 5e 02 44 be
       -0.14553337 -0.052152686 -0.26103458 -0.19141528
0003d0 83 cc 02 be d7 0e 20 3e 17 fe f1 bc 0a 14 29 3d
       -0.12773328 0.15630661 -0.029540105 0.041278876
0003e0 81 ab 3e be cf 81 6a be 79 39 5d be 24 cc 10 3e
       -0.18620111 -0.2290108 -0.21603955 0.14140373
0003f0 37 23 e6 3c cd 0f 90 bd 3f 4b 11 3e ae d2 1e 3e
       0.028092964 -0.07034264 0.1418886 0.15510055

decoder.4.bias f4 [3]
000000 e0 34 9b 3c cc b3 e3 be 7a bf 53 3f
       0.018946111 -0.44473112 0.82714045

encoder.0.weight f4 [128, 3]
000000 f2 80 a4 3e b5 55 d4 3e af 9f 42 3e 0e b3 08 bf
       0.32129627 0.4147164 0.19006227 -0.53398216
000010 85 c1 94 3d 21 95 3e be 33 af 3f 3e c9 0b 37 be
       0.072634734 -0.18611576 0.18719177 -0.1787559
000020 d7 6c 71 3d c5 d0 91 be c0 fd 9c bd 1d c7 7a be
       0.05894169 -0.2847959 -0.076655865 -0.24490018
000030 37 d4 4e 3e 61 a3 a1 be 0c 23 11 bf e6 e5 b8 3e
       0.20198141 -0.3156996 -0.566941 0.361129
000040 52 94 dd 3e 83 76 f5 3d 0c f2 ce 3e 28 6c 41 3d
       0.43277222 0.11985495 0.40419042 0.047222286
000050 01 0d 93 3e ca a2 cd 3e 31 7e 4e ba c5 d5 b8 be
       0.2872086 0.4016326 -0.00078770804 -0.36100593
000060 5f 31 e4 3e f2 96 13 bf bd 25 ff be 8e a1 37 be
       0.44568917 -0.576522 -0.4983348 -0.17932722
000070 35 a5 f3 3e b3 e2 e5 be 9b ff b1 3e 42 c0 66 be
       0.4758698 -0.4489952 0.34765324 -0.22534278
000080 63 8e 9f 3e 10 8f 38 3e cb ad 26 bd 32 b6 4f 3e
       0.3116332 0.18023324 -0.040693086 0.20284346
000090 7f 8d f3 3c 74 6f 8a 3d 54 b1 0b 3e 34 ac fc be
       0.029730557 0.06759539 0.13641864 -0.4935013
0000a0 8b 2d 00 3f 4d bc 04 bf df fe 0b be 8a 64 a2 be
       0.50069493 -0.51849824 -0.13671444 -0.3171733
0000b0 98 07 30 be 25 69 f8 3d fd 80 03 be a3 73 36 3d
       -0.17190397 0.1212943 -0.12842174 0.044543874
0000c0 49 d1 94 3e df 4d b2 be 07 b8 7a 3d 1d 3f ca 3d
       0.29065922 -0.34825036 0.06121066 0.09875319
0000d0 8e 8b 88 be 85 8c bd 3e 3d e8 49 be 15 91 3a be
       -0.26668972 0.3702127 -0.19717498 -0.18219407
0000e0 9c 45 e5 3d cc a9 da be 69 67 f3 3e 8a 1b 96 be
       0.111949176 -0.4270767 0.47539833 -0.29317886
0000f0 43 e0 ea 3e 6c 45 0b bf 00 b5 4d 3e d0 0a 50 be
       0.45874223 -0.54402804 0.20088577 -0.20316625
000100 4b 18 e4 be 21 de f5 3e cc 20 ac 3e 6b 64 a9 be
       -0.44549784 0.48021033 0.33618772 -0.33084425
000110 c2 7c 2a be 35 1f a9 3e a1 bd ec 3e 0f 76 fd be
       -0.16649154 0.33031622 0.46238425 -0.49504134
000120 7c c6 e5 3e 4d c2 07 be 61 18 b8 bd 74 7c 94 3d
       0.44877994 -0.13257714 -0.08989025 0.072503
000130 db a8 f9 3e 2c 0e af 3e cc 24 a5 3e 19 b7 36 3e
       0.4876164 0.341905 0.32254636 0.17843284
000140 64 77 08 be 72 c2 9d 3e 6c b8 f4 bd 21 ab 88 be
       -0.13326794 0.30812413 -0.11949238 -0.2669306
000150 57 da f3 3e 5c f1 a4 3e 81 3e 08 3e 98 85 8c be
       0.47627518 0.32215393 0.13305093 -0.27445674
000160 44 24 ca 3e 0d 0f ea be 34 b9 4b bc fa 60 8c be
       0.39480793 -0.45714608 -0.012434293 -0.27417737
000170 4c 7d 5c 3d a6 e1 f5 3e 6e d3 0e bf 14 a2 ec be
       0.05383043 0.4802372 -0.55791366 -0.46217406
000180 32 c4 e8 3e bb b7 fa be 3b f3 de 3e 94 92 c1 be
       0.45462185 -0.489683 0.43544945 -0.37807143
000190 c2 f7 e5 bd 9e 66 06 3f ce 84 5e 3e 6c 8d 56 bd
       -0.11228897 0.5250033 0.21730348 -0.052380964
0001a0 6b 31 f0 3e a4 89 9e be ba 90 db bd 6c 21 04 bf
       0.46912703 -0.30964386 -0.10720964 -0.516135
0001b0 da 02 19 be e7 21 7c 3e db 44 9f be 62 45 d9 3e
       -0.14942494 0.24622308 -0.3110722 0.42435747
0001c0 31 30 cd 3d 75 45 ab be ee 90 c7 3d ed bd c5 3d
       0.100189574 -0.3345143 0.0974444 0.09655366
0001d0 a8 ed d2 3d 0e 3a 5b bd 0e 0c 0f bf 7d a3 24 be
       0.102992356 -0.053522162 -0.5587777 -0.16077991
0001e0 bf e1 9c bd db c2 96 3d f7 fa e1 be 9e ee f2 3d
       -0.07660245 0.073613845 -0.44136783 0.11861919
0001f0 83 1a b2 be 7e 46 4d 3e 7c ce b0 3e 9a c8 96 3e
       -0.34785852 0.20046422 0.34532535 0.29449922
000200 73 13 9a 3d 2f 19 9e be 5c 12 8c be 31 46 0b be
       0.07523241 -0.3087859 -0.27357757 -0.13600995
000210 ce 21 0e be a6 56 72 3e 95 f8 78 3d 4c 64 2f be
       -0.13880083 0.23665866 0.06078394 -0.17128104
000220 67 61 80 be c9 52 c8 3e 72 15 73 be b9 0c e8 3b
       -0.25074312 0.3912566 -0.2373865 0.007081595
000230 72 1e 98 3e a9 d7 7f be b4 2e 57 be 82 93 5d 3c
       0.29710728 -0.24984612 -0.2101391 0.013523938
000240 f8 ab e2 3e ca ce 22 3e 48 7d 15 3e 52 02 26 bd
       0.44271827 0.15899196 0.14598572 -0.040529557
000250 9d 2f f0 3e cd e4 70 3e 9d 3a 5c 3e fb 7c cc 3e
       0.46911326 0.2352478 0.21506734 0.39939103
000260 21 22 5c 3e 77 56 bd bd 26 79 93 3d b2 16 0b 3f
       0.21497394 -0.092450075 0.072008416 0.54331505
000270 0c 4b 9b be 05 39 e1 3e 41 cd d0 bd 41 84 51 be
       -0.30330694 0.43988815 -0.10195399 -0.20460607
000280 e7 4a 6e 3e cc 6f 09 3f 42 3b 08 3f e0 75 b9 be
       0.2327076 0.53686213 0.5321542 -0.36222744
000290 7d 92 cf be 07 1e 1e be f5 c4 e2 3e 22 30 2a 3e
       -0.4054145 -0.15441142 0.4429089 0.16619924
0002a0 da 81 32 3d 06 38 b6 bd 48 8b 0f 3e 5e f8 02 bf
       0.043580867 -0.088974044 0.14017975 -0.5116023
0002b0 cf 95 84 3e 6f c3 ef 3e 4d 0e c1 3e be 50 0f bf
       0.25895545 0.46828791 0.37706223 -0.5598258
0002c0 e9 c0 13 3f 10 a7 a4 3e ca 7d fe be f1 31 33 bc
       0.5771623 0.3215871 -0.49705344 -0.0109372
0002d0 7d 8d e5 3d a8 ef 01 be 9d f0 37 bd b6 6d 87 be
       0.112086274 -0.12689078 -0.0449072 -0.2645089
0002e0 9e c1 6e 3d b8 39 cb bd 48 5d 4e 3e e0 d6 a4 be
       0.058290116 -0.09923118 0.20152771 -0.32195187
0002f0 5a e9 bf 3e 13 cc ae 3d ea 73 c0 3e 87 eb b9 be
       0.3748272 0.08535018 0.37588435 -0.36312506
000300 7f 9f f3 3e 22 d7 0f bf e1 38 40 be f1 0f 82 be
       0.47582623 -0.5618764 -0.18771698 -0.25402787
000310 45 79 ef 3e 96 4f a5 be 3f 67 e2 3e f5 e6 09 3f
       0.4677221 -0.32287282 0.44219396 0.5386804
000320 50 5f 14 3e 38 09 48 be ef 9d db bd a8 26 a3 3e
       0.14489484 -0.19534767 -0.10723483 0.3186543
000330 3e 80 13 3f c5 01 da 3e a0 a0 9c be c5 6c d8 3d
       0.5761756 0.42579475 -0.30591297 0.10567621
000340 6a cc 00 3f 9a 9d 85 be 78 a7 e3 3b 15 1f d3 3e
       0.5031191 -0.26096803 0.006947454 0.4123465
000350 48 70 b8 3e de fd 77 be 26 01 dd be 4b f9 e8 bd
       0.36023164 -0.24217936 -0.4316494 -0.11375674
000360 d9 ab 85 be 96 fd f7 3e cd fb 50 bd e1 24 ce 3e
       -0.26107672 0.48435658 -0.051021386 0.4026251
000370 36 86 f7 bd 40 76 9c b8 28 1d 05 3f 44 9a d2 bc
       -0.120861456 -7.4606854e-05 0.51997614 -0.025708325
000380 36 82 f0 3e 56 6e be be 20 72 d7 bd e2 b8 09 3f
       0.46974343 -0.37193555 -0.105198145 0.53797734
000390 2c 48 e7 3d 0e 58 55 be d2 65 be be a6 ed f9 be
       0.112930626 -0.20834371 -0.37187058 -0.48814124
0003a0 c1 87 e9 bc bf 21 8b 3e e8 a9 e8 bd 4e c1 01 3e
       -0.028507115 0.27174184 -0.11360532 0.12671396
0003b0 6e 33 8d bd 89 40 d4 be fc 1f 87 3e 63 d4 12 bd
       -0.06894575 -0.41455486 0.2639159 -0.03584708
0003c0 c7 5f 96 be ff 99 6b 3e 24 88 90 3d 0f 87 81 3e
       -0.29369947 0.23007964 0.07057217 0.25298354
0003d0 0d 41 0d bf 4d 91 0b 3f 88 7b 7a be ed d8 36 be
       -0.55177385 0.54518586 -0.24461186 -0.17856188
0003e0 ed f6 a5 3e 75 2d a2 3e 1f 66 36 be 84 3e 7e 3e
       0.32414952 0.31675306 -0.17812394 0.24828535
0003f0 b1 c7 b4 be 8b 49 05 3d f5 bf 38 bc fd a0 97 3c
       -0.35308602 0.03254084 -0.011276235 0.018509382

encoder.0.bias f4 [128]
000000 ba 72 00 bf 4a 1f f6 3e df c7 7b be 8b 0a 0a be
       -0.5017506 0.48070747 -0.24587964 -0.13480584
000010 f0 10 9f be 2c e0 bd 3e 72 2e 0a 3f 58 36 e6 be
       -0.3106761 0.37085092 0.5397712 -0.44963336
000020 80 b0 ff 3e b9 28 f5 be f8 a5 7b bd d6 46 1b be
       0.49939346 -0.4788263 -0.061437577 -0.1516374
000030 e2 b8 e8 3d 62 b5 1d bd af fb 00 bf 2c 52 ca 3e
       0.113633886 -0.03850306 -0.5038404 0.39515817
000040 c7 e1 86 be ed a1 df be b3 a1 c6 3e 4f 46 31 be
       -0.2634413 -0.43678227 0.38795242 -0.17311977
000050 7d 37 97 be f3 5a a3 3e db 29 c9 be 04 ea 0b be
       -0.29534522 0.31905326 -0.39289746 -0.13663489
000060 f8 d9 02 3e c8 ac 6e be 8f fc b5 bd 9a 20 af 3e
       0.12778461 -0.23308098 -0.08886062 0.3420456
000070 f4 01 cf 3e 2c c7 dd be 23 4a ff 3d 8d b6 f2 3e
       0.40431178 -0.4331602 0.12465312 0.474049
000080 f6 49 06 3e 0a 07 13 bf c6 a6 d7 be 6a 52 e1 bd
       0.13114151 -0.57432616 -0.42119426 -0.11002047
000090 a2 3b e8 be ea 4d d7 3e df 6e 00 bd 5e c6 e7 3e
       -0.45357996 0.4205163 -0.031355735 0.4526853
0000a0 66 66 d6 be 84 f7 f3 3e 83 1d f6 3e 49 b6 39 3e
       -0.41875 0.47649777 0.4806939 0.18135943
0000b0 83 0a 29 3e b6 d8 92 3e 11 54 0e bf a7 fa a4 bd
       0.16507916 0.28680962 -0.55597025 -0.08055621
0000c0 d2 fc c5 3d fe db 91 be 0f fe 94 3e 1c 15 61 be
       0.09667362 -0.28488153 0.2910008 -0.21980709
0000d0 fd f2 a9 be 27 2d f1 3d 3c 8c cf 3e 6c f6 d8 3e
       -0.33193198 0.1177619 0.40536678 0.42375505
0000e0 d8 ee ce bd 51 44 57 be e3 eb aa 3e 92 d7 b5 be
       -0.101041496 -0.21022154 0.33383092 -0.3551603
0000f0 b7 dc a1 3e c7 59 96 bc 71 78 a5 3d 7b 50 a8 3e
       0.31613705 -0.018353356 0.08079613 0.32873902
000100 9f 15 85 bd 59 35 ab be 26 db c9 3e 9d 34 80 be
       -0.064982645 -0.3343914 0.3942501 -0.2504014
000110 86 ba f5 be ac d5 30 be 56 33 95 3e 1d c2 96 be
       -0.4799387 -0.1726901 0.2914073 -0.29444972
000120 68 ef 83 3e 61 fa 0b be 82 d3 c9 3e 44 0d d2 be
       0.2576859 -0.1366973 0.3941918 -0.41025746
000130 af a5 c2 3e 93 7e e2 3e 18 f7 9e 3e 5d 04 2d be
       0.38017032 0.44237193 0.31047893 -0.16896196
000140 dd 8e c4 3e 15 8b 2c 3e 9a f6 b3 be e0 58 19 be
       0.38390246 0.1684993 -0.3514908 -0.1497531
000150 97 60 06 3f 6c 05 bd be f5 59 a3 be 30 5e 09 3f
       0.52491134 -0.369182 -0.3190457 0.53659344
000160 a3 fd ae be c9 95 a5 be d7 27 dc be 32 3d 0e bf
       -0.34177884 -0.3234084 -0.42999145 -0.55562127
000170 10 22 a1 be bd 45 6c be 14 04 00 be 14 84 ef 3e
       -0.314713 -0.23073478 -0.12501556 0.46780455
000180 ba db a5 be d1 a5 88 3e cf d1 2b 3e cc 86 8e 3e
       -0.323942 0.26689008 0.16779254 0.27837217
000190 32 32 a7 3e ea 28 29 be 9b 87 89 3e b7 66 49 3e
       0.32655483 -0.16519514 0.2686127 0.19668089
0001a0 62 a4 01 3e f8 89 be be 87 d6 a0 bd 50 b7 d2 3e
       0.12660363 -0.37214637 -0.07853418 0.4115548
0001b0 32 15 76 be 83 18 b2 3e 28 ce 95 be 74 6d ee be
       -0.24031523 0.34784326 -0.29258847 -0.4656788
0001c0 57 ce f1 3c 97 c9 0c 3f 86 88 e2 bb b4 2d 90 3e
       0.029517336 0.549951 -0.0069132475 0.2815987
0001d0 23 b6 8e be 1b 08 d2 3e 4d 29 0c bf 74 14 a8 be
       -0.27873334 0.4102181 -0.5475052 -0.32828104
0001e0 54 db a1 3e 86 46 c8 be 20 ad 3e be 88 58 fb 3c
       0.31612647 -0.39116305 -0.1862073 0.030681863
0001f0 6d 4c 05 3f 54 7b cc be 5e 30 01 3f 4c 43 4a bd
       0.5206974 -0.39937842 0.5046443 -0.049380586

encoder.2.weight f4 [128, 128]
000000 b7 d5 28 3d 92 e5 ae bd 39 52 46 3c 58 1c 2e bc
       0.04121944 -0.08539881 0.012104564 -0.010626875
000010 44 20 56 3d 1d d8 a1 3d 0a d7 8e bd 3a a5 de bc
       0.052276865 0.079025485 -0.06974609 -0.027178396
000020 4a ad b2 bd 36 1f b2 3d 7f e6 26 3d 17 ea 25 3c
       -0.087244585 0.08697359 0.040747162 0.010126612
000030 58 1f 5d 3c 31 f4 53 3c 61 02 86 3d d3 e8 5d 3c
       0.013496242 0.012936638 0.065434225 0.013544279
000040 be cf 59 bc 7c 82 83 bd 39 0a 9d bd 84 4a 9d 3d
       -0.0132941585 -0.06421372 -0.076679654 0.07680228
000050 ce 6a 03 bd f0 17 55 3d 33 05 ab 3d 18 ed ed 3c
       -0.03208428 0.05202478 0.08350601 0.02904372
000060 f8 cd ce 3c bf 9c 67 bd de 1f 2c bd 6b 69 ae 3c
       0.025244698 -0.05654597 -0.04202258 0.021290502
000070 74 9a 38 3d 8d 00 b1 3b aa d6 99 3c d8 e6 94 3c
       0.045069173 0.005401677 0.018779118 0.018176481
000080 6f c4 4c 3c 80 43 19 bc c3 c0 af bd 5c 4c 15 bc
       0.012498005 -0.009354472 -0.08581688 -0.009112444
000090 53 b1 21 ba ff 05 7b bd 57 9a fe 3c 8e aa ac bd
       -0.0006168086 -0.061285015 0.031079454 -0.08430968
0000a0 28 ff 39 3b f4 7c a5 bd 95 04 b0 bd 49 07 54 3c
       0.0028380845 -0.080804735 -0.08594624 0.01294119
0000b0 55 2e 21 3b 3c 14 3a 3c d5 3e 5b bd 9c e6 86 3d
       0.0024594266 0.011357363 -0.05352672 0.06586954
0000c0 56 3a b9 3c 87 2f 96 3d a8 fd 9f 3d 51 67 e1 bc
       0.022610825 0.07333284 0.07812053 -0.027515085
0000d0 b6 74 b2 bd 76 2f a5 3b ee c7 0e bd fb 89 14 bd
       -0.08713667 0.005041058 -0.034858637 -0.0362644
0000e0 87 41 42 3d 44 7b 81 3d 5a 8a 6b bd ad 83 ce bc
       0.047425773 0.06322339 -0.05750499 -0.025209272
0000f0 ad 00 82 3d 43 4e 25 bd 2d 29 ac bd 4c 8c 17 3c
       0.06347785 -0.04035784 -0.08406291 0.009249758
000100 b2 60 74 3c 85 e3 83 3d a7 2a 60 3d 40 d6 2d bc
       0.014915632 0.0643988 0.054728176 -0.010610163
000110 b6 f7 eb 3c b7 fb 27 3d b9 bb 57 3d 4c 39 8f bc
       0.028804641 0.04101154 0.05266926 -0.017483376
000120 a7 9f f8 3c 8f 55 35 bc b6 74 9e bd 7c 27 f9 bc
       0.030349566 -0.011067762 -0.077371046 -0.030414335
000130 a0 c5 bb 3c 7f ca 2d 3c d8 f3 a8 bd a7 a2 4f bd
       0.022921383 0.010607361 -0.082496345 -0.050692227
000140 f1 e9 1c bd 42 fe 8a 3d eb 04 28 3d 15 a8 70 3d
       -0.03830904 0.06786777 0.041020315 0.058754046
000150 ab 38 b3 3d 85 3b 65 bd 10 7f 4d bc 06 3e 94 3d
       0.08751043 -0.055964965 -0.012542501 0.072383925
000160 b0 70 71 bd d5 0f 11 3d ba b9 b3 3d 20 02 7c 3b
       -0.058945358 0.03541549 0.08775659 0.0038453415
000170 66 86 7c bd de b3 ba bc 09 4f 1d bd f1 61 9b 3d
       -0.06165161 -0.022790845 -0.038405452 0.0758704
000180 4d ed 7a 3d af 6c 2d bd f1 82 a2 bd e2 db a1 3d
       0.061261464 -0.042339977 -0.07935131 0.079032674
000190 81 c0 0e bd ef 65 b4 3d 09 a9 2a 3c a7 ab 67 bc
       -0.034851555 0.08808505 0.010416278 -0.014140046
0001a0 34 31 cb 3c 86 df a2 3d 1f bd fe 3c a0 48 1d bd
       0.024803735 0.0795279 0.03109604 -0.03839934
0001b0 24 e6 87 3d 07 73 37 bc 82 4a f9 3c 88 ba 9f 3d
       0.06635693 -0.011196858 0.030431036 0.0779925
0001c0 69 18 84 bc 4d dc af bd 37 8a 31 3c f5 28 1c bd
       -0.01612492 -0.08586941 0.010836176 -0.038124997
0001d0 90 4e 92 bd ab 90 97 bd e4 86 ac 3d dd 42 87 3c
       -0.07143891 -0.0740064 0.08424166 0.016511375
0001e0 f9 31 4a bd da ac 2f bd 9d 4a 65 3c 34 df 17 3d
       -0.049364064 -0.042889453 0.01399484 0.037078097
0001f0 5a 5c 7b bd a9 03 9d 3d 9e 0c 78 3d 32 37 d3 3c
       -0.06136737 0.07666714 0.060558908 0.025783155
000200 b3 18 88 3c df 15 4f bc 1f 7d 60 3d 91 a7 49 bd
       0.01661334 -0.012639492 0.054806825 -0.04923207
000210 73 40 95 3d 8c f8 35 bd 1b 38 a5 3d 31 f2 ff 3b
       0.07287683 -0.044426486 0.08067342 0.007810854
000220 dd 9c 7b bd ce 3f 90 bd 48 54 00 bd e8 a1 00 3d
       -0.061428893 -0.0704342 -0.031330377 0.031404406
000230 72 91 87 3d 65 31 7d bd e3 c5 83 bd 91 da 84 3d
       0.06619538 -0.061814684 -0.06434228 0.06487001
000240 72 7d 9c 3c 19 77 23 bd 76 ba 4f 3d fc c1 cb 3c
       0.019102786 -0.039908502 0.050714932 0.024872772
000250 b8 35 91 bd d6 2c 8b bd a2 82 16 3d 2a e9 a5 bd
       -0.07090324 -0.06795661 0.036745675 -0.08101113
000260 11 61 49 bd 68 58 f5 bb e8 01 5e bd d7 14 58 3d
       -0.049164835 -0.0074873455 -0.054201037 0.05275425
000270 46 fa 04 bd e3 1a 9d bc 29 3a 35 3c 4d 46 76 bd
       -0.03246524 -0.01917786 0.01106123 -0.060125638
000280 e3 98 9c 3c 62 78 ab bd 45 cf 2d bd d1 8e 99 3d
       0.01911587 -0.083725706 -0.042433996 0.07497943
000290 fa c6 58 bc 3e 08 72 bd 5b 30 aa 3d 04 c5 98 3a
       -0.013231033 -0.05908989 0.08310004 0.0011655395
0002a0 03 c5 93 bd d9 25 36 3c 4e be 87 bd 51 74 98 bb
       -0.072153114 0.011117422 -0.066280946 -0.004652538
0002b0 51 b3 90 bd 26 bd 2d bc 55 58 8e bd 4f ce 9e 3b
       -0.07065452 -0.0106041785 -0.06950442 0.0048463712
0002c0 c5 85 19 3d 75 17 20 3d d2 8f a2 3d 25 a5 45 3d
       0.03748109 0.03908487 0.07937588 0.048253197
0002d0 c7 9d 87 bd 4f 06 8f bd 38 f4 52 3b 5b 3c ab bc
       -0.066218905 -0.06983625 0.0032189023 -0.020902803
0002e0 b2 1b 05 3d 60 7c 85 3d fe 76 a7 bd 00 93 ea 3c
       0.032497115 0.06517863 -0.08176993 0.028634548
0002f0 90 8c 1f bd 63 12 9b ba 00 81 59 bd e1 4d 8d bd
       -0.03895241 -0.0011831041 -0.05310154 -0.0689962
000300 bc 3a a8 bd 1b 49 ee bc 29 c5 48 bc 7f c4 9e ba
       -0.08214328 -0.029087594 -0.012254038 -0.0012113004
000310 d1 25 f7 3c f2 bb 6e bb 96 c6 13 bd eb ff 80 3c
       0.0301694 -0.0036427942 -0.03607806 0.015747031
000320 3d fb 8b 3d c1 87 76 bc eb 6d 96 3b c2 2d 36 3c
       0.06835029 -0.015047015 0.00459074 0.011119308
000330 e2 6c 8f bd a1 f5 c2 bc 9d b2 84 bd ad 06 5a 3d
       -0.070031896 -0.023798766 -0.0647938 0.053229023
000340 2c 9b 4b 3d 13 08 ee bc c6 83 ac 3d 34 de a5 bb
       0.04970853 -0.029056584 0.08423571 -0.005061889
000350 4d b4 a2 3c 58 01 79 3d 33 7a 86 3d e2 dc a0 3c
       0.019861365 0.060792297 0.065662764 0.019636575
000360 8a 49 a4 bc 26 c7 ff 3a 79 f4 e1 3c cb 86 a0 3d
       -0.020054597 0.0019514307 0.027582394 0.0783821
000370 b8 b2 9f 3d 2a 9f 20 bd 21 1c b5 3c 6f f6 96 bd
       0.0779776 -0.03921429 0.02210814 -0.07371222
000380 d7 a7 bf 3c 30 5e 9e bc 07 36 ce 3c cf 60 41 bd
       0.023395462 -0.019332021 0.025172247 -0.047211464
000390 17 91 24 bd 6d 58 e0 bc fd 99 43 bd 72 09 37 bd
       -0.04017743 -0.027385915 -0.047754277 -0.044686742
0003a0 59 ee 92 bd 0d db 87 3d 87 6c 7b bc 89 34 a2 bc
       -0.071743675 0.066335775 -0.015345699 -0.019800441
0003b0 ef a1 d1 bc 1a 8d 26 bd 66 e6 b2 3d e0 67 d3 bc
       -0.025589911 -0.04066191 0.08735351 -0.025806367
0003c0 f0 70 b5 bc 4d 6a 89 3d 39 4c 8d bd 2d e1 f7 3a
       -0.02214858 0.067097284 -0.06899304 0.0018911712
0003d0 5c d9 8f bd 29 27 9e bd 74 45 6d bd 17 6e 54 bd
       -0.0702388 -0.07722313 -0.057927564 -0.051862802
0003e0 30 68 0b 3d 06 51 2e bd 13 5d 2a bd 6a ce 0c 3d
       0.034034908 -0.04255774 -0.04159267 0.03437654
0003f0 df 28 94 bd c4 d5 42 bc 14 da 11 bd 72 8a 2f 3c
       -0.07234358 -0.011891786 -0.035608366 0.01071416
