L4DC_2024/models/decoder_Rossler_noise1.pt (torch, 168940 bytes, 19 tensors)

A.weight f4 [7, 7]
0.86969745 -0.029629905 -0.026024794 -0.03657458 0.010743931 -0.04740518 -0.08687176 -0.05854938
0.82540786 -0.043943238 -0.08512409 0.039887603 -0.044864118 -0.008761876 0.010982756 -0.025402537
0.78956455 -0.02537448 -0.017894587 -0.031399366 -0.03299219 0.028051412 -0.02022537 -0.024339749
0.83297396 -0.009026494 -0.03295346 -0.037933752 -0.034120895 0.030286284 -0.046640188 -0.095878094
0.8624222 -0.031173792 -0.06005921 -0.016390186 -0.0940747 -0.02784088 0.016050333 -0.09322721
0.8677575 -0.03977424 -0.063085295 -0.024365691 -0.024016364 -0.010005582 -0.03834382 -0.015022783
0.8897473
00000000: 7ea4 5e3f 6aba f2bc f331 d5bc 3acf 15bd
00000010: 5007 303c ef2b 42bd d2e9 b1bd 7ad1 6fbd
00000020: ee4d 533f d3fd 33bd 8a55 aebd 2f61 233d
00000030: 70c3 37bd f98d 0fbc 04f1 333c fb18 d0bc
00000040: e720 4a3f 24de cfbc ab97 92bc 9f9c 00bd
00000050: d222 07bd 13cc e53c adaf a5bc 2764 c7bc
00000060: c83d 553f dce3 13bc 35fa 06bd 6c60 1bbd
00000070: 5ac2 0bbd f11a f83c c809 3fbd bc5b c4bd
00000080: b4c7 5c3f 2e60 ffbc a500 76bd b644 86bc
00000090: 3caa c0bd 8f12 e4bc fd7b 833c e8ed bebd
000000a0: 5b25 5e3f 50ea 22bd dd32 81bd 8f9a c7bc
000000b0: f7bd c4bc 74ee 23bc 690e 1dbd 1e22 76bc
000000c0: 7bc6 633f

decoder.0.weight f4 [128, 7]
-0.01574952 0.29002026 0.3079432 0.30679283 -0.013317255 -0.31778902 -0.2439579 0.2453755
-0.0017005416 -0.22861302 -0.14222264 0.14593834 0.38488927 -0.17740601 -0.3328927 -0.40533066
0.03630376 0.22949113 0.20021145 0.34072053 -0.2454763 0.13228697 -0.25850448 0.26526383
0.20271623 -0.43611664 -0.20287059 0.026925325 -0.027248453 -0.01721034 -0.16714762 0.05010592
0.14918895 0.040117472 -0.0543526 -0.29757714 0.15517831 0.2523814 -0.21283704 -0.07200607
-0.13384281 0.2092804 0.14552261 -0.35841295 -0.09074705 0.18709195 0.41590634 0.7386751
0.12011724 -0.36124238 0.37668088 -0.45046094 -0.44317514 -0.21367899 0.11315474 -0.21092063
0.06565466 -0.09681093 0.21851926 0.12453198 0.043909695 -0.098071046 0.07673156 -0.12506811
-0.30122492 -0.029431196 0.33897164 -0.17082287 -0.19730932 0.0068919356 -0.37275615 0.45135468
-0.26729193 -0.24238062 -0.2559689 -0.02456181 0.01546479 -0.13442367 -0.041263442 0.17935996
0.29326236 -0.040830694 -0.059410155 -0.28042352 -0.00064863096 -0.2230816 0.3004553 -0.27304813
-0.1253203 0.3872902 -0.16941328 0.062266357 0.31419954 -0.26205343 0.26092732 -0.2693432
-0.18673658 -0.020559011 -0.07140823 0.17529094 0.2955809 0.101930626 0.057069365 -0.3429378
0.050950084 0.2227208 0.41354567 -0.29068735 -0.42665005 -0.108073376 0.12961361 -0.17685856
-0.07257519 -0.27390262 0.04559053 0.31865552 -0.17800958 0.0744527 -0.20762871 -0.06671128
0.110944085 0.12763639 -0.31286898 0.14620543 0.16947465 -0.07176619 0.06911237 0.34279475
0.16728161 -0.18931556 0.15892498 -0.19103189 0.10610332 0.286492 -0.26682022 0.032384463
0.37564817 0.3515668 0.12924577 -0.33554178 0.24072582 -0.26091567 0.123279184 0.16801451
0.50158346 0.17025456 0.12305117 -0.16407272 -0.098748945 0.16986258 -0.22294955 -0.044311028
-0.1270358 0.07237019 -0.13383989 0.44212478 -0.2213765 -0.21583694 0.2102933 -0.44791374
0.038619544 0.048902083 0.0216364 0.0026020769 -0.06218689 0.113237806 -0.2598699 0.18305458
-0.2954176 -0.02793302 -0.27672192 -0.36765197 0.2230203 -0.073206246 -0.20766209 0.05313868
0.27796605 -0.3134549 0.01336719 0.12194433 -0.1808009 0.16018759 -0.18763459 0.5004725
0.3232791 -0.24945131 0.36016732 -0.06833888 -0.10002589 -0.20009157 0.2760072 -0.30301085
-0.16553648 0.07791286 -0.36498886 0.20028658 0.23569492 -0.20482044 -0.025042174 0.05153488
0.16102365 -0.42420027 0.26386124 0.047635667 -0.014595728 0.020270288 0.07418786 0.080538385
-0.3058653 0.18139605 -0.13496757 0.11092949 0.19311295 0.13392012 -0.02700152 -0.40976948
0.16357213 -0.17172456 0.16101009 0.21466991 -0.24173918 -0.23722602 0.10695659 0.121891774
-0.16215652 -0.2244376 0.29375958 -0.2434364 0.15110901 0.31172776 -0.113462895 -0.2270046
0.13862634 0.37231752 0.09228576 0.00076200004 -0.30342072 -0.03722968 0.045770343 0.23660189
-0.12142018 0.10430223 -0.12914564 0.2951315 -0.2145158 -0.14078726 -0.14052922 0.17681116
-0.030499527 0.28213963 0.058306467 -0.045716595 0.27777535 -0.22620757 -0.3864077 0.01193539
00000000: 2305 81bc 897d 943e bbaa 9d3e f313 9d3e
00000010: 9e30 5abc 3eb5 a2be 1ad0 79be b743 7b3e
00000020: b5e4 deba 8819 6abe d0a2 11be dc70 153e
00000030: 3510 c53e eca9 35be e970 aabe 8087 cfbe
00000040: 40b3 143d b9ff 6a3e 3b04 4d3e ec72 ae3e
00000050: 245e 7bbe 3c76 073e b35a 84be a9d0 873e
00000060: d894 4f3e ae4a dfbe 4fbd 4fbe 8092 dc3c
00000070: 2638 dfbc b3fc 8cbc bf28 2bbe dd3b 4d3d
00000080: fdc4 183e 3852 243d d5a0 5ebd 085c 98be
00000090: 10e7 1e3e 2338 813e f4f1 59be eb77 93bd
000000a0: 170e 09be 9a4d 563e e103 153e e781 b7be
000000b0: 97d9 b9bd 0895 3f3e adf1 d43e d019 3d3f
000000c0: 0700 f63d c3f4 b8be 51dc c03e d1a2 e6be
000000d0: dae7 e2be aace 5abe acbd e73d 94fb 57be
000000e0: f375 863d cf44 c6bd 83c3 5f3e 9f0a ff3d
000000f0: a7da 333d 79d9 c8bd 7025 9d3d db11 00be
00000100: 273a 9abe b119 f1bc b18d ad3e 31ec 2ebe
00000110: 740b 4abe bfd5 e13b e5d9 bebe f617 e73e
00000120: 7dda 88be a032 78be 5b0e 83be d935 c9bc
00000130: 0860 7d3c 5ca6 09be db03 29bd 23aa 373e
00000140: 7c26 963e 163e 27bd 1058 73bd ac93 8fbe
00000150: e308 2aba 816f 64be 47d5 993e f7cc 8bbe
00000160: f753 00be e74a c63e ad7a 2dbe 020b 7f3d
00000170: c3de a03e de2b 86be 4498 853e 5ae7 89be
00000180: e037 3fbe 5f6b a8bc 7a3e 92bd 787f 333e
00000190: 6156 973e 01c1 d03d 91c1 693d 8b95 afbe
000001a0: 09b1 503d ec10 643e 42bc d33e f9d4 94be
000001b0: e071 dabe 9355 ddbd 6eb9 043e 691a 35be
000001c0: 4da2 94bd f73c 8cbe 23bd 3a3d d126 a33e
000001d0: 2548 36be a87a 983d 9f9c 54be ec9f 88bd
000001e0: a736 e33d 1db3 023e 5d30 a0be e0b6 153e
000001f0: c38a 2d3e 27fa 92bd c98a 8d3d cb82 af3e
00000200: df4b 2b3e f0db 41be 3bbd 223e dd9d 43be
00000210: b34c d93d 14af 923e a99c 88be 92a5 043d
00000220: f554 c03e 9000 b43e 0159 043e 22cc abbe
00000230: d480 763e bd96 85be cc79 fc3d ff0b 2c3e
00000240: c667 003f 3657 2e3e 4002 fc3d ae02 28be
00000250: e33c cabd 75f0 2d3e e34c 64be 7b7f 35bd
00000260: ac15 02be d236 943d 530d 09be 2e5e e23e
00000270: 85b0 62be 5c04 5dbe 2057 573e f354 e5be
00000280: 872f 1e3d 8d4d 483d d23e b13c 9b87 2a3b
00000290: aeb7 7ebd 39e9 e73d ab0d 85be a972 3b3e
000002a0: fa40 97be cad3 e4bc 7fae 8dbe e13c bcbe
000002b0: 6f5f 643e 28ed 95bd 5fa5 54be f2a7 593d
000002c0: 9151 8e3e 297d a0be 0f02 5b3c f3bd f93d
000002d0: df23 39be 3708 243e 4823 40be f71e 003f
000002e0: d784 a53e 2a70 7fbe da67 b83e 41f5 8bbd
000002f0: 60da ccbd cee4 4cbe d150 8d3e 3d24 9bbe
00000300: 6582 29be c790 9f3d d2df babe ed17 4d3e
00000310: 025a 713e 73bc 51be 3f25 cdbc 3d16 533d
00000320: 62e3 243e c730 d9be d218 873e 9e1d 433d
00000330: ec22 6fbc e00d a63c ceef 973d 4ff1 a43d
00000340: 609a 9cbe e3bf 393e f034 0abe 002f e33d
00000350: 67bf 453e 5b22 093e 4b32 ddbc 4ecd d1be
00000360: 747f 273e 90d8 2fbe d4df 243e 6ed2 5b3e
00000370: 7a8a 77be 61eb 72be 0f0c db3d 65a2 f93d
00000380: 5c0c 26be f8d2 65be a867 963e 6447 79be
00000390: 52bc 1a3e c89a 9f3e 3c5f e8bd e573 68be
000003a0: 10f4 0d3e 67a0 be3e 5100 bd3d f5c0 473a
000003b0: f659 9bbe 267e 18bd af79 3b3d c447 723e
000003c0: 25ab f8bd 689c d53d c13e 04be 7a1b 973e
000003d0: 08aa 5bbe 892a 10be e4e6 0fbe fc0d 353e
000003e0: 25da f9bc 9b74 903e c3d2 6e3d 5341 3bbd
000003f0: 9238 8e3e f5a2 67be 3bd7 c5be a78c 433c

decoder.0.bias f4 [128]
-0.95236856 1.1528031 1.0015805 0.37114307 -1.2525043 -0.40259933 0.024660999 -0.9986757
-0.6269244 0.82001793 -0.20234454 -1.6414036 -0.9724089 0.3488546 0.45989412 0.48479515
1.284752 0.61519223 -0.81183505 0.3827258 -0.31957558 0.8463544 0.012599304 1.1380305
0.32556814 -0.75391114 1.3828694 -0.7186833 1.0186794 -0.89921165 -1.2197971 0.17556916
0.53624487 -0.71596193 -0.51408887 -0.7642883 1.252082 -0.7831941 -1.5327502 0.29972908
-0.17180996 0.78569144 1.4405485 0.54376787 1.2946289 -0.9560129 -1.2898844 -1.3620903
-1.8031582 -0.7969196 -0.011074299 0.67967755 0.5126629 -1.5212278 -0.30808723 0.98871344
0.41480663 -0.5514817 0.32869616 0.010325625 1.4627073 -1.3957492 -0.19702254 0.6620027
0.944262 -0.7813877 -0.8501599 -0.8528573 1.0036191 0.035628792 0.6767754 -1.0481321
-1.3482094 -0.089997806 0.6874657 0.4657278 -0.96784383 0.5485785 1.0024445 -0.42374608
0.39416724 -1.1511194 0.9393058 -1.381942 -0.9712102 -0.83205765 0.43728003 0.45130187
-0.30391285 -0.36326587 1.0111289 -0.87864614 -0.8992355 0.07334767 -0.54462963 1.3113865
-0.44450557 0.13462318 -1.2497145 -1.15047 0.33572808 -0.053208653 -0.87167084 0.045507208
-0.257472 0.5674746 0.78196245 -0.78985393 -0.07552488 -0.5722041 1.2875997 0.2978062
-1.0532899 -1.0897366 -1.2416011 -0.15111168 -0.3664502 -1.011516 -0.31005445 -0.76125383
0.54815537 1.1707548 -0.5459812 -0.6217436 0.2543224 -0.98864704 -0.6360375 0.39790884
00000000: 6dce 73bf 0d8f 933f ca33 803f 7706 be3e
00000010: 1052 a0bf 8021 cebe dd05 ca3c 36a9 7fbf
00000020: 1e7e 20bf b2ec 513f 6833 4fbe 8319 d2bf
00000030: caef 78bf 129d b23e 3e77 eb3e 1237 f83e
00000040: c172 a43f 3d7d 1d3f 6cd4 4fbf a3f4 c33e
00000050: 699f a3be afaa 583f 506d 4e3c fcaa 913f
00000060: deb0 a63e 5200 41bf dd01 b13f a1fb 37bf
00000070: 1664 823f bc32 66bf 5022 9cbf 67c8 333e
00000080: 5847 093f 4849 37bf 549b 03bf 66a8 43bf
00000090: 3944 a03f 697f 48bf 2931 c4bf 1776 993e
000000a0: f3ee 2fbe 1323 493f e563 b83f 5f34 0b3f
000000b0: 66b6 a53f 43bd 74bf ef1a a5bf fa58 aebf
000000c0: e3cd e6bf ec02 4cbf fa70 35bc 59ff 2d3f
000000d0: e03d 033f 98b7 c2bf 9cbd 9dbe 531c 7d3f
000000e0: 8961 d43e e82d 0dbf dd4a a83e cf2c 293c
000000f0: fe39 bb3f e9a7 b2bf 47c0 49be 0279 293f
00000100: 28bb 713f 0609 48bf 14a4 59bf db54 5abf
00000110: 9776 803f 7fef 113d 2741 2d3f 3129 86bf
00000120: 2092 acbf c550 b8bd c1fd 2f3f e073 ee3e
00000130: 9dc4 77bf a46f 0c3f 1a50 803f 3ff5 d8be
00000140: 4ad0 c93e e157 93bf 5876 703f 7ae3 b0bf
00000150: 3ba1 78bf bb01 55bf 2be3 df3e 0a11 e73e
00000160: 779a 9bbe fcfd b9be ac6c 813f f4ee 60bf
00000170: 4c34 66bf 4e37 963d d96c 0bbf 83db a73f
00000180: 3c96 e3be a9da 093e a5f6 9fbf 9a42 93bf
00000190: 8de4 ab3e 51f1 59bd d225 5fbf c465 3a3d
000001a0: 5fd3 83be 0446 113f b12e 483f de33 4abf
000001b0: caac 9abd f87b 12bf 11d0 a43f 0e7a 983e
000001c0: 34d2 86bf 7d7c 8bbf c9ec 9ebf 05bd 1abe
000001d0: 5c9f bbbe 5b79 81bf 75bf 9ebe 88e1 42bf
000001e0: e953 0c3f 4bdb 953f 6dc5 0bbf 972a 1fbf
000001f0: 8c36 823e f917 7dbf 5bd3 22bf b5ba cb3e

decoder.2.weight f4 [128, 128]
-0.08015318 -0.15628484 0.052282356 -0.0018808985 0.122054674 -0.027824996 -0.020854281 0.13553369
-0.08039306 0.1296942 0.035797138 -0.009935044 -0.06284169 0.015265072 -0.07318402 0.00030887077
0.08584936 0.023922095 -0.041289296 -0.109055795 -0.13429958 0.15554708 0.17909098 0.16690525
0.12398585 -0.10010457 -0.092602246 0.1493621 -0.0740298 0.021180918 -0.023176081 -0.04769916
-0.10264848 0.029891182 -0.12478605 -0.089848705 -0.015398474 0.018533181 -0.02311411 -0.08576093
0.080931015 0.038664285 -0.024175223 0.0566723 -0.04842741 0.0861803 -0.049792234 -0.05060963
0.09194871 0.094617985 -0.024285438 -0.07790933 -0.0783556 0.016939605 0.10394225 0.07149913
-0.039831802 -0.00021647375 0.113254175 0.08125072 0.010391002 -0.022180093 -0.054057892 -0.0041497075
-0.048232432 -0.0051140124 0.023016898 0.04926569 0.049347565 0.004411381 -0.037914373 0.019687332
-0.101671085 -0.04731316 0.11846682 0.07778101 0.14417914 -0.03045905 -0.0032627215 0.010311052
0.004003161 -0.14940737 0.06541136 0.08385244 -0.07913552 0.04338727 -0.039796747 -0.00059567654
-0.08700394 0.022520293 -0.030048927 0.09311099 -0.12064112 0.0037507694 0.053948242 0.058785375
-0.017840337 -0.06579837 0.018790731 0.062035896 -0.044272 0.09260245 0.10096757 0.08174665
0.042566862 -0.015595777 0.03253931 -0.08295372 -0.037674017 -0.031945728 0.052505836 -0.06376868
-0.025731176 -0.07031332 -0.01456725 0.005781231 0.022942573 -0.06667907 0.18373889 -0.04349235
0.09846102 0.0691897 -0.051581454 -0.04303647 -0.00023825045 -0.02423085 -0.06113772 -0.07394959
-0.011277131 0.07305915 0.32431656 0.10018356 0.09624841 -0.066504814 -0.0031945999 0.059947416
-0.123286396 0.09818216 0.12974636 0.025712043 -0.06479757 -0.12211513 0.091783136 -0.015916139
0.2011821 -0.074231274 0.08739115 0.021421894 -0.055107165 0.019444987 0.042207886 -0.10928101
0.091835804 -0.19653536 0.080366194 0.072940476 0.114996955 0.104493074 -0.15206613 0.0749513
0.16673778 -0.14177091 -0.044480015 0.2298106 0.09603651 -0.12726109 0.006038174 -0.020596376
-0.038626496 0.027381742 -0.13713878 0.25212446 0.08580892 0.13517143 0.042615175 -0.19339687
0.06609979 0.12956288 -0.0125480015 0.1520263 0.029570762 -0.01279545 0.025281865 0.15226622
0.012217011 -0.1325897 -0.07831702 0.062881164 0.09876928 0.11346921 0.012493721 0.09370629
-0.15619664 0.057291407 0.05523465 0.14259316 0.0924215 -0.0016437115 0.12139892 -0.06646792
-0.13965768 0.121645465 0.07682254 -0.025890624 -0.035899833 -0.14631383 0.10077077 -0.03936617
-0.14453466 0.009305947 0.053691607 -0.103716046 -0.12037027 -0.026248986 0.11503495 0.21580489
0.024899615 0.09178375 -0.0028545628 0.0355398 0.14558956 -0.10702934 0.044987354 -0.014653143
-0.037604805 0.0007635524 -0.31974038 -0.021802917 0.0026956447 0.1214725 -0.2592352 0.13843152
-0.11478573 -0.0009587624 -0.1470292 -0.055238687 0.010689357 0.052158955 -0.032159496 0.0035235444
-0.1512992 -0.00022356556 -0.18385449 -0.07759416 0.07910688 0.024818752 0.04521071 -0.122395895
0.1454552 -0.07108881 -0.017167974 0.092790574 -0.086971186 -0.09549417 0.10641403 -0.08942449
00000000: 5a27 a4bd 2209 20be 0626 563d 7b88 f6ba
00000010: cdf7 f93d 3ff1 e3bc 99d6 aabc 58c9 0a3e
00000020: 1ea5 a4bd 8ece 043e 05a0 123d 98c6 22bc
00000030: 25b3 80bd 5a1a 7a3c 81e1 95bd efef a139
00000040: cad1 af3d 45f8 c33c f71e 29bd a558 dfbd
00000050: d485 09be bc47 1f3e a063 373e 36e9 2a3e
00000060: 4bec fd3d a003 cdbd 3fa6 bdbd 61f2 183e
00000070: f09c 97bd 9b83 ad3c c4db bdbc 3260 43bd
00000080: 5e39 d2bd 5ade f43c d48f ffbd 9902 b8bd
00000090: e249 7cbc e6d2 973c cd59 bdbc 6da3 afbd
000000a0: 29bf a53d 715e 1e3d 1e0b c6bc 3721 683d
000000b0: d25b 46bd 4c7f b03d f1f2 4bbd 0b4c 4fbd
000000c0: 9b4f bc3d 13c7 c13d 41f2 c6bc ed8e 9fbd
000000d0: e778 a0bd edc4 8a3c addf d43d 236e 923d
000000e0: ac26 23bd 3bfd 62b9 cef1 e73d c766 a63d
000000f0: 053f 2a3c 07b3 b5bc cf6b 5dbd 45fa 87bb
00000100: 5f8f 45bd 7293 a7bb ef8d bc3c d2ca 493d
00000110: ac20 4a3d 598d 903b 1a4c 1bbd 5447 a13c
00000120: ee38 d0bd 72cb 41bd bb9e f23d a64b 9f3d
00000130: b2a3 133e 4285 f9bc 62d3 55bb b0ef 283c
00000140: f32c 833b 3ffe 18be 64f6 853d d4ba ab3d
00000150: ce11 a2bd dab6 313d ea01 23bd 2d27 1cba
00000160: 1f2f b2bd 7a7c b83c 2b29 f6bc fab0 be3d
00000170: b112 f7bd 78cf 753b d5f8 5c3d efc8 703d
00000180: e625 92bc 4cc1 86bd 05ef 993c 5a19 7e3d
00000190: 8f56 35bd 5aa6 bd3d 16c8 ce3d ca6a a73d
000001a0: 975a 2e3d 6e85 7fbc f147 053d a4e3 a9bd
000001b0: 1250 1abd 86d9 02bd 5c10 573d 2799 82bd
000001c0: 30ca d2bc 6e00 90bd 7aab 6ebc 7b70 bd3b
000001d0: 10f2 bb3c 098f 88bd 0c26 3c3e 0925 32bd
000001e0: eea5 c93d 54b3 8d3d 1347 53bd 0247 30bd
000001f0: ded2 79b9 c77f c6bc 8c6b 7abd e272 97bd
00000200: b7c3 38bc 09a0 953d d20c a63e 0a2d cd3d
00000210: e31d c53d ad33 88bd 7e5c 51bb 6c8b 753d
00000220: 947d fcbd ba13 c93d 3bdc 043e 10a2 d23c
00000230: 97b4 84bd 7f17 fabd ccf8 bb3d 9062 82bc
00000240: ae02 4e3e 9106 98bd 22fa b23d f87c af3c
00000250: 0db8 61bd 184b 9f3c 2de2 2c3d b9ce dfbd
00000260: 6914 bc3d 9140 49be 0897 a43d d161 953d
00000270: 8683 eb3d 7700 d63d 39b7 1bbe 1180 993d
00000280: 4fbd 2a3e 652c 11be ad30 36bd 7853 6b3e
00000290: caae c43d bb50 02be e0db c53b bbb9 a8bc
000002a0: d136 1ebd ad4f e03c 1c6e 0cbe 7516 813e
000002b0: 96bc af3d 616a 0a3e 408d 2e3d d409 46be
000002c0: 545f 873d 22ac 043e 2296 4dbc c8ac 1b3e
000002d0: 623e f23c 02a4 51bc ea1b cf3c adeb 1b3e
000002e0: dc29 483c 98c5 07be ac64 a0bd d7c7 803d
000002f0: 8c47 ca3d 8c62 e83d 77b2 4c3c 15e9 bf3d
00000300: 03f2 1fbe 65aa 6a3d ba3d 623d f103 123e
00000310: 7c47 bd3d ce71 d7ba ff9f f83d 5520 88bd
00000320: 6c02 0fbe 4221 f93d 2355 9d3d 9318 d4bc
00000330: b40b 13bd 4bd3 15be e860 ce3d 6c3e 21bd
00000340: e500 14be f977 183c bbeb 5b3d 1469 d4bd
00000350: b084 f6bd 1d08 d7bc 7297 eb3d f5fb 5c3e
00000360: 47fa cb3c 1ef9 bb3d 9e13 3bbb 2e92 113d
00000370: 6e15 153e 3332 dbbd a944 383d bc13 70bc
00000380: 7f07 1abd 2229 483a 03b5 a3be 089c b2bc
00000390: 6aa9 303b 93c6 f83d 7aba 84be fec0 0d3e
000003a0: c814 ebbd 7555 7bba d38e 16be f641 62bd
000003b0: 6a22 2f3c a1a4 553d adb9 03bd 44eb 663b
000003c0: 2dee 1abe ec6c 6ab9 5a44 3cbe b0e9 9ebd
000003d0: ca02 a23d b250 cb3c de2e 393d b3aa fabd
000003e0: 35f2 143e 0397 91bd daa3 8cbc fc08 be3d
000003f0: f31d b2bd 7392 c3bd 99ef d93d 3024 b7bd

decoder.2.bias f4 [128]
-0.06296063 -0.4143665 0.3905131 -0.5200188 -0.28376883 -0.25446647 0.22477427 -0.64187163
-0.20397888 0.42966744 -0.25339296 -0.68087584 -0.3819483 -0.3818315 -0.34826282 0.65946865
0.39782986 -0.17505029 0.25026175 0.82975507 0.7910832 0.58193135 -0.63056743 0.4456942
-0.3001845 -0.39197987 0.6671982 -0.3633115 0.30146918 -0.32468402 0.35143197 0.26720443
-0.279065 -0.15733255 0.5390716 0.02509536 0.8950208 -0.011872648 0.27731207 -0.24021652
0.5611564 -0.5125661 -0.15777677 -0.32835576 0.8830223 0.18961185 -0.5771861 -0.19969136
0.55008787 -0.28514582 0.31420612 -0.1086806 0.31149384 -0.078798756 -0.34844294 0.028378274
-0.0083890725 -0.6216542 0.46429944 0.25947955 -0.64605457 0.57473606 0.08954939 0.42968792
-0.1772271 -0.84821886 0.34979886 0.36323223 0.39691037 -0.25300875 -0.7436154 0.08950773
-0.54802024 -0.5205287 0.7308461 -0.17398451 0.29652756 -0.4894182 0.85434043 0.5114572
0.1195449 -0.57018703 -0.32445607 -0.3138775 0.2424078 -0.48916444 -0.6699363 -0.20363839
-0.51041836 -0.5980778 0.074922405 -0.60472506 0.22435924 0.1661165 -0.07513112 -0.45367908
-0.22646832 -0.47046095 -0.036128882 -0.37050736 -0.42243573 0.6407085 0.044838067 0.26219133
0.31511763 0.3536059 -0.22573785 -0.10156561 -0.11001556 -0.09020562 0.8074789 0.08960673
0.66417485 0.57519245 0.54540694 -0.03251112 -0.43479246 0.09027405 0.20714413 0.4725884
0.2028637 -0.40140754 0.016241927 0.4192848 -0.20615159 -0.040265493 -0.24075201 -0.062834516
00000000: 81f1 80bd d927 d4be 55f1 c73e f41f 05bf
00000010: 264a 91be 6e49 82be 3a2b 663e b351 24bf
00000020: d7df 50be 5ffd db3e b9bc 81be e14d 2ebf
00000030: ba8e c3be 6b7f c3be 814f b2be f0d2 283f
00000040: 5bb0 cb3e 6240 33be 4f22 803e d46a 543f
00000050: 6e84 4a3f 74f9 143f de6c 21bf 0832 e43e
00000060: c8b1 99be 96b1 c8be 80cd 2a3f f703 babe
00000070: 2b5a 9a3e fc3c a6be e4ee b33e 05cf 883e
00000080: 9ce1 8ebe c91b 21be 9900 0a3f c994 cd3c
00000090: 1520 653f 7f85 42bc d9fb 8d3e 52fb 75be
000000a0: f2a7 0f3f 8837 03bf 3c90 21be 3f1e a8be
000000b0: c00d 623f 9c29 423e 78c2 13bf e47b 4cbe
000000c0: 8fd2 0c3f a2fe 91be a0df a03e ef93 debd
000000d0: 1f7c 9f3e 3e61 a1bd 1d67 b2be 8e79 e83c
000000e0: 5272 09bc bb24 1fbf a8b8 ed3e 81da 843e
000000f0: d563 25bf e721 133f ac65 b73d 0e00 dc3e
00000100: 057b 35be df24 59bf d618 b33e 93f9 b93e
00000110: d637 cb3e 5d8a 81be 945d 3ebf d44f b73d
00000120: 0e4b 0cbf 5e41 05bf bb18 3b3f ff28 32be
00000130: 76d2 973e 0695 fabe 0eb6 5a3f dcee 023f
00000140: f5d3 f43d c7f7 11bf 1b1f a6be 8db4 a0be
00000150: c039 783e c373 fabe f280 2bbf 9586 50be
00000160: c7aa 02bf a01b 19bf eb70 993d 43cf 1abf
00000170: 6ebe 653e 721a 2a3e 58de 99bd a048 e8be
00000180: 50e7 67be 42e0 f0be e1fb 13bd 24b3 bdbe
00000190: 7f49 d8be 7905 243f 1fa8 373d f13d 863e
000001a0: 1957 a13e d50b b53e d327 67be a101 d0bd
000001b0: d74f e1bd b9bd b8bd f0b6 4e3f bc83 b73d
000001c0: 5d07 2a3f d03f 133f ca9f 0b3f 612a 05bd
000001d0: 1e9d debe 9ae1 b83d 971d 543e 1bf7 f13e
000001e0: 80bb 4f3e 4a85 cdbe ca0d 853c 7fac d63e
000001f0: 6719 53be 6eed 24bd b287 76be 62af 80bd

decoder.4.weight f4 [3, 128]
0.053598803 0.12859982 0.07508251 -0.09963446 0.08669887 0.026321275 0.1590594 -0.084183924
-0.15553546 0.021484617 0.058598705 0.02024145 -0.2446531 0.13386002 0.2524309 -0.014969073
0.1478148 -0.07535442 0.17351265 -0.101187535 -0.153886 -0.16756937 0.22795 0.2405007
0.0054350616 0.21599768 -0.117387965 0.13541196 0.021228153 0.12773693 0.066275045 -0.21082477
0.04716483 0.32004294 -0.07265759 -0.34761387 -0.35615265 0.048263803 0.2172143 0.16994807
0.07040258 0.21000601 0.25546557 0.21827307 -0.27300003 -0.010122988 0.20379785 0.24426141
0.032452095 0.1983736 -0.3614829 0.30188635 -0.052862976 -0.08459394 0.1244006 -0.13652647
0.12801023 -0.17628302 -0.16871415 0.013675324 0.19514455 -0.123636745 -0.07988541 0.06498388
0.1560693 0.060003366 -0.17417078 0.2093214 0.067581594 0.13142435 0.058041453 -0.21236604
0.13388245 0.0065784333 -0.06772775 -0.03957517 0.079003744 -0.016537461 -0.16406637 0.06081122
0.2517005 0.12332123 -0.10204492 -0.2073259 -0.17898275 -0.11563292 0.2788262 -0.23589167
0.076167956 0.23036632 -0.003012392 0.16956164 0.050979976 0.17972566 0.119942896 0.16418841
-0.31152326 -0.05505568 -0.1584783 -0.1185485 0.3191534 0.03415036 -0.09251425 -0.31391686
0.1854289 -0.010549806 -0.16327813 -0.33187613 0.19749852 0.06017499 -0.0843866 -0.21979713
-0.12590379 -0.21461996 -0.31194773 -0.23548903 -0.16934815 0.25167152 0.111173525 0.16507667
-0.19338746 -0.15698324 0.2645361 0.16427678 -0.20778427 -0.25155583 -0.22492592 -0.08431982
-0.1147263 0.28298786 -0.32073975 0.2544761 0.31947187 0.16465461 0.08165036 0.25944942
0.07270968 -0.0970404 -0.06431054 0.33938986 0.0513072 -0.18439202 0.08465774 -0.35597742
0.12147881 -0.22941513 -0.092384234 -0.103868246 0.045874536 0.07205683 0.06921921 0.07037099
0.16622627 0.10459737 0.119227536 -0.14927988 0.21046261 0.30345067 -0.19029053 -0.05693405
-0.16744162 -0.0740485 -0.23095345 -0.077209964 -0.113037966 0.15261407 0.0016457952 0.23799537
-0.18842076 -0.24719991 -0.03674304 0.10286746 -0.0025901445 0.14687122 0.045221385 0.08553168
0.123144284 0.1183539 0.06729232 0.10719201 0.084673725 0.027246172 0.23459166 0.15702291
-0.17178795 -0.022067966 -0.21209706 0.11744797 -0.08117528 -0.22643764 -0.1354969 -0.21009274
-0.0029950775 -0.07147985 -0.20994511 -0.045410506 0.20245068 0.17783074 -0.07982494 0.27853748
-0.08526598 0.15547428 0.109213054 -0.18481623 -0.18262735 0.1632323 0.08939665 -0.15405755
0.018152462 -0.08440772 -0.11289457 0.09121222 0.1683508 0.15559746 -0.02784873 0.16330907
-0.14747839 -0.011780559 0.16030343 -0.053235196 -0.15153387 -0.02661314 0.20179838 -0.08619297
-0.12935565 0.13732634 0.098219484 0.06324746 -0.019430418 -0.1589638 -0.10501287 -0.097443685
-0.1353424 -0.17658469 0.18666524 -0.0042832755 0.16144562 -0.056702193 -0.13699058 -0.14457108
0.022004025 -0.027812237 -0.25662738 -0.013869558 0.31510705 0.03303167 -0.15067016 0.123952515
-0.116219275 -0.028402124 0.030597864 -0.2386878 0.06328243 0.01918118 -0.023960324 0.10626054
00000000: 6b8a 5b3d acaf 033e dcc4 993d 270d ccbd
00000010: 2d8f b13d b79f d73c 78e0 223e 9f68 acbd
00000020: b044 1fbe 8200 b03c 3205 703d 66d1 a53c
00000030: 5886 7abe 9a12 093e 9f3e 813e d840 75bc
00000040: c35c 173e 6b53 9abd 4dad 313e 693b cfbd
00000050: 4b94 1dbe 4e97 2bbe ba6b 693e d145 763e
00000060: 9a18 b23b 7f2e 5d3e 1a69 f0bd 6fa9 0a3e
00000070: aae6 ad3c 78cd 023e 36bb 873d 73e2 57be
00000080: e92f 413d abdc a33e 81cd 94bd 72fa b1be
00000090: a459 b6be 44b0 453d 6d6d 5e3e de06 2e3e
000000a0: 3a2f 903d d10b 573e 62cc 823e fa82 5f3e
000000b0: a9c6 8bbe e4da 25bc 62b0 503e aa1f 7a3e
000000c0: 7dec 043d 7322 4b3e 4914 b9be d990 9a3e
000000d0: d986 58bd 963f adbd bec5 fe3d 98cd 0bbe
000000e0: 1d15 033e 8983 34be 67c3 2cbe 770e 603c
000000f0: f9d3 473e 4335 fdbd f69a a3bd 4516 853d
00000100: a1d0 1f3e 17c6 753d d359 32be 5958 563e
00000110: 3868 8a3d 1b94 063e e0bc 6d3d 7c76 59be
00000120: 7b18 093e e68f d73b d9b4 8abd 9319 22bd
00000130: b7cc a13d 9279 87bc 0401 28be 3015 793d
00000140: e3de 803e d78f fc3d edfc d0bd 3e4d 54be
00000150: 4147 37be f4d0 ecbd 4fc2 8e3e 968d 71be
00000160: f2fd 9b3d 26e5 6b3e 8d6b 45bb 91a1 2d3e
00000170: 61d0 503d 010a 383e 9fa4 f53d 0221 283e
00000180: fa7f 9fbe 1182 61bd 2348 22be 8ec9 f2bd
00000190: 1368 a33e 3fe1 0b3d 1c78 bdbd b6b9 a0be
000001a0: 13e1 3d3e 18d9 2cbc 6232 27be abeb a9be
000001b0: 0d3d 4a3e 0d7a 763d e2d2 acbd 8012 61be
000001c0: ecec 00be 56c5 5bbe 9db7 9fbe 0924 71be
000001d0: 9a69 2dbe 17db 803e f2ae e33d dc09 293e
000001e0: 5d07 46be 37c0 20be 4771 873e 2c38 283e
000001f0: 66c5 54be edcb 80be fb52 66be dfaf acbd
00000200: 9ff5 eabd c9e3 903e 0038 a4be b14a 823e
00000210: d191 a33e 389b 283e 4e38 a73d 8ed6 843e
00000220: d0e8 943d 1ebd c6bd 3fb5 83bd 82c4 ad3e
00000230: 8027 523d 43d1 3cbe 0a61 ad3d ac42 b6be
00000240: e2c9 f83d cdeb 6abe f233 bdbd e0b8 d4bd
00000250: f0e6 3b3d 8892 933d cdc2 8d3d aa1e 903d
00000260: 3837 2a3e 2537 d63d 912d f43d d3dc 18be
00000270: 8383 573e e35d 9b3e 85db 42be ae33 69bd
00000280: d175 2bbe bda6 97bd 107f 6cbe 4220 9ebd
00000290: 7380 e7bd dd46 1c3e b9b7 d73a 0fb5 733e
000002a0: 5ff1 40be f921 7dbe df7f 16bd 2dac d23d
000002b0: 6abf 29bb 6965 163e 0f3a 393d 3c2b af3d
000002c0: 1233 fc3d 8863 f23d 8ed0 893d 7c87 db3d
000002d0: 6b69 ad3d 5d33 df3c cc38 703e 9dca 203e
000002e0: 2ee9 2fbe e1c7 b4bc f92f 59be 9088 f03d
000002f0: 3a3f a6bd 45df 67be b3bf 0abe 8d22 57be
00000300: 1049 44bb 0764 92bd dafb 56be 5e00 3abd
00000310: 3b4f 4f3e 4319 363e 427b a3bd 779c 8e3e
00000320: ee9f aebd a634 1f3e 18ab df3d 7740 3dbe
00000330: aa02 3bbe 5e26 273e 9715 b73d 43c1 1dbe
00000340: 79b4 943c f4dd acbd 4535 e7bd 79cd ba3d
00000350: 2764 2c3e f154 1f3e 0523 e4bc 7e3a 273e
00000360: 9304 17be 3f03 41bc 9526 243e 260d 5abd
00000370: b22b 1bbe cd03 dabc 3ca4 4e3e f185 b0bd
00000380: cf75 04be 479f 0c3e 4c27 c93d e287 813d
00000390: 8a2c 9fbc 68c7 22be fd10 d7bd 8e90 c7bd
000003a0: 3397 0abe 9ed2 34be 2c25 3f3e b85a 8cbb
000003b0: 0052 253e 8f40 68bd 4247 0cbe 710a 14be
000003c0: c941 b43c 7dd6 e3bc aa64 83be 253d 63bc
000003d0: b655 a13e 374c 073d 4749 1abe d1da fd3d
000003e0: 5f04 eebd 92ab e8bc 5fa8 fa3c 936a 74be
000003f0: 389a 813d da21 9d3c 7148 c4bc 209f d93d

decoder.4.bias f4 [3]
-0.18344231 -0.34625188 1.2259781
00000000: 4dd8 3bbe ed47 b1be daec 9c3f

encoder.0.weight f4 [128, 3]
-0.15552199 0.55595094 0.118130185 0.44911525 -0.32328272 -0.23665798 0.15874413 -0.11269366
-0.011168385 0.18471962 -0.23325703 0.101800576 0.22731388 0.4095125 -0.006089544 0.40402752
-0.39588216 0.09209549 0.103327334 -0.10886077 -0.28097624 0.15117456 -0.46314663 0.30773947
-0.42092687 -0.40708137 -0.19944422 0.15726355 0.5639841 0.3898463 -0.028050182 -0.04311478
0.31849825 -0.57354677 0.36565268 0.25061083 0.13015944 0.2883228 0.32925135 -0.21690004
-0.081410535 -0.13273908 -0.28555858 -0.11831292 -0.010172342 -0.056499 -0.09216714 -0.18613923
0.45654392 -0.28912485 0.29503393 0.008052723 0.28875166 0.40215588 0.36508548 0.14388937
-0.39547133 0.070684075 0.11840053 -0.21081448 -0.16720484 -0.11843673 0.44950742 0.41991556
-0.3467097 -0.3395018 -0.37215477 -0.4735883 0.48548824 0.021933865 -0.2500603 -0.26287135
0.43160665 0.30085945 0.4306796 0.5762432 -0.35570747 -0.33123627 0.3926195 0.03745808
-0.004265943 0.25858426 -0.14082609 0.47197703 0.2674749 -0.42995635 -0.28042337 -0.07550414
-0.37929755 0.23497622 -0.27169657 0.5202786 -0.50448143 0.11131915 -0.043260828 -0.48971832
-0.4829487 -0.070973836 -0.32823068 -0.41496313 -0.08951536 0.0973903 0.12917297 -0.45008102
-0.45680898 0.30647567 -0.40939248 -0.17904165 -0.2810368 -0.3935767 0.04376821 -0.5194717
0.21687807 0.0046189493 -0.40790844 -0.3654493 -0.1687486 0.061226353 0.3683341 0.13421333
-0.14525467 -0.13941303 0.49185774 -0.46046624 0.36060613 -0.13940525 -0.20612623 -0.18182696
-0.37983254 -0.32700062 0.52445495 0.3620586 -0.20036684 0.53440106 -0.17757127 0.30980262
0.42187357 -0.56743723 0.17726217 0.07559044 -0.038243517 -0.08105567 0.016233185 -0.43110913
0.33133242 0.086015515 -0.14595841 -0.54270315 -0.39573646 0.54163134 0.5055811 0.4795086
0.51734865 0.03403064 0.32660624 0.49590126 0.26681513 -0.5419884 0.45676473 0.4693911
-0.11286737 -0.52743596 -0.5737647 0.3195389 0.4282457 -0.56992465 -0.21249479 0.3567364
-0.09238387 0.5203493 -0.0822138 -0.42200005 0.5239846 0.5058928 -0.37931642 -0.20528641
0.12561007 -0.017755125 0.40002903 -0.43694437 0.5650842 -0.34445813 -0.08316187 0.45118237
-0.22608948 -0.2430606 0.030261202 0.01710376 -0.12426949 -0.019186007 0.18162179 0.4949074
0.4820919 -0.31496015 -0.51230717 0.4769587 -0.34067178 0.0017101076 0.17344242 0.3209699
-0.5220049 -0.42279032 0.08299284 -0.11509443 0.5045066 -0.4209564 0.21742062 0.22257262
-0.5106753 0.16106574 -0.56572974 -0.5444697 -0.21565484 -0.21676046 -0.3929621 0.49260437
0.13918144 0.33805785 -0.38389233 0.47519282 0.54346085 -0.39466244 0.36662245 -0.5051153
0.48524326 -0.4789065 -0.1433418 -0.16400047 0.23169683 -0.27980497 0.5600114 -0.17159592
0.17584933 -0.31569156 -0.33128273 -0.57432705 -0.31006894 -0.49612996 0.3150144 0.0771439
-0.15166762 -0.11702512 0.23377027 -0.39621967 0.42830724 0.41747487 -0.33934075 0.03759628
0.3048573 -0.38971153 -0.2595122 -0.5397939 -0.21433972 -0.081105635 -0.5531262 0.19684249
00000000: 2841 1fbe cd52 0e3f 3dee f13d 6ff2 e53e
00000010: 5085 a5be 7856 72be d28d 223e efcb e6bd
00000020: 9afb 36bc 2427 3d3e eeda 6ebe d27c d03d
00000030: f8c4 683e 9fab d13e cc8a c7bb b2dc ce3e
00000040: 11b1 cabe 8f9c bc3d 489d d33d 65f2 debd
00000050: 1edc 8fbe 81cd 1a3e 8e21 edbe 0790 9d3e
00000060: ba83 d7be f86c d0be 1b3b 4cbe b209 213e
00000070: 4361 103f ef99 c73e 7fc9 e5bc 2099 30bd
00000080: 3412 a33e f6d3 12bf d436 bb3e 1050 803e
00000090: 8448 053e 0c9f 933e a293 a83e 0b1b 5ebe
000000a0: 91ba a6bd c1ec 07be bc34 92be 0b4e f2bd
000000b0: e5a9 26bc 7f6b 67bd 20c2 bcbd 489b 3ebe
000000c0: 20c0 e93e 2c08 94be b00e 973e 91ef 033c
000000d0: 42d7 933e 60e7 cd3e 7cec ba3e bc57 133e
000000e0: 387b cabe d0c2 903d fa7b f23d c0df 57be
000000f0: bf37 2bbe f58e f2bd d625 e63e 2cff d63e
00000100: ef83 b1be 2ed3 adbe 128b bebe 2a7a f2be
00000110: ea91 f83e a6ae b33c e707 80be 1397 86be
00000120: 8cfb dc3e 400a 9a3e 0982 dc3e ad84 133f
00000130: 4a1f b6be cd97 a9be 6c05 c93e a56d 193d
00000140: 53c9 8bbb 2865 843e b734 10be f9a6 f13e
00000150: 78f2 883e 3d23 dcbe a793 8fbe eaa1 9abd
00000160: 4a33 c2be 9b9d 703e d01b 8bbe fa30 053f
00000170: b225 01bf 4bfb e33d 4432 31bd 5cbc fabe
00000180: 0d45 f7be bb5a 91bd da0d a8be 0c76 d4be
00000190: d453 b7bd 9174 c73d eb45 043e 0571 e6be
000001a0: dee2 e9be 61ea 9c3e e49b d1be b256 37be
000001b0: 0ee4 8fbe e382 c9be 4b46 333d 19fc 04bf
000001c0: 4915 5e3e 8e5a 973b 60d9 d0be 2c1c bbbe
000001d0: 6fcc 2cbe 7cc8 7a3d 4a96 bc3e 386f 093e
000001e0: a4bd 14be 4ac2 0ebe c7d4 fb3e 3bc2 ebbe
000001f0: 5ea1 b83e 40c0 0ebe c112 53be d930 3abe
00000200: 6979 c2be a06c a7be ae42 063f bf5f b93e
00000210: f72c 4dbe 82ce 083f 3ed5 35be 739e 9e3e
00000220: d0ff d73e 9143 11bf 3784 353e 29cf 9a3d
00000230: 3ca5 1cbd 8400 a6bd 75fb 843c 56ba dcbe
00000240: 67a4 a93e e728 b03d 1f76 15be 98ee 0abf
00000250: f89d cabe 5aa8 0a3f c36d 013f 2782 f53e
00000260: f670 043f b663 0b3d ef38 a73e c5e6 fd3e
00000270: fe9b 883e c0bf 0abf 11dd e93e 0854 f03e
00000280: 0227 e7bd 0b06 07bf 3ee2 12bf 9a9a a33e
00000290: 0543 db3e 95e6 11bf 3c98 59be 27a6 b63e
000002a0: c133 bdbd 9d35 053f b55f a8bd 6410 d8be
000002b0: db23 063f 3182 013f c335 c2be 9a36 52be
000002c0: ed9f 003e 3273 91bc 9bd0 cc3e 2cb7 dfbe
000002d0: 5ca9 103f d15c b0be c550 aabd 6001 e73e
000002e0: 0084 67be e1e4 78be 57e6 f73c 2f1d 8c3c
000002f0: 0181 febd f92b 9dbc 10fb 393e 8164 fd3e
00000300: c0d4 f63e 7542 a1be 9026 03bf ee33 f43e
00000310: 886c aebe b025 e03a e49a 313e 2b56 a43e
00000320: 1da2 05bf f977 d8be 26f8 a93d a1b6 ebbd
00000330: 5827 013f 9987 d7be 83a3 5e3e 14ea 633e
00000340: 9ebb 02bf 6bee 243e aad3 10bf 5e62 0bbf
00000350: 9fd4 5cbe 74f6 5dbe 5432 c9be a436 fc3e
00000360: 9485 0e3e eb15 ad3e 898d c4be 794c f33e
00000370: 4020 0b3f 3211 cabe f0b5 bb3e 3c4f 01bf
00000380: ce71 f83e 3c33 f5be 31c8 12be bdef 27be
00000390: ef41 6d3e 9942 8fbe e85c 0f3f d7b6 2fbe
000003a0: d911 343e 53a2 a1be e49d a9be 1907 13bf
000003b0: 5bc1 9ebe bf04 febe 9149 a13e 9ffd 9d3d
000003c0: c24e 1bbe deaa efbd 7961 6f3e 4edd cabe
000003d0: 164b db3e 44bf d53e 12be adbe 8ffe 193d
000003e0: 4216 9c3e 4588 c7be c8de 84be ef2f 0abf
000003f0: df7b 5bbe b61a a6bd ae99 0dbf 1491 493e

encoder.0.bias f4 [128]
-0.38110483 -0.37528303 -0.24441385 -0.17534684 -0.20957258 -0.32332966 0.26556557 0.19711462
-0.16596068 -0.38273042 0.2529898 0.22124492 -0.57470053 0.013380299 -0.12073881 0.35462588
-0.3843448 -0.052269537 0.26697245 0.35944557 0.07260851 0.15918928 -0.57388103 -0.2849649
0.4948505 0.16951016 0.2765288 -0.16111234 -0.53022325 0.36215663 -0.21514739 0.014347367
-0.1530283 -0.18073146 -0.48984364 -0.16685197 0.4990596 -0.4765072 -0.16601396 -0.1061072
-0.16460069 -0.41176522 -0.4176931 0.09856708 -0.023640463 -0.2098673 -0.5031107 0.2985971
-0.017357519 0.09299353 -0.477585 -0.38748056 0.3486369 0.46782348 -0.39351085 -0.5518185
0.065321125 0.39942214 0.18657894 0.3735283 0.43802518 -0.45126984 -0.13904606 0.3706311
-0.20388126 -0.08544977 0.5380862 -0.14946197 0.11734495 0.10491844 -0.42638192 -0.17006372
-0.48026064 -0.2648242 -0.09029694 -0.5261958 0.3516642 -0.11273688 -0.332611 0.50584435
0.22323638 0.3770587 0.054118123 0.13836096 -0.50857466 -0.06651284 0.16423585 0.3578043
-0.37505266 -0.37696594 0.35583445 -0.27762705 -0.23415568 -0.09114095 -0.16189055 0.2931068
-0.10349079 -0.0138982115 -0.27980965 0.23160198 -0.27881807 -0.37524462 0.5195388 0.32298747
0.39828348 -0.056960683 0.4781475 0.14406006 0.5120819 0.46804294 0.2927233 0.33027363
0.05828406 0.1378021 -0.42863533 -0.10749898 -0.43262258 -0.059350304 0.11340256 -0.5451321
0.23515469 0.1083253 -0.57392365 -0.047969732 0.041255597 0.52496415 0.46760634 -0.13091913
00000000: 2c20 c3be 1925 c0be a047 7abe 1f8e 33be
00000010: 329a 56be 778b a5be 36f8 873e 6ad8 493e
00000020: 99f1 29be 3ef5 c3be e187 813e 078e 623e
00000030: 931f 13bf 0b39 5b3c e945 f7bd 8691 b53e
00000040: d7c8 c4be 9518 56bd 9db0 883e 4009 b83e
00000050: c5b3 943d 8402 233e dee9 12bf ebe6 91be
00000060: 0b5d fd3e 1294 2d3e 2f95 8d3e a2fa 24be
00000070: b6bc 07bf 986c b93e 994f 5cbe 3811 6b3c
00000080: 73b3 1cbe ab11 39be c9cc fabe 3edb 2abe
00000090: bd84 ff3e c0f8 f3be 90ff 29be bb4e d9bd
000000a0: 158d 28be e4d2 d2be dfdb d5be 8add c93d
000000b0: a5a9 c1bc 74e7 56be ddcb 00bf b8e1 983e
000000c0: 5b31 8ebc 6473 be3d 0586 f4be da63 c6be
000000d0: 8980 b23e 8f86 ef3e 417a c9be fa43 0dbf
000000e0: 15c7 853d 0f81 cc3e 8d0e 3f3e 1a3f bf3e
000000f0: d644 e03e d70c e7be 1762 0ebe 5cc3 bd3e
00000100: 40c6 50be 4a00 afbd 04c0 093f 8f0c 19be
00000110: 8d52 f03d 7bdf d63d bb4e dabe 2f25 2ebe
00000120: b9e4 f5be 0a97 87be 9aed b8bd c5b4 06bf
00000130: 540d b43e 98e2 e6bd fd4b aabe 047f 013f
00000140: 1498 643e d70d c13e f7aa 5d3d 7fae 0d3e
00000150: f331 02bf e237 88bd 712d 283e 2032 b73e
00000160: e706 c0be ae01 c1be ef2f b63e 2225 8ebe
00000170: 82c6 6fbe 1ba8 babd a3c6 25be 1812 963e
00000180: fbf2 d3bd 53b5 63bc 3643 8fbe 1229 6d3e
00000190: 3ec1 8ebe 1020 c0be 7f00 053f 9d5e a53e
000001a0: d0eb cb3e 9b4f 69bd c0cf f43e 7b84 133e
000001b0: cd17 033f 53a3 ef3e d4df 953e a019 a93e
000001c0: 44bb 6e3d fe1b 0d3e 1776 dbbe 6d28 dcbd
000001d0: b580 ddbe 4e19 73bd 9a3f e83d c78d 0bbf
000001e0: 64cc 703e a8d9 dd3d a9ec 12bf e97b 44bd
000001f0: a1fb 283d 0d64 063f 196a ef3e aa0f 06be

encoder.2.weight f4 [128, 128]
-0.039950173 -0.009371605 -0.023110023 -0.07600827 -0.046060845 0.04171364 -0.059363097 -0.0007658609
-0.0558814 0.06706638 0.053892016 -0.044047978 0.036882337 0.08181189 -0.03312128 0.052005533
0.00790365 0.022612037 -0.061179847 0.06909704 0.06829466 0.025074687 -0.06234073 -0.0017292851
0.05463875 -0.0046023093 0.020360215 0.0393401 0.0009597048 0.07786698 0.0014435716 -0.087418765
-0.0076603475 0.07610789 -0.05956834 -0.056911405 0.07146989 -0.017285012 -0.027773235 -0.04865133
0.088330396 -0.06729795 -0.068095006 0.0791497 0.007403157 0.016684568 0.036266845 0.038835455
-0.074376054 0.06919485 0.011993138 -0.06859242 0.047283433 0.033172887 0.03735 0.0079248715
-0.08593761 0.061966803 -0.061931103 0.012401573 0.044732694 -0.072327554 0.07436715 -0.032665808
0.045057498 -0.047925286 -0.037847005 0.030738045 0.0008734302 -0.005056315 0.018236604 -0.07084571
-0.05880742 0.011786925 0.0027616196 -0.022736443 0.06838416 -0.06385002 -0.038294364 0.024641154
-0.0410673 -0.06338012 0.0726701 -0.06637757 0.043968815 -0.015004994 0.019430235 -0.07481511
-0.017254002 0.05341192 0.02663605 -0.0023617407 0.062260546 -0.017771598 -0.08018562 -0.011581227
-0.07863311 0.014224519 -0.026397571 -0.020928796 0.018266486 0.032055553 0.07300604 0.026220776
-0.054598693 0.062331058 0.027842607 -0.011509071 -0.066471025 0.047904003 0.05387741 0.051772673
-0.04048192 0.078451246 0.08751433 -0.04164845 0.06956767 0.061427925 0.025132755 0.045493625
-0.02395944 -0.036096975 0.061907344 0.039687663 -0.03759149 -0.058938637 0.059961814 -0.041587286
-0.0468607 -0.023063282 -0.053640388 0.086929664 0.064266145 -0.032565564 0.087991126 0.07063671
0.0077291103 0.048002563 -0.047309037 -0.042121645 0.03068692 0.06784077 0.0063226596 -0.0328427
0.02464836 0.04626601 -0.08643789 0.031580012 -0.07332284 0.00015888308 -0.034333896 0.067597695
-0.03674206 0.050420422 -0.061020553 0.07737207 -0.08824101 0.008758905 -0.08631206 0.00016744943
-0.06406025 0.083620936 -0.032627918 0.021682383 -0.0863919 0.031212553 0.052813265 -0.00933363
0.033129077 -0.08022956 0.08389525 0.013135561 0.0074015134 0.012796478 -0.08487443 0.021307392
-0.06492877 0.025744127 -0.04098566 -0.0050786743 0.041263312 0.017342733 0.040823184 -0.023320483
0.012228813 0.024716007 -0.082914606 0.06351938 0.012313781 -0.030151749 -0.047485683 -0.043339856
-0.06498571 -0.039645 0.06058799 -0.077208534 -0.084001094 0.022322487 0.034022547 -0.02434129
-0.054459903 0.025314925 -0.064480476 -0.07781219 0.024849202 0.011241439 -0.060172655 0.022265505
0.008865853 0.0035289766 -0.04627134 -0.07234514 0.08751316 -0.03569407 -0.020865671 0.053282823
0.009117933 0.071000434 0.008773551 0.028794495 0.064634986 -0.0070427065 0.05019165 -0.025109153
-0.029179074 -0.018880766 -0.02555592 -0.058152504 0.07478525 0.013531035 0.03686748 -0.06926006
-0.023573775 -0.059685867 -0.033746634 0.04334386 0.08579284 0.02618375 0.03949614 0.06586641
0.03317821 0.058963533 -0.07901698 -0.012612613 0.015600845 -0.05103719 0.029592503 0.015650272
-0.011170042 -0.052307367 -0.031683892 -0.0045446944 -0.042250603 0.04672523 -0.010696817 -0.04618634
00000000: cba2 23bd 5c8b 19bc 3b51 bdbc 39aa 9bbd
00000010: 4caa 3cbd ecdb 2a3d b826 73bd 0ec4 48ba
00000020: e5e3 64bd 195a 893d e0bd 5c3d a76b 34bd
00000030: ef11 173d fe8c a73d 2eaa 07bd c103 553d
00000040: 507e 013c e13c b93c b897 7abd c082 8d3d
00000050: 12de 8b3d 6e69 cd3c fe58 7fbd 2ea9 e2ba
00000060: e2cc 5f3d f8ce 96bb 77ca a63c 1623 213d
00000070: b394 7b3a b978 9f3d 3a36 bd3a 9c08 b3bd
00000080: a703 fbbb 74de 9b3d effd 73bd ef1b 69bd
00000090: ce5e 923d 4c99 8dbc b284 e3bc 9e46 47bd
000000a0: 91e6 b43d 82d3 89bd 6575 8bbd 3d19 a23d
000000b0: 2f96 f23b 13ae 883c 8b8c 143d ed11 1f3d
000000c0: 7952 98bd 08b6 8d3d de7e 443c 2f7a 8cbd
000000d0: 46ac 413d 4be0 073d 50fc 183d 52d7 013c
000000e0: 0f00 b0bd e7d0 7d3d 78ab 7dbd f82f 4b3c
000000f0: a139 373d 7820 94bd ce4d 983d 95cc 05bd
00000100: 368e 383d 4e4d 44bd 7605 1bbd 5ace fb3c
00000110: e9f6 643a 72af a5bb ee64 953c 8e17 91bd
00000120: 0de0 70bd f21d 413c 4afc 343b c741 babc
00000130: ff0c 8c3d cdc3 82bd 8dda 1cbd 3fdc c93c
00000140: 2f36 28bd 70cd 81bd 10d4 943d f7f0 87bd
00000150: a518 343d 82d7 75bc 282c 9f3c aa38 99bd
00000160: 4458 8dbc 75c6 5a3d d833 da3c 6fc7 1abb
00000170: ea04 7f3d be95 91bc 5c38 a4bd 30bf 3dbc
00000180: 650a a1bd f50d 693c b83f d8bc de72 abbc
00000190: 99a3 953c af4c 033d 3184 953d f4cc d63c
000001a0: e1a2 5fbd da4e 7f3d 2e16 e43c 8b90 3cbc
000001b0: f621 88bd fd36 443d 8fae 5c3d 950f 543d
000001c0: 5fd0 25bd 0cab a03d b73a b33d 9197 2abd
000001d0: 7f79 8e3d d99b 7b3d 35e3 cd3c 8657 3a3d
000001e0: 9646 c4bc 6cda 13bd 8e92 7d3d 888f 223d
000001f0: 89f9 19bd a469 71bd 859a 753d 6e57 2abd
00000200: 01f1 3fbd 35ef bcbc 06b6 5bbd 2e08 b23d
00000210: f89d 833d 7863 05bd b134 b43d fba9 903d
00000220: 7a44 fd3b 569e 443d 1fc7 41bd bf87 2cbd
00000230: 2363 fb3c 1af0 8a3d 502e cf3b 1186 06bd
00000240: 5ceb c93c 6d81 3d3d 5906 b1bd 0b5a 013d
00000250: 492a 96bd da99 2639 b3a1 0cbd a970 8a3d
00000260: d87e 16bd a585 4e3d b0f0 79bd 3f75 9e3d
00000270: b4b7 b4bd 8381 0f3c 61c4 b0bd 5d95 2f39
00000280: 0532 83bd 7441 ab3d daa4 05bd 419f b13c
00000290: 3dee b0bd 78b1 ff3c b952 583d 15ec 18bc
000002a0: 5bb2 073d 654f a4bd 46d1 ab3d 8936 573c
000002b0: 6588 f23b 52a8 513c a5d2 adbd d78c ae3c
000002c0: 60f9 84bd 59e5 d23c 94e0 27bd 026b a6bb
000002d0: b803 293d 5912 8e3c 3636 273d 990a bfbc
000002e0: 5c5b 483c 3979 ca3c 22cf a9bd 7316 823d
000002f0: bebf 493c cd00 f7bc 5980 42bd 2285 31bd
00000300: 3a17 85bd cc62 22bd 1d2b 783d 821f 9ebd
00000310: c408 acbd a6dd b63c 3a5b 0b3d 6367 c7bc
00000320: 5911 5fbd 3f61 cf3c 570e 84bd ff5b 9fbd
00000330: 8e90 cb3c 032e 383c 9a77 76bd 2666 b63c
00000340: 1542 113c 6746 673b 0487 3dbd b029 94bd
00000350: 1a3a b33d f233 12bd 7cee aabc 173f 5a3d
00000360: 6263 153c ad68 913d f1be 0f3c 6fe2 eb3c
00000370: 595f 843d 81c6 e6bb c295 4d3d b6b1 cdbc
00000380: f408 efbc d6ab 9abc a65a d1bc 5231 6ebd
00000390: 0229 993d 46b1 5d3c 5b02 173d 38d8 8dbd
000003a0: ca1d c1bc 2b79 74bd e939 0abd 5589 313d
000003b0: 28b4 af3d 4e7f d63c b4c6 213d f8e4 863d
000003c0: e0e5 073d bf83 713d a8d3 a1bd 22a5 4ebc
000003d0: b09a 7f3c 5f0c 51bd fa6b f23c 0035 803c
000003e0: 8d02 37bc 4040 56bd f8c6 01bd a9eb 94bb
000003f0: f80e 2dbd f462 3f3d b441 2fbc e32d 3dbd

encoder.2.bias f4 [128]
-0.016209826 0.02718613 -0.08167799 -0.07602206 0.042861786 0.029399607 -0.058459196 -0.032320783
0.01695378 0.05609673 0.02969099 -0.017210266 -0.04662362 -0.08032185 0.05281474 -0.031076461
-0.061563943 0.07632874 0.012253469 -0.06913457 0.0041158292 -0.064958915 0.073696606 0.006142787
-0.08781791 -0.03375719 -0.08580804 0.016404565 -0.03893079 0.0429671 0.0019910592 -0.0047768815
-0.048484806 -0.04800095 -0.035000745 0.07180497 0.082317084 -0.0055593695 -0.012899717 0.03890784
0.052919254 0.015460781 -0.08554422 -0.053586155 0.023959503 -0.05402263 -0.0010010087 0.07194031
-0.06116517 -0.045685276 -0.018415296 0.014052254 -0.02117565 0.08694056 -0.08078441 -0.06667984
-0.0228408 -0.07790702 0.039252076 0.082186975 -0.08007524 0.00015673359 -0.057775617 0.031907514
0.020608861 -0.006047093 0.018891344 -0.045021567 0.021654502 0.021406151 -0.07512386 0.08781932
-0.05073803 -0.070849106 0.08174441 -0.079566576 -0.05016676 -0.036679443 -0.016425649 -0.008423079
-0.070440434 -0.076949574 -0.03792229 0.064908825 0.055682246 0.076145865 -0.013617415 -0.06747014
0.07875303 -0.028107638 -0.053939145 0.083553344 0.050495338 0.020474896 -0.021788444 0.060371578
0.032762684 -0.05877634 0.033021413 0.07498374 0.049374465 0.0768857 0.0070528956 -0.041469473
0.011916442 0.022157125 0.045506477 -0.043495513 0.08450711 -0.01722431 0.03900602 0.053892985
-0.008045465 -0.038576335 -0.023668194 0.046274498 -0.03992651 -0.018821275 0.030318977 -0.053974655
0.003138781 0.009620313 0.030525476 -0.08765192 -0.06322306 -0.02126612 -0.037191052 -0.083874226
00000000: 78ca 84bc 72b5 de3c ca46 a7bd 74b1 9bbd
00000010: d78f 2f3d 72d7 f03c e972 6fbd cc62 04bd
00000020: a7e2 8a3c afc5 653d 853a f33c 8bfc 8cbc
00000030: 69f8 3ebd c87f a4bd 4554 583d 1094 febc
00000040: 792a 7cbd 3e52 9c3d c6c2 483c 6d96 8dbd
00000050: 14de 863b 2e09 85bd 3fee 963d 6f49 c93b
00000060: e0d9 b3bd fb44 0abd 20bc afbd de62 863c
00000070: e475 1fbd 45fe 2f3d 6e7c 023b 6387 9cbb
00000080: 0198 46bd a59c 44bd f15c 0fbd 7c0e 933d
00000090: dc95 a83d 5f2b b6bb 5659 53bc d45d 1f3d
000000a0: dcc1 583d 374f 7d3c cf31 afbd 287d 5bbd
000000b0: b846 c43c d546 5dbd 4734 83ba 7155 933d
000000c0: 5488 7abd 7c20 3bbd addb 96bc 6d3b 663c
000000d0: 8f78 adbc e40d b23d 4c72 a5bd 718f 88bd
000000e0: a11c bbbc b78d 9fbd c9c6 203d a551 a83d
000000f0: 7dfe a3bd da58 2439 20a6 6cbd 74b1 023d
00000100: ead3 a83c b126 c6bb 05c2 9a3c 8968 38bd
00000110: c864 b13c f45b af3c 8ada 99bd 9eda b33d
00000120: aed2 4fbd 5619 91bd 9d69 a73d cdf3 a2bd
00000130: a97b 4dbd 2f3d 16bd 158f 86bc f400 0abc
00000140: 1343 90bd bd97 9dbd 6754 1bbd ebee 843d
00000150: 1113 643d 5df2 9b3d 941b 5fbc c92d 8abd
00000160: 4549 a13d fd41 e6bc 4bef 5cbd 041e ab3d
00000170: 33d4 4e3d f8ba a73c ae7d b2bc 3048 773d
00000180: 2a32 063d 76bf 70bd 7641 073d 1391 993d
00000190: e13c 4a3d 4076 9d3d fa1b e73b e5db 29bd
000001a0: 2e3d 433c dc82 b53c 0065 3a3d 5a28 32bd
000001b0: 1012 ad3d ff19 8dbc c7c4 1f3d e4be 5c3d
000001c0: 20d1 03bc 3802 1ebd cde3 c1bc 548a 3d3d
000001d0: fb89 23bd 132f 9abc 815f f83c 8714 5dbd
000001e0: 02b4 4d3b 849e 1d3c 9010 fa3c da82 b3bd
000001f0: 177b 81bd 4936 aebc a555 18bd 40c6 abbd
